Lunar_Lander/Rainbow_Lunar/Checkpoints/checkpoint_lunar_agentDueling_noisy_PER.pth (torch_old, 94278 bytes, 28 tensors)

fc1.weight f4 [128, 8]
00000000: 9288 78bb 442f e03b 649a a0bf e77e 43be
00000010: 5cfc 8ebc de10 dc3d 07d5 2abd 6dcf d03e
00000020: f2d1 b1be d03f a2bd a4ad abbd 7705 27be
00000030: afe6 213f 2cba 6a3e 953c 51bd d194 723e
00000040: f262 86bb d3e9 193e 2586 c7be 5d95 28bd
00000050: 710d 51bd cfca 2b3f 0dd7 48bd ce9f c03e
00000060: 43d1 01bd 2749 443e 82ec ad3f 78d7 0abf
00000070: ef2f 10bf 95cc 68be a86a f73b 84d5 063f
00000080: 020a 5abe 4afc cabe a674 3abf 1658 cabe
00000090: ea24 073e d948 07be a435 fe3c b733 b23e
000000a0: ed53 913e c2c1 4dbf 10b6 1ebe 3b4e 7ebf
000000b0: f196 2a3d 9e23 17be c97b cd3e b33d 8d3e
000000c0: 8a00 eabe 645a 6cbe d2c2 c53d ecf2 023e
000000d0: b428 dabd 8cda 093e e878 c73e f59d 5dbe
000000e0: 8586 06be cbdf b0be 72c7 a3be 4764 3a3e
000000f0: 21fc 1b3f b07f 513e 2747 8fbe fb40 303e
00000100: 5fb4 093e e4e3 70bc 1534 16be f529 313c
00000110: 6511 f93e 7c0e 313f 1908 3dbd 7cf8 2dbe
00000120: a8ef 4f3e d36c 0e3f 24c3 f73e 8c02 9c3e
00000130: 9599 10be ff2d d8be 5c5b 043e 597e 6dbe
00000140: 6bba abbe af5d 113f 7218 1e3f d39f 17bf
00000150: ed28 e93c aaa1 863e 29e2 f3bc 0bdd ed3c
00000160: 73b6 713e fde3 2fbe 625d 773e 279d 373e
00000170: 92aa c33e 87f0 103f b849 1fbe 5fa0 00be
00000180: 6afc 8a3d 343e 5c3e 4af0 01bf b804 e73e
00000190: d59c 5abc 7fff 2f3f 597a afbe 2e17 263e
000001a0: 7c1f d7be b2ba 5abf 519b 51be 44c6 07bf
000001b0: 57f4 51be 2d73 b9bd c67b e7bd f339 d33e
000001c0: 3cfb b2be 43f8 893e 115a 21bb 6117 59be
000001d0: e2e6 54be 9472 703d 51b9 903d 5b6b aa3e
000001e0: 4f37 7b3d 0b52 bb3d 6d4f 0fbf c2e4 1cbe
000001f0: 435f 93be 3e1f e6be 4d01 6bbd 8e13 63be
00000200: 9e4a 89be 4bfc 44bf 90d6 3a3d 062f 49bd
00000210: 4fe0 99be bbc7 a53d 484d aa3e 3b68 7a3d
00000220: e031 573e c3c7 53be 25b8 a4bd e80b 0a3d
00000230: 6d51 bc3f 608c 073f d641 d03e 89c9 e7bd
00000240: e34f 45bd f1dd 5abe 318a 35be 81c7 e63d
00000250: e5bd 683e 9cb4 9abe 13ec 9bbe fd42 473d
00000260: adff afbd 10ec ae3e 720e 383f 25d3 34bf
00000270: e53d 753e ab43 7ebd 6b53 053d 11fd 403e
00000280: 182e 48be 9544 363e 732f 58bf a591 e5be
00000290: ccb6 08bd 3acb 363e 8e2d c4be 8406 bc3e
000002a0: d16f c7be 9fe0 91be 2d2b 2b3f 6e7b bbbe
000002b0: ac65 ee3e e712 09bd 00c8 c6be d327 653e
000002c0: 9b26 993d ce1e 29be 2311 043f 85ce 27bf
000002d0: 15ec 3fbf 3141 a9be 96a8 a53e ee76 8f3e
000002e0: 0ca1 113e 120d 7ebd da10 22bf bb67 aebe
000002f0: 402f 21be 44e4 f8bd 809e 623e fb76 853e
00000300: 5e13 09bf cf53 c0be ae2e 82be c66d 6bbe
00000310: c97c 85be 1cf9 5f3e 403c 433d 8535 553e
00000320: 2f31 b9bd a235 993e 92d0 05bf a3cd a8be
00000330: 0d6d 41bf 39ad 493f ee5e ebbd 6211 063f
00000340: 7085 773d 7e3c 61be 907f a93e b448 a4be
00000350: dc44 06bd 67bf 523d f772 f23d 98f2 853e
00000360: 88ab debe a51d a2bf 2af3 c43d 9fc6 b0be
00000370: a9c9 70bd aa2d 253f 6452 8c3e ff80 273d
00000380: 7563 07bf 4a9a 883e d05a 5ebe e83f 3abe
00000390: 8ed7 eabe abd5 32bd f657 7e3d 2ef3 013f
000003a0: f0fa a23d ad28 163f 1fca 103f 69ff fcbe
000003b0: 184a 2ebe 7421 863d 7490 39bd bd7b ae3e
000003c0: b6de 923d e063 d33e cb96 e53c a30a c83c
000003d0: 6f66 923f c63d cbbe 9990 e03e e941 a9be
000003e0: 5037 cb3c 60d5 1f3e 47e4 dabe 2c3a 90bc
000003f0: 8253 133f b94f cf3d a754 b6bd 51aa 2ebe
-0.00379232 0.006841572 -1.2547116 -0.19091378 -0.017454319 0.10745405 -0.041707065 0.40783253
-0.34730488 -0.079223275 -0.08382729 -0.16310678 0.6324262 0.22922581 -0.051083166 0.23689581
-0.0041011507 0.15030603 -0.38969532 -0.04115807 -0.05103821 0.67106336 -0.049033213 0.3762192
-0.03169371 0.1916853 1.3587801 -0.5423503 -0.5632314 -0.22734292 0.007550556 0.5266955
-0.2129288 -0.39645606 -0.7283424 -0.3952033 0.13197675 -0.13211383 0.031031437 0.3480508
0.28384343 -0.80373776 -0.15499139 -0.9933812 0.041647855 -0.1475968 0.40133503 0.27586135
-0.45703536 -0.23081356 0.096563 0.1278798 -0.10652295 0.13462275 0.38959432 -0.21642287
-0.13137253 -0.3454574 -0.31988102 0.18202315 0.60931593 0.20458865 -0.27983972 0.17212288
0.13447712 -0.014702771 -0.14668305 0.010813226 0.48646083 0.69162726 -0.0461503 -0.1698932
0.20306265 0.556348 0.48391068 0.30470693 -0.14121087 -0.42222592 0.12925476 -0.23192729
-0.33540663 0.56783575 0.6175605 -0.5922825 0.028461898 0.26295215 -0.029770928 0.029036066
0.23604755 -0.17176814 0.24156716 0.17931043 0.38216072 0.56617016 -0.15555465 -0.12561177
0.067864254 0.21508104 -0.50757277 0.45120788 -0.013343056 0.6874923 -0.3427303 0.1621978
-0.42016208 -0.85441124 -0.20469405 -0.53036904 -0.20503365 -0.09055171 -0.11302905 0.4125515
-0.34957302 0.2694722 -0.0024620334 -0.21200325 -0.207912 0.05870302 0.07066596 0.3328503
0.061332043 0.09146508 -0.5598057 -0.15321639 -0.28783616 -0.4494571 -0.057374287 -0.22175428
-0.2681474 -0.7694747 0.04561478 -0.04911711 -0.30053946 0.08094736 0.33262086 0.06113456
0.2101512 -0.20681672 -0.08042935 0.03370276 1.4712349 0.5294857 0.4067523 -0.11317737
-0.04817189 -0.21373726 -0.17728497 0.11268521 0.22728689 -0.3021592 -0.30453548 0.04864787
-0.08593688 0.34164476 0.7189704 -0.7063468 0.23949392 -0.062076252 0.032550257 0.18846537
-0.19548833 0.177996 -0.844474 -0.4483768 -0.033377454 0.17850962 -0.38316005 0.3672372
-0.38952497 -0.28491685 0.66862756 -0.36617607 0.46561944 -0.033465292 -0.38824463 0.22378473
0.074780665 -0.16515657 0.5158865 -0.655495 -0.7496961 -0.3305755 0.32355183 0.28020424
0.14221591 -0.062024184 -0.63306963 -0.34063515 -0.1574068 -0.12152913 0.22130775 0.26067337
-0.53545177 -0.3756394 -0.2542624 -0.22991094 -0.26071766 0.21872371 0.04766488 0.20821197
-0.09042584 0.2992373 -0.5227138 -0.32969388 -0.75557023 0.7877994 -0.11492716 0.52370274
0.06042999 -0.21995732 0.33105135 -0.32086718 -0.032780513 0.051452067 0.11838334 0.26161647
-0.43490243 -1.2665297 0.09616692 -0.34526536 -0.058786068 0.645228 0.2740661 0.040894505
-0.52886134 0.26680213 -0.2171433 -0.18188441 -0.4586758 -0.0436608 0.062095605 0.5076169
0.07958019 0.58655816 0.5655841 -0.49413612 -0.17020452 0.065493494 -0.045303777 0.3407878
0.07171385 0.41287136 0.028026005 0.024419134 1.143751 -0.39695567 0.4386032 -0.33058098
0.024806648 0.1560874 -0.42752287 -0.017605864 0.575493 0.10122628 -0.08902865 -0.17057158

fc1.bias f4 [128]
00000000: 47e8 c5bc 6357 3dbe 05c0 793d 0d34 313c
00000010: 58d7 65bd 148a 9a3e be58 fd3e 8a91 563e
00000020: 07be 6c3e 5ed1 e83d 1134 3c3e 0e6d a13e
00000030: e977 c0be 6e5b 29be 0079 dcbe 4315 383e
00000040: 7fdb d3bd 6d95 963e c185 303d 5f25 cc3c
00000050: 0450 7f3e 1dfc 013e 5cbe 983e f192 063e
00000060: 1c65 2cbe c68d 9f3e b66d d73d b8d3 febd
00000070: a1f6 cb3e bbfe 0a3f bf4e d1bc a748 0d3e
00000080: 0123 b93e 8444 e83e 37b4 eb3e ccfe 38be
00000090: 1953 41be 40a0 d03e adce a03e f904 f83e
000000a0: 639b d63d a2b1 243c b63d 223e 6dcc 8bbe
000000b0: 46a4 3d3e 5664 c53e 02bb 8a3e 51c5 b13e
000000c0: 83e4 5f3e f44c 9dbd b5cb 143f 4264 6ebe
000000d0: 6959 2abe 3a9c 0ebe 7261 cc3e 0c29 243e
000000e0: 4794 2d3e 2ac3 a5bd 5e76 c73d 6b61 c7bd
000000f0: 3eb8 a23e dc68 a63e 6caf af3e 8f0d 5a3e
00000100: 8ce3 15bd d227 4fbe 52f5 403e 193b 533e
00000110: 2891 34be a5a7 873e 206c c8bd 3945 8a3d
00000120: ec0c 463e b45f 4cbe 4946 403e e9cb 5f3e
00000130: 8331 06be d41a 193d bf52 ec3d d8ba 1a3e
00000140: c0a6 02be 6c22 013f 32dd 6fbe 2ff6 513d
00000150: 8dcf 5c3e ce90 543e 44f9 3abe 23b9 b8be
00000160: 1d72 0a3e d018 a73d 88a3 a3bd 9708 d9be
00000170: e26d 99bd 5267 26be 0de0 c4be 4a98 bd3c
00000180: deb2 2ebe 4d5e 96bd c088 6fbe 9b2d 503d
00000190: d4df 94be c390 a0bc e90f 0ebd 5fc6 1ebe
000001a0: c948 7c3e ddc1 79be 4988 1d3d 1f92 bd3e
000001b0: a67f 973d 3612 043f 4d47 0ebe 6b07 6bbd
000001c0: 5775 15be 95f2 2c3e 4688 cc3e a1b9 b3be
000001d0: 34df 153e 9d70 b03e ccf3 efbd cac5 14be
000001e0: 30ef ed3e fe7e a73b 40e8 3d3d 11ec 66bd
000001f0: c680 b23e 6554 0d3e 1397 b23e 145d c1be
-0.02415861 -0.18490367 0.06097414 0.0108156325 -0.05611357 0.3018347 0.49481767 0.20953956
0.23119365 0.113680586 0.18379237 0.31528515 -0.37591484 -0.16538784 -0.43061066 0.1797686
-0.103446 0.29410878 0.043096308 0.024920164 0.24932867 0.1269383 0.29832733 0.13141991
-0.16835445 0.31162852 0.105189726 -0.12442726 0.398366 0.5429494 -0.025550244 0.13797246
0.36159518 0.45364773 0.4603593 -0.18065947 -0.18879355 0.4074726 0.3140768 0.48441294
0.104788564 0.010052117 0.15843853 -0.27304402 0.18519697 0.38553113 0.270958 0.34720853
0.21864514 -0.07680693 0.5812333 -0.23280433 -0.1663567 -0.13926783 0.39918095 0.16031283
0.16951095 -0.08093865 0.097393736 -0.09735378 0.3178119 0.32501876 0.34313524 0.21294235
-0.03659396 -0.20230034 0.18843582 0.20628013 -0.17633498 0.2649509 -0.09786248 0.067514844
0.19340867 -0.19958383 0.18776812 0.2185513 -0.13104825 0.0373791 0.1153922 0.15110338
-0.12758923 0.5044315 -0.23424223 0.05126017 0.2156355 0.20758364 -0.1825915 -0.36078748
0.13520093 0.081590295 -0.079901755 -0.42389366 -0.074916616 -0.16250351 -0.38452187 0.023143906
-0.1706042 -0.07342205 -0.2339201 0.050824743 -0.29077017 -0.019600278 -0.03468314 -0.1550536
0.2463714 -0.24390359 0.03846005 0.37025544 0.07397394 0.5159029 -0.13894387 -0.05738012
-0.14595543 0.16889413 0.39947718 -0.3510256 0.14635926 0.34460917 -0.117164224 -0.14528576
0.46471548 0.005111574 0.04636407 -0.056377474 0.3486387 0.13801725 0.34880885 -0.37766325

fc2.weight f4 [64, 128]
00000000: f3fa d7be 0f06 d03e 6200 83bc 659b 363c
00000010: 56af 993d 072e e03d 662a 333c 9ab9 183e
00000020: 2702 dc3d 1f79 5e3e 411d eabd 2d6e 803e
00000030: 90c7 c5ba 54a6 3f3e b7f4 53be cff7 8b3c
00000040: 6c44 163e 82ae 363c 1746 08be 568d 593d
00000050: 8760 683b f5c2 a0be 9b45 3c3d e4ef b1be
00000060: 87c5 c53e 8d05 79bd b227 9f3d 912a 8bbe
00000070: e5fd 673d 646a a9bd 6004 703d 4d14 5fbe
00000080: 40b0 9bbb f016 31be a2fe 303d ab02 2cbe
00000090: 893e c83e 0166 dcbc 763c 2f3e c289 0bbe
000000a0: 5f41 d83d db1d 553e 1d5b 46bd 853a 33bf
000000b0: 9093 e9bd e36c e33b 5e9d 763e 4c25 f33b
000000c0: c30d b3bd 2bbf 33bc ae3b 343e 9a4e 91be
000000d0: 3697 7cbe 463e 833e dd6a 44be 55a9 23bf
000000e0: e092 bbbd d6e3 f23c 3b56 8cbe c8a7 ee3d
000000f0: d917 c53d a099 17bd abd4 62be 6654 783d
00000100: e7f6 803e 0075 f13d 9027 233e 11fb 0b3d
00000110: 2799 663e 0a49 73bc 2995 47be 8b98 883e
00000120: 3e85 103e 51c0 cc3d cfb7 ecbc 7eae ec3d
00000130: 822a 933e cce3 56bd 1ccc 4bbe d689 163e
00000140: 6212 2f3e d0f8 ffbd cb44 9c3e 2cc4 ad3d
00000150: 01f4 36bd 33bc 563e 6094 ad3e bc95 153f
00000160: f4f5 cd3d 1b60 bcbc 68ec 963e 9d12 c1be
00000170: 74bd d13d e7bd 0bbe 83bf d03d eb9f f7bd
00000180: a88b a53e cf7d 513e c478 bc3e 279a 593e
00000190: 759e 143e 0c05 f9bc 7d33 b83d b259 1f3d
000001a0: 6e8a 1c3e 4297 ef3d 8c87 993d dc93 d13d
000001b0: 8330 233c ecd0 0bbe 7075 8d3e 88a6 d73d
000001c0: bf01 5a3e 124c 36bd 727d c23c 533d aebd
000001d0: 1a9c 063e c994 e4bd 327f 053e 1b0c cabe
000001e0: 5d1b 19be a135 e43d d0be 1b3e 0541 db3d
000001f0: 5d59 e53d 9bd7 5fbe 36f5 2d3e 43ce edbe
00000200: b1f6 b5be ce4d 993e 4bcf c6bd 0604 3f3e
00000210: 65b0 e53d 0133 f7bc e6e5 5a3d b371 213e
00000220: bed0 f83d dd29 623e 81f6 3dbd a104 583e
00000230: 0edd 86bd bd53 243e 5caa a9be 580e 56bd
00000240: f44b 1a3e 748e 643d cf99 11bd a318 36be
00000250: 9648 853d 1070 9cbe a177 9e3d d58e 84be
00000260: a676 a13e 58f8 f1bc dc7a 053c 8e88 b1be
00000270: f327 923c a750 15bd 62ea 7e3d 437c 02be
00000280: b471 1c3d ca3a 26be 21f3 973d 6a53 30be
00000290: a8a7 613e e44c febb 5e15 753e e935 fbbd
000002a0: 85f1 823d 8aff 903c 7694 7bbc 44e6 01bf
000002b0: ddd9 55be e90e ef3d dd16 3c3e 72d9 ee3c
000002c0: 5c89 cdbd a23b 15be 6ab4 df3d ba36 a1be
000002d0: f2d0 febd 91c6 963e 980e 04be 9536 37bf
000002e0: c463 a33b d940 a83c cca4 77be eda4 0e3e
000002f0: 2ba5 03bc 77bb a83d 3033 a0bd cf03 803e
00000300: 0eb1 0d3e e8b7 de3c 8c0c 9e3e a985 303c
00000310: 3ae9 283e 52b7 a83d f293 acbe fb8d bf3e
00000320: a84f 763e c20d 2a3f 5188 803d e8af 303e
00000330: 92e3 013e f781 01bd 793b 8ebe caf1 6c3d
00000340: 5337 2a3e 4ea6 82bc 1510 803e 0720 6a3e
00000350: 4e48 463b defd 573e 3471 2f3e b9fe 1b3f
00000360: 6e5a 923d bde6 aabd 02e1 3d3e 2498 85be
00000370: 4c92 b03c 3cef 63bd aaf8 8d3e 4913 89bd
00000380: 4656 293e f287 3c3e ebe1 653e 585b 0d3e
00000390: 60e3 033e b475 77bb 4f34 093c c2ad 81bd
000003a0: f1c1 8f3e 454c 983e 05c2 893d 2f9a 8cbd
000003b0: ade2 5fbd 0a06 c2bd 8d2d 2a3e 3572 7d3e
000003c0: 8a98 463e 1da3 60bd bb20 c23d 7805 b2be
000003d0: 9767 6b3d b24a 5dbe 5d5b 073e 9bdf 23bf
000003e0: 8400 8ebd 9536 e43b cf84 273e 7055 0c3e
000003f0: 01fc 5f3d 2d15 93be 260e 233e 7962 0cbf
-0.42183647 0.40629622 -0.015991393 0.011145447 0.07504146 0.10946279 0.010935402 0.14914551
0.10742598 0.21725892 -0.11431361 0.25084057 -0.0015089381 0.18715793 -0.2069882 0.017085938
0.14674538 0.011150004 -0.13307987 0.053113304 0.0035457925 -0.3139874 0.04596482 -0.34753335
0.38627264 -0.06079631 0.07771243 -0.27180913 0.056638617 -0.082722455 0.058597922 -0.21785088
-0.0047512352 -0.17293906 0.043211587 -0.16797893 0.3911021 -0.026904108 0.17112908 -0.13626769
0.105593435 0.2081217 -0.048426736 -0.7001117 -0.114050984 0.0069404705 0.24083468 0.0074202176
-0.08742859 -0.010970871 0.17600891 -0.2838028 -0.24667057 0.25633448 -0.1918139 -0.63930255
-0.091588736 0.029649656 -0.2740954 0.116530955 0.09623689 -0.037011743 -0.22151439 0.060627364
0.25188372 0.11789894 0.1593306 0.034174982 0.2251936 -0.014848957 -0.19490494 0.2667888
0.14113328 0.09997619 -0.02889624 0.11556719 0.28743368 -0.052463338 -0.1990208 0.14701018
0.17096856 -0.12498629 0.30521235 0.084846824 -0.044666294 0.2097023 0.33902264 0.584316
0.100566775 -0.022995045 0.2947724 -0.37709513 0.102412134 -0.13646661 0.10192778 -0.12091049
0.32333112 0.20458148 0.36810887 0.2125021 0.14513572 -0.030397914 0.089941956 0.0389039
0.15287182 0.11698772 0.07496557 0.1023328 0.009960297 -0.13653916 0.2762866 0.1052981
0.21289729 -0.04450614 0.023741458 -0.085077904 0.13145486 -0.11161191 0.13036802 -0.3946236
-0.14951845 0.111430414 0.15209508 0.10705761 0.11198685 -0.2185959 0.16988072 -0.46446428
-0.35539773 0.29942173 -0.09707507 0.18653879 0.11215285 -0.030175688 0.053441904 0.15766029
0.121491894 0.22086282 -0.046377663 0.21095516 -0.065851316 0.16047569 -0.33137786 -0.052259773
0.15068036 0.055799916 -0.035547074 -0.17782836 0.06507985 -0.30554247 0.07737661 -0.25890222
0.31535834 -0.029537365 0.008146968 -0.34674495 0.017841315 -0.03645387 0.062235244 -0.12742715
0.038194373 -0.16233364 0.0741942 -0.1721932 0.22036612 -0.007760631 0.23933932 -0.12266142
0.063937224 0.017699976 -0.01535522 -0.5074198 -0.2088389 0.11672766 0.18368097 0.02915642
-0.10035965 -0.1457353 0.10923083 -0.31487066 -0.12442197 0.2944837 -0.12896192 -0.7156766
0.004986258 0.020538734 -0.24183959 0.13930102 -0.008034985 0.08238881 -0.07822263 0.25002906
0.13837072 0.027187303 0.30868948 0.010774055 0.16495219 0.082380906 -0.33706623 0.3741301
0.24053824 0.6642724 0.06276 0.17254603 0.12684467 -0.031618085 -0.2777975 0.057847776
0.16622667 -0.01594844 0.2501227 0.2286378 0.00302555 0.21092936 0.17133027 0.6093555
0.07146154 -0.08344791 0.18542865 -0.26092637 0.021554135 -0.055648074 0.27728778 -0.066931315
0.16536817 0.18411234 0.22449462 0.13804376 0.12879705 -0.0037759366 0.008374288 -0.0633197
0.28077653 0.2974569 0.067264594 -0.06865346 -0.054659534 -0.09473808 0.16618939 0.24750598
0.19394127 -0.054843057 0.09478899 -0.34769797 0.057471838 -0.21610525 0.13218446 -0.6401307
-0.06933692 0.0069645145 0.16359256 0.13704467 0.05468369 -0.28727093 0.15923366 -0.5483776

fc2.bias f4 [64]
00000000: 34a4 9e3b c0ff e1bd 134f 5bbb ee58 093b
00000010: 0590 883e 5cec 56bd 40f6 b5bd 0ab8 5abc
00000020: 0759 aa3e ef97 2c3e 8ce9 9abc 108c b13c
00000030: af83 773e f8bb b6bd 8d80 4e3d 5559 a53c
00000040: 5a0c 24bd 4c67 a6bd 78e3 693e dc19 1c3e
00000050: e917 8a3e d46f 6b3d 8794 633d e6c6 a83d
00000060: 4513 c4bd 9b0a 073e 727b ba3e 0bc2 043e
00000070: 8f31 5f3d 7819 633e bdbe 41bd ee4c 163e
00000080: f6a6 57bd ec61 c7bd 6083 41be fa8f f3bb
00000090: 174d c5bd f15c 77be 4721 7f3e 6181 28bd
000000a0: 291e 113e 3e6f 4e3e 42b4 a0bc 623e 4dbc
000000b0: df41 debc 3350 ed3d 4fc3 443e 80a7 e63b
000000c0: 1b95 f6bb f60f 343e 8b8d 563d 0eef 483c
000000d0: 298f 1bbc df5b 713e d933 febc baa4 343e
000000e0: d442 4c3e 7f73 863d c2ce 483e 09e1 e33d
000000f0: 9827 e73d cce2 1e3e 677e 0a3e b4b4 243d
0.004841352 -0.110351086 -0.003346388 0.0020957547 0.26672378 -0.052471504 -0.08884859 -0.013349542
0.33271047 0.16854833 -0.018910192 0.021673232 0.24171327 -0.08922571 0.050415564 0.020184198
-0.040050842 -0.08125171 0.22840679 0.1524424 0.26971367 0.057479694 0.05556157 0.08241062
-0.09573988 0.1318764 0.36422306 0.12964647 0.054490622 0.22177684 -0.047301043 0.14677784
-0.05264946 -0.09735474 -0.18897772 -0.007432935 -0.09633844 -0.24156548 0.24915038 -0.04113901
0.14171661 0.20159623 -0.019617204 -0.01252708 -0.02713102 0.115875624 0.1921513 0.0070390105
-0.007525099 0.17584214 0.05238108 0.012264026 -0.009494581 0.23570202 -0.031030582 0.17640963
0.19947368 0.06564998 0.19610122 0.111269064 0.11286849 0.15516204 0.13524781 0.040211394

value_N1.weight_mu f4 [32, 64]
00000000: 07f2 993e 20e5 b53e 9fc3 9b3e 5a3f bd3e
00000010: fecf 09bf 8f5b 6f3e 7cf6 ae3e dbe5 7f3e
00000020: cd04 acbe f793 8a3e 9069 083e 4349 df3e
00000030: db00 5b3e 2d78 073f 89fe b73e abbf 78bf
00000040: ee45 263e bf70 903e b26e 083f e6f7 cc3e
00000050: 688a 0fbf 5b64 8c3e c047 95bf eaaa 0bbf
00000060: 61ba 973e a6a7 573e 0696 57be 40f1 083e
00000070: fb9a 4b3e 10fe d73d 121c d93e b55a 4f3e
00000080: 5fca ac3e 94aa 7e3e f83c f83e 4a2c a83e
00000090: ecca 753e 4ae8 44bf e35c 143e 1885 dd3c
000000a0: 6267 473e 1451 ebbe 8b65 af3e 8ba6 b73e
000000b0: 0a53 dcbf c4bf 623e 165e dd3e f33c 2d3e
000000c0: 6191 193e 1f75 053f 5605 ba3e ac64 733e
000000d0: 120d 9f3d 5d30 b6be 1115 c4bd b7e5 d83e
000000e0: d889 ab3d cb51 a93e df96 8d3e 127e 903e
000000f0: 9aaa d53d 6d64 373e c385 3e3f cd69 903e
00000100: 66c8 843e 462a 8f3e fd70 bc3e dfd1 2a3e
00000110: dfe9 bbbe 9a15 b03e 31f4 793e e183 4c3e
00000120: 7132 53bf 4f6b ec3d 3efc a03e 8d16 123f
00000130: 4cf7 cb3d 24c0 553e c31a f43d 0da4 48bf
00000140: 260c b83e 80e1 463e 261d 0b3f d805 5c3e
00000150: 79b7 bfbf 5ef9 943e 9cc8 bebf 3ba8 25bf
00000160: 495b 153e f5f1 5c3e 51b6 013e 7aa5 9d3e
00000170: 929e 923e fab5 923e b04a 093f aff0 593e
00000180: 525e 273e c925 833e 7530 063f 692b 9e3e
00000190: 6bd3 b83e d214 14bf 31aa 923d 6a0c a43d
000001a0: c9c1 443e 60d2 37bf 9d5f 933e 8e61 933e
000001b0: 5f4f c5bf 1e5b 383e 351f 083e 1a27 4c3e
000001c0: 1773 3e3e dc39 dc3e 35c2 b23e aecf d93e
000001d0: aed0 2f3e a832 57bf 1de3 273d da27 9d3e
000001e0: adac 823e 7333 3a3e b8a1 8c3e 7353 9d3e
000001f0: 1eae 8e3e 8a9e 4c3e 16da 993e fe9f 583e
00000200: f7b4 4b3e 9186 d83d 032a 5f3e 9af9 263e
00000210: 96dd 28bf 38c0 743e 7045 713e 0595 b23e
00000220: 529b a8be ef84 773e 8178 773e 8995 8b3e
00000230: c958 6c3e e546 cb3e 0432 fc3d cd24 5abf
00000240: 074c a23d 7d1e 843e 1f52 ce3e 9434 b13e
00000250: e1f7 a1be 8e0f 053e 163e 5fbf 68c8 8abe
00000260: 6410 903e 9366 263e b39d 0c3d 349b ff3c
00000270: 1bec e63d f530 703e 1fb8 663e e350 093e
00000280: 0785 7d3e 2da2 b63d 5c16 a93e 0d26 8a3e
00000290: aa9f a33e f819 21bf d730 9cbc 758d b63c
000002a0: 5d5f 2f3e 132d 97be 62b6 bd3e e3e9 ea3d
000002b0: 99b4 b9bf 775c 5c3e 9636 893e 3a8d 433e
000002c0: c753 803e abb4 c63e 7ba3 c63e bed9 5d3e
000002d0: 2111 b33c 0925 2abe b13e 92bd 81d3 913e
000002e0: fa88 ff3d a92b 573e 0070 d13d 9031 c43d
000002f0: d5b2 ca3c a1f3 aa3d d7f7 243f 0161 9e3e
00000300: 8cb3 8e3e 5c5f 853e 923e 803e 3b1b d13e
00000310: 0488 b6be 236d 983e 5c51 ae3e 5167 423e
00000320: 8326 2bbf 9a4d e73d 1239 793e 6ee9 b03e
00000330: 4c2e 513e ff80 c63e 4928 8f3e b93a 36bf
00000340: 0278 4e3e 9cab 353e d89c b53e a2bd 043f
00000350: 90ec 35bf c8ac a03e 9091 a0bf 63e5 1dbf
00000360: 58ec 253e 060b 9d3d 3bc3 093e c38f 9b3e
00000370: c57b 573e 2ec9 0d3e b289 f73e afde c43e
00000380: 0215 953e 62eb b63e 8332 0b3f 2573 653e
00000390: 3a44 d43e b940 5abf 5f40 4a3e 4e75 7dbd
000003a0: 170d 9c3e 6923 3abf 57e2 ca3e fc98 493e
000003b0: 4374 bebf e1cf 9b3e a13c d93e d0fb 593e
000003c0: c9fa a33e 158b 8b3e 152a ea3e 75ae 393e
000003d0: dbd0 9b3e fe43 0dbf c724 8dbd ffea 893e
000003e0: 244b ec3d f5b3 9d3e 8932 933e 1e52 723e
000003f0: f4e2 863e 37e4 993e abcf 0f3f ff46 933e
0.30067465 0.3552637 0.30422685 0.36962396 -0.53832996 0.2337477 0.34172428 0.24990027
-0.33597413 0.27066013 0.13321519 0.43610582 0.21387045 0.5291775 0.35936382 -0.9716746
0.16237614 0.28211018 0.5329391 0.40032881 -0.56070566 0.27420315 -1.1662521 -0.5455767
0.29634383 0.21060047 -0.21053323 0.1337328 0.19883339 0.105465055 0.42404228 0.20249446
0.33748147 0.24869758 0.48484015 0.3284629 0.2400319 -0.76916945 0.14488558 0.027041003
0.19473031 -0.45960295 0.3425716 0.3586925 -1.7212842 0.22143465 0.43235844 0.16917782
0.14996864 0.5213184 0.36332196 0.23768872 0.07766165 -0.35583773 -0.095743306 0.4236276
0.08375901 0.33070216 0.27654168 0.28221184 0.1043293 0.17909403 0.74422854 0.2820572
0.25934142 0.2796194 0.36804953 0.16681622 -0.36701867 0.3439148 0.24409558 0.19972183
-0.8249884 0.11543905 0.31442446 0.5706566 0.099592775 0.20874077 0.11919167 -0.7837532
0.3594677 0.19421959 0.5434135 0.21486604 -1.4977866 0.29096502 -1.4904971 -0.64709824
0.14585604 0.21576674 0.12667204 0.3079031 0.28636605 0.28654462 0.5362959 0.2128322
0.16344574 0.25614765 0.5241769 0.30892494 0.360988 -0.5784427 0.07161368 0.0801018
0.19214548 -0.7180538 0.28783885 0.28785366 -1.5414847 0.18003508 0.13293155 0.19936791
0.18598591 0.43012893 0.34913793 0.4254126 0.17169449 -0.8406167 0.040988076 0.30694467
0.25522366 0.18183689 0.27467132 0.3072773 0.27867216 0.19982353 0.300492 0.21154782
0.19893251 0.105725415 0.2179337 0.16306153 -0.65963113 0.2390145 0.23561645 0.34879318
-0.32931 0.24171804 0.24167062 0.27262524 0.23080744 0.39702526 0.12314227 -0.85212404
0.07924657 0.2580451 0.40297028 0.34610426 -0.3163443 0.12994215 -0.8720411 -0.27106023
0.28137505 0.16250066 0.03433008 0.031201936 0.11275502 0.23456176 0.22531174 0.13409762
0.24757777 0.08917651 0.3302487 0.26982155 0.31957752 -0.6293025 -0.019066257 0.022284249
0.17126222 -0.29526576 0.3705321 0.114703916 -1.4508239 0.21519648 0.26799458 0.19096842
0.25063917 0.38809714 0.387966 0.21665093 0.021858754 -0.1661569 -0.07140864 0.28481677
0.12477298 0.21012749 0.102264404 0.09579766 0.024743477 0.0834725 0.64440674 0.30933383
0.27871358 0.26049316 0.25047737 0.40841088 -0.35650647 0.29770765 0.34046447 0.18984725
-0.6685564 0.11294098 0.24338177 0.34553093 0.20427817 0.3877029 0.27960423 -0.71183354
0.20162967 0.17741245 0.35471225 0.51851857 -0.7106409 0.31381822 -1.2544422 -0.6167814
0.16203439 0.07668118 0.13453381 0.3038312 0.21043308 0.13846275 0.4834724 0.38451144
0.2911759 0.35726458 0.5437395 0.22407205 0.41458303 -0.8525501 0.19751118 -0.06187945
0.30478737 -0.7271028 0.3962581 0.19687265 -1.487923 0.30432037 0.4242907 0.21287465
0.3202727 0.2725455 0.4573523 0.18132956 0.30432782 -0.5518187 -0.0689178 0.269371
0.115377694 0.3080136 0.28749493 0.23664138 0.26345026 0.30056927 0.5617625 0.28765103

value_N1.weight_sigma f4 [32, 64]
00000000: 8725 d83c 3db9 0d3c fc05 41bc 2883 16bc
00000010: b6bb 653a de4f b8bb 893f 3039 af3a e13b
00000020: 84b2 89bb 687a b73b d465 6abc 5e30 0c3c
00000030: 2388 263c 3924 f8bb f47d 45bb 9c4e e43a
00000040: 3693 e7bb cd07 173d af8a e6bb 087c 0abd
00000050: 1d5f e3bb 7c44 823b 2a1e 8b3c 2e42 dcba
00000060: d32f ed3a a720 903a 1fa0 803b f7a8 253c
00000070: 9c12 bd3c ba5a 9ebb a7ce 503c f5b0 4b3c
00000080: fa38 2abd 57b0 a0bc 2bb2 1e3a b79e 9abb
00000090: 4301 be3c cfc8 c8b9 c359 733b 3a65 3f3d
000000a0: 3fcb c93a 693f 5ab9 00c9 fabb c555 d83c
000000b0: 3918 9fbc 3e8d 4b3b 7ebb 893b 6149 ae3b
000000c0: 34dc 4b3d 4030 a5bb a7d1 963c 2d67 5cbb
000000d0: 5715 07bb 1b9e cf3b 2084 3f3d 48ad 8d3c
000000e0: 8690 43bc e12e 73bc a095 f03b 34e5 b3bc
000000f0: a53f 533b a750 f93b 2cf6 033b d2a8 833c
00000100: 40ba e63b 6493 6ebc 3f3c 1abb b772 dabb
00000110: 5524 a23c b582 0fbc e258 2e3d fd31 dabb
00000120: 08a3 143c e67f 77bb 5276 33bd 7c6d 9b3c
00000130: 748d c63a 2c29 12bd 7583 133c 3071 48bd
00000140: c886 5ebb 24ac 0c3d 45a1 1e3d a3e3 97bc
00000150: 66a1 0cb8 1490 883c 8ce3 933b a856 52bc
00000160: f23d 12bb cef9 00bc 7508 8e3a d65d 763b
00000170: d90d 8ebc 71d7 293c 03ca bfbb 71a1 203c
00000180: 00cb 9b3c ea62 4ebc 3a49 a33c a146 9b3b
00000190: b02f c7bb 70ad 2bbd 6ea0 0d3b 149d 403d
000001a0: c113 49bc 2f07 2f3c e3a7 c03c f12a 0d3d
000001b0: d1fc 3abc f0e1 663b c71c 71bb ea04 933c
000001c0: a93f e6bc 9a8f 693c ac7d 11bd 3121 e03b
000001d0: 38ae cb3b feef 413c 90f3 3e3d 67e6 123c
000001e0: c6de 56bb 69a3 24bd c02c 0bbc 1270 2d3c
000001f0: 0365 f1bb 59a1 17bb 1113 333b a293 34bb
00000200: 1d0e cdbc 86e2 523c 403d 00bd 15df 483c
00000210: 2f6a 22bb e77a 1e3b c4bc 163d cf59 833c
00000220: e456 1cbc 26b4 ecbb 287d d9bb 99f6 19bd
00000230: 06d5 40bc e232 c13b 814b 36ba 793c cc3b
00000240: d82c 2d3c 801d 2b3c 76e0 5abc 17f9 e63a
00000250: 45b1 413c 0fe9 47bc 5c73 48bc ec4b a83b
00000260: edef 4c3c 4fdf bb3b c259 88bb d604 8fbb
00000270: 623b 42bc c16a 8e39 428b abbc 2874 94b7
00000280: 197a 013d 8daf 3ebc 9f1c 25bd 8161 c23a
00000290: 6974 82bc 9fe8 3a3d 5959 adbb 294e 593d
000002a0: 32bc 26bc 813b e7bb 123f a1bc de0c 57bd
000002b0: 808d 933c 853f d9bb 2373 6a3c fd13 17bd
000002c0: c669 863c 1a78 0d3c 31bd cbbb 08c3 a0ba
000002d0: c708 873a e966 0c3c aef6 203d e935 95bc
000002e0: ca71 28ba a52d c1ba c5e3 64bb 6a7d a53a
000002f0: b355 c4bb 7789 adbb 81dc cdba 28ac ebbb
00000300: 159b 2fbb 9e6c 353c d9e2 e33b 8931 f2bb
00000310: a481 c1bb 7c32 ef3b 837b af3d 02e7 5bbb
00000320: 613f afbb 5b04 47bc fe1c b43b a4ee 8dbd
00000330: 575f 14bb 6811 bf3c 09e8 ff3b ec81 67bb
00000340: 84df 123d 00b5 0bbc f451 01bb 7540 993c
00000350: a889 a33c c694 e23b ea5e 2bbb 8a1f 223b
00000360: e37d ab3b 0b80 0cbc 0895 5ebb 252a 87bc
00000370: cad9 123c 7f45 253c 0aff d1bc 9ec5 12bc
00000380: 459d aebb a8e3 803c 2341 f93b 239a d73b
00000390: c460 813b 9aba 79bd 80ff b43a 5189 5a3d
000003a0: 1c9f 0dbc 141b 20bb cfea 983b 3d6e 35bd
000003b0: 8d8e c83b 04cf be3b f196 e03b 6792 34bc
000003c0: 6aa1 9d3a 86b5 db3b 5c2f 86bc f69b 053d
000003d0: 5681 553b 2458 693b 4de5 3d3d ee0d 013c
000003e0: c498 6f3b f970 d63c bd6e 07bb cfc4 84bc
000003f0: 6955 20bb 0f59 3cbb ff76 353b c642 9fbc
0.026385082 0.008650121 -0.011781212 -0.0091865435 0.0008763628 -0.0056247553 0.00016808337 0.0068734507
-0.004202189 0.0055993088 -0.014306504 0.0085564535 0.010164293 -0.0075726775 -0.0030134888 0.0017418447
-0.0070671095 0.036872674 -0.0070355753 -0.03380969 -0.0069388286 0.003975449 0.016982157 -0.0016804391
0.0018095918 0.0010996059 0.003925338 0.010111085 0.023080163 -0.004832593 0.012744582 0.012432327
-0.041558243 -0.019615335 0.0006053771 -0.0047186273 0.023193961 -0.00038296587 0.003713236 0.046727397
0.0015395655 -0.00020813722 -0.0076533556 0.026408086 -0.01942073 0.0031059529 0.004203259 0.005318806
0.04977055 -0.0050411522 0.018410517 -0.0033630833 -0.0020612085 0.0063359863 0.046756864 0.017294541
-0.011936313 -0.01484272 0.0073420554 -0.021959879 0.003223398 0.0076084915 0.0020135744 0.01607171
0.0070412457 -0.014561508 -0.0023534445 -0.006666507 0.019792715 -0.00875919 0.042565234 -0.006658791
0.009072073 -0.0037765442 -0.04381401 0.018973105 0.0015148357 -0.035683796 0.00900351 -0.04893607
-0.0033954848 0.034343854 0.038728017 -0.018541163 -3.3528915e-05 0.016670264 0.0045132097 -0.012838043
-0.0022314754 -0.007872058 0.0010836261 0.0037592552 -0.017340587 0.010366307 -0.005852939 0.009804116
0.019017696 -0.012596825 0.019932378 0.004738644 -0.006078683 -0.04191345 0.0021610516 0.0470248
-0.012272776 0.010682865 0.023517555 0.03446478 -0.011412815 0.0035229884 -0.0036790834 0.01794668
-0.028106527 0.014255429 -0.03552024 0.006839894 0.006215837 0.011837004 0.046618998 0.008966065
-0.0032786592 -0.040194903 -0.008494556 0.010585802 -0.007366778 -0.0023136942 0.0027324597 -0.0027553816
-0.025031144 0.01287139 -0.031308413 0.012260218 -0.0024782529 0.0024182142 0.036801115 0.016034035
-0.009542201 -0.007223624 -0.0066372342 -0.03758869 -0.011769539 0.0058959583 -0.0006954 0.006232795
0.010569774 0.010444045 -0.01335918 0.0017621842 0.0118220495 -0.012201562 -0.012234535 0.0051360037
0.012508375 0.0057334076 -0.0041610906 -0.00436459 -0.011854978 0.00027163888 -0.020940427 -1.7697064e-05
0.031610582 -0.011638534 -0.0403105 0.0014830084 -0.01592465 0.045632 -0.005290192 0.053053055
-0.010176705 -0.007056654 -0.019683395 -0.052502505 0.018011808 -0.0066298866 0.014309677 -0.036884297
0.016407859 0.0086345915 -0.0062176217 -0.0012265155 0.0010302298 0.008569458 0.039297752 -0.018214183
-0.00064256473 -0.0014738335 -0.00349258 0.0012625877 -0.0059916615 -0.005295928 -0.0015705974 -0.0071921535
-0.0026795317 0.01107326 0.0069545326 -0.007391159 -0.005905347 0.0072997194 0.0856848 -0.003355444
-0.0053481315 -0.0121470345 0.00549662 -0.06930283 -0.0022639835 0.02332373 0.007809643 -0.0035325242
0.035857692 -0.0085270405 -0.0019732686 0.018707493 0.0199631 0.006914708 -0.0026149102 0.0024738037
0.0052335127 -0.00857545 -0.0033963341 -0.016499588 0.008963058 0.01008737 -0.025634307 -0.008958248
-0.0053288066 0.015733555 0.007606642 0.006579654 0.003948303 -0.060968973 0.0013809055 0.05335361
-0.008643892 -0.0024430202 0.0046666632 -0.044294585 0.006120509 0.005823018 0.006853931 -0.011021233
0.0012026255 0.006704989 -0.016380005 0.03261944 0.003257831 0.0035605514 0.046361256 0.007876856
0.0036559561 0.026176916 -0.002066537 -0.016207127 -0.002446497 -0.0028739606 0.0027689335 -0.01944102

value_N1.bias_mu f4 [32]
00000000: 4620 54bd 43f6 153e 627f b43d 7d90 d13d
00000010: f212 a03e bea5 163e 20fa 123e f31f 183e
00000020: 297a ab3e bab7 2d3d 27de cd3e 6f70 b13d
00000030: 5baf ed3d 0dcd 463e 91e6 ca3d 25d2 ff3d
00000040: dac1 d53d c502 153e e0a7 7c3d c2ca c53e
00000050: 0ade 043f d91c 4f3e a92c 7f3c a5d2 333e
00000060: 0014 8f3d c379 113f dad4 943b 4e6c 90bd
00000070: 63a4 ef3c 95e2 a03d 23c2 cf3d b91f af3e
-0.05178859 0.14644723 0.08813359 0.10232637 0.31264454 0.14711663 0.14353228 0.14855938
0.33491638 0.042411543 0.4020855 0.08664023 0.11605712 0.19414158 0.09907258 0.12491254
0.10437365 0.14551838 0.061683536 0.38631254 0.51901305 0.20225848 0.015574613 0.17560823
0.069862366 0.5682642 0.0045419754 -0.070519075 0.02925319 0.07855717 0.101444505 0.3420389

value_N1.bias_sigma f4 [32]
00000000: e171 ee39 7c23 e9bb c6cc c53b 1e8e 943c
00000010: 4121 a9ba 0cd6 a7bc 56a2 f036 887d 3dbb
00000020: bf9f 21bc 92a9 b13a ac4a a2bc 5017 0bbc
00000030: ea11 9f3b abb6 df3b 8aa3 a1bb b462 3e3c
00000040: abf8 a9bb 388a 29bb 9f95 db3b f54c d03b
00000050: 86ed 30bc 7302 67bc a1bd 2dbc cf9f f9bb
00000060: 540d 60bc 6fe5 24bc 9ed5 77bc 4ab4 463d
00000070: 83dc 01bc 1f61 a9bc 2fc6 22bd d296 753c
0.00045479744 -0.007114826 0.006036374 0.018134173 -0.0012903587 -0.020487808 7.1714558e-06 -0.0028913934
-0.009864747 0.0013554564 -0.019810997 -0.008489445 0.0048544304 0.0068271956 -0.0049328255 0.011620212
-0.0051871142 -0.0025869738 0.006701186 0.0063568302 -0.0107988175 -0.014099705 -0.010604293 -0.0076179276
-0.013675053 -0.010064467 -0.015126614 0.04851178 -0.007926109 -0.020676194 -0.039739784 0.014989572

value_N1.weight_epsilon f4 [32, 64]
00000000: 0141 363f 53dc 483f 9c56 b03e 85d8 ae3e
00000010: 4971 603f 4fca 90bf 6585 543e eb4b 6f3f
00000020: 07c9 d0be 6acd e2be 5599 a33f 55ea 2c3f
00000030: 2d1b 473f 51f2 8f3f a485 8a3f c2fe e8be
00000040: 6d40 463e 44ff 24bf cd2a 933e cf2c 023f
00000050: 05f5 84bf ed38 a93e b506 d0bf c7fa 03bf
00000060: 0fe1 a0bf 813c 72bd e2ac 743f 5d89 293f
00000070: 4db6 8f3f 28ff 19bf 22ac 15bf aa32 0d3f
00000080: f274 9f3e b11d 11bf 66bb b83f 74d4 163f
00000090: 3d6f a53f 09b9 1f3f bde7 863f 1b55 86bf
000000a0: cfa9 683f 418a 893f 53d8 9b3f 32e0 453f
000000b0: c422 6b3f 2104 c2bf 3018 0d3f ada9 5dbf
000000c0: e6f2 67bf 1fe6 033f dc87 62bf 512a ebbe
000000d0: 7608 43bf e170 943f d904 023f 967c a7bf
000000e0: 85a1 7f3f 0f20 8f3f 86d0 673f c420 d6bf
000000f0: c7f2 ab3f d196 0abf 3d53 2ebf dd0d b1bf
00000100: aef2 81be f336 8fbe d175 fbbd f454 f9bd
00000110: 5607 a0be ef78 ce3e 5287 97bd a29e aabe
00000120: 6ddd 143e 15b6 213e 344b e9be 3d94 76be
00000130: b5f6 8dbe ec44 cdbe a888 c5be 7020 263e
00000140: bc5a 8dbd 9e49 6b3e a5dc d1bd 83a1 39be
00000150: 2299 bd3e 1350 f1bd e052 143f 4934 3c3e
00000160: 506a e53e 3ab7 ac3c 6a74 aebe c9c2 71be
00000170: 57ef ccbe d299 5b3e 316f 553e 8259 49be
00000180: 1463 e3bd d6ef 4e3e 02b7 03bf bf15 57be
00000190: 4be9 ebbe 2ec4 63be 5060 c0be 368f bf3e
000001a0: dfe3 a5be 2e22 c4be 903c debe 2016 8dbe
000001b0: 2ca7 a7be a155 0a3f c133 49be f40b 9e3e
000001c0: 7461 a53e d416 3cbe 7d84 a13e 8fac 273e
000001d0: 3f0f 8b3e a3ad d3be 8768 39be 72d6 ee3e
000001e0: 2244 b6be 1819 ccbe f248 a5be a2ac 183f
000001f0: 3933 f5be 27a1 453e e596 783e 237b fc3e
00000200: 0316 0dbf 627d 1bbf b181 88be e959 87be
00000210: b4be 2dbf 5f2b 603f 2d84 24be 633e 39bf
00000220: d79f a13e 5e92 af3e 294a 7dbf 5adb 05bf
00000230: b121 1abf f7dc 5ebf f776 56bf 9c5d b43e
00000240: 5a78 19be 5374 ff3e 75d9 63be a58a c9be
00000250: 51d9 4d3f 7fff 82be 6909 a13f e255 cc3e
00000260: 2b14 793f fa84 3b3d 5268 3dbf c43d 03bf
00000270: 0c80 5ebf 536c ee3e 64ba e73e 8b9b dabe
00000280: 6ee0 76be 78ac e03e 1c01 8fbf 2a85 e9be
00000290: d810 80bf da49 f7be 74dd 50bf 6efa 4f3f
000002a0: da1b 34bf c3f1 54bf e748 71bf dc2d 19bf
000002b0: d605 36bf fa30 963f 8e72 dabe d597 2b3f
000002c0: 418e 333f e735 ccbe 875c 2f3f ae0b b63e
000002d0: 82fa 163f 4ed2 65bf c74c c9be 86a7 813f
000002e0: 70e3 45bf 6f97 5dbf a573 33bf a1c2 a53f
000002f0: b71b 85bf 8f91 d63e bcf2 063f 8d0f 893f
00000300: 28e1 31bf 270a 44bf 1d1b acbe 32a6 aabe
00000310: 370e 5bbf a850 8d3f 936b 4fbe 958d 69bf
00000320: 2ac6 cb3e d85b dd3e 1dac 9fbf dec3 28bf
00000330: c953 42bf d97d 8cbf 8132 87bf 2367 e33e
00000340: 497e 41be 7409 213f 8ba2 8fbe ea19 febe
00000350: 13c4 813f 2729 a5be 8208 cb3f d7cf 003f
00000360: 8d04 9d3f 1a6c 6c3d 7ecd 6ebf a977 25bf
00000370: 4643 8cbf f04c 163f 7b14 123f 16cf 09bf
00000380: 2da1 9bbe 0aa2 0d3f 544c b4bf b135 13bf
00000390: bd76 a1bf a2e3 1bbf d3aa 83bf b61b 833f
000003a0: 3a14 63bf 273d 86bf c01a 98bf 5d20 41bf
000003b0: fe7d 65bf 035c bd3f 3eb5 09bf b057 583f
000003c0: b561 623f aebb 00bf f617 5d3f 5d85 e53e
000003d0: 195a 3e3f cbe0 90bf e9cb fdbe 7a77 a33f
000003e0: d17e 79bf a3b0 8bbf 2940 62bf 13fd d03f
000003f0: 41d2 a7bf 4443 073f 1d24 2a3f f8cd ac3f
0.7119294 0.7846119 0.34441078 0.34149566 0.8767286 -1.131174 0.20754011 0.93475217
-0.40778372 -0.44297343 1.2781168 0.6754506 0.7777584 1.1245824 1.0822034 -0.45506865
0.19360514 -0.64452004 0.28743592 0.5084962 -1.0387274 0.33051243 -1.6252047 -0.5155453
-1.2568682 -0.059139732 0.955763 0.66225225 1.1227509 -0.6015496 -0.5846578 0.5515543
0.3114391 -0.5668593 1.443219 0.5891793 1.2924572 0.62391716 1.0539471 -1.0494722
0.9088411 1.0745317 1.2175392 0.7729522 0.91849923 -1.515751 0.5511503 -0.8658703
-0.9060501 0.5152301 -0.88488555 -0.45930722 -0.76184785 1.1596948 0.50788647 -1.3084896
0.99855834 1.1181659 0.90552557 -1.6728749 1.3433465 -0.5413638 -0.6809576 -1.3832356
-0.25380462 -0.2797161 -0.12278331 -0.12174407 -0.31255597 0.4032664 -0.07398857 -0.33324152
0.14537592 0.15792115 -0.45565188 -0.24079986 -0.27727285 -0.40091646 -0.38580823 0.16223311
-0.06902072 0.22977301 -0.10247163 -0.18128018 0.37030894 -0.11782851 0.5793896 0.1837932
0.44807673 0.021083463 -0.34073192 -0.23609461 -0.40026352 0.21445397 0.20843197 -0.19663051
-0.11102882 0.20208678 -0.5145112 -0.21004389 -0.46076426 -0.22242805 -0.3757348 0.3741395
-0.32400414 -0.38307327 -0.4340558 -0.27555943 -0.3274473 0.5403691 -0.19648649 0.30868495
0.32300913 -0.18368083 0.31546393 0.1637442 0.2716007 -0.41343412 -0.1810628 0.46647984
-0.35598856 -0.39862895 -0.32282215 0.59638417 -0.47890642 0.19299756 0.24276312 0.49312696
-0.5511171 -0.60738194 -0.26661447 -0.26435784 -0.67869115 0.8756618 -0.16066046 -0.7236082
0.3156726 0.34291357 -0.98941284 -0.5228783 -0.6020766 -0.87055916 -0.83775276 0.35227668
-0.14987317 0.49893436 -0.22250922 -0.3936359 0.80409724 -0.25585553 1.2580997 0.39909273
0.972964 0.045781113 -0.73987305 -0.5126612 -0.86914134 0.4656702 0.45259392 -0.42696795
-0.2410905 0.43881583 -1.1172214 -0.4560941 -1.000514 -0.48298532 -0.8158791 0.812415
-0.70355 -0.831814 -0.94251865 -0.598356 -0.71102655 1.1733696 -0.42665523 0.6702855
0.7013894 -0.39884874 0.6850056 0.35555786 0.58975995 -0.89774024 -0.3931639 1.0129249
-0.7730017 -0.86559194 -0.70098335 1.2950021 -1.0399083 0.41907927 0.52714133 1.0707871
-0.69484186 -0.7657799 -0.33614436 -0.33329922 -0.85568565 1.1040239 -0.2025588 -0.9123166
0.39799625 0.43234134 -1.24744 -0.6592387 -0.75909096 -1.0975906 -1.0562288 0.44414625
-0.1889583 0.6290505 -0.28053698 -0.49629146 1.0137962 -0.3225796 1.5861971 0.5031714
1.2267014 0.05772028 -0.93282306 -0.6463571 -1.095803 0.5871115 0.570625 -0.53831613
-0.30396405 0.55325377 -1.4085793 -0.575038 -1.2614361 -0.60894215 -1.0286506 1.0242832
-0.8870274 -1.0487412 -1.1883163 -0.7544001 -0.89645374 1.4793705 -0.5379218 0.845088
0.8843034 -0.50286376 0.86364686 0.4482831 0.7435623 -1.1318601 -0.49569634 1.2770836
-0.9745913 -1.091328 -0.8837915 1.6327232 -1.3111039 0.52837014 0.66461354 1.3500357

value_N1.bias_epsilon f4 [32]
00000000: 4269 83bf c664 bb3e 9674 4b3f d041 803f
00000010: 2e16 89bf b9e4 353f cb08 9ebf a78f 49bf
00000020: 0402 72bf 452f 07bf 2613 573f 6a4d 833f
00000030: da45 3dbf fd4b 78bf 2f37 cdbf 0c61 d3be
00000040: 1df2 4d3f 2767 903f 80d2 4f3f 55b5 753f
00000050: e178 a6bf 2ad6 353f 8c96 873f 6c42 f5be
00000060: 2376 093f 83c6 193f 5996 313f 1a86 40bf
00000070: d25d 973f 79db 463f 5337 6dbf 913c 3c3f
-1.0266497 0.36600322 0.7947477 1.0020084 -1.0709894 0.7105213 -1.2346433 -0.7873482
-0.94534326 -0.528065 0.84013593 1.0258 -0.7393471 -0.9699095 -1.6032466 -0.41284978
0.8044756 1.128148 0.8118057 0.95979816 -1.3005639 0.71029913 1.0592818 -0.47902238
0.5369589 0.6006853 0.6937004 -0.7520462 1.1825507 0.7767864 -0.92662543 0.73529917

value_N2.weight_mu f4 [4, 32]
00000000: cecf f8be a8ee 4ebe 7158 a9be ac77 90be
00000010: f218 233f fce5 48be cf67 0dbf af28 9abe
00000020: 57f3 ff3e beeb 47be 4755 d73d 3036 44be
00000030: ac91 51be 3457 8abe 3535 07be 6e81 b9be
00000040: aab7 a83d 8518 02bf 8f3b b3be f568 3d3f
00000050: 38fe 503f a36b a7be dd45 50be c453 0fbf
00000060: 5374 f9be 38c9 453f 781c eebe de54 dfbc
00000070: 3f51 e1be befe 0cbf a7f2 99be 9879 363f
00000080: 1de9 3ebe 8b52 8dbe fa89 67be 1c49 b6be
00000090: 5b3f 3b3f 6294 bebe b3fe 0bbe 272c 93be
000000a0: f9a8 d33e aa7e a3be 1e2e 17bf 2d65 d9bd
000000b0: 1142 12bf 59f0 bebe 41ab 84be e576 45be
000000c0: ea67 b7be b4de 37be 140e 4cbe 94d5 1a3f
000000d0: c143 8c3f b368 5dbf 5249 33be df7a adbe
000000e0: 97da cdbe a1a9 753f 3fc7 adbe 3bd8 083e
000000f0: ca8e 62be dab6 c7be 752d 0ebf ec44 5b3f
00000100: ab9a 01bf 5141 8abe 52d2 91be cddf e0be
00000110: 4bb3 1c3f 1575 a3be b619 94be 7d38 04bf
00000120: e239 d93e d0b1 9cbe 8e44 89be c513 55be
00000130: 9723 67be 30af 4dbe 6230 89be 5b81 9ebe
00000140: c769 61be b3bc fbbe 63e4 57be f09e aa3e
00000150: c2e0 413f 8f7c 5a3e d739 11be bb35 b3be
00000160: 1e41 b2be 6ba6 343f 8789 a0be 503c 993d
00000170: 2825 cabe 8be8 9abe 695c 69be 3425 3a3f
00000180: 7618 acbe f0b2 a7be 5d3c edbe 6c16 95be
00000190: fe70 553f e1b7 a8be a063 d7be b9b2 32be
000001a0: 3ce0 ca3e fc58 c0be b512 98be ed26 11bf
000001b0: 2565 f4be ed56 bebe 1049 b8be de13 f8be
000001c0: 8afd 9ebe 788c a2be a7bb 0dbf e122 273f
000001d0: 37d6 de3e f982 00bf b721 08bf c84f acbd
000001e0: 44d0 a9be fde6 443f fd5e 87be 0257 c3bd
000001f0: 85e5 9bbe dedd 1cbe 105b 21be 87f7 5e3f
-0.48596042 -0.20208228 -0.33075288 -0.28216302 0.6370994 -0.19618982 -0.55236524 -0.30109164
0.4999034 -0.19523522 0.10514312 -0.19161296 -0.20465726 -0.27019656 -0.1320389 -0.3623156
0.08238156 -0.50818664 -0.35006377 0.73988277 0.8163791 -0.32699308 -0.2033915 -0.5598719
-0.4872156 0.7726016 -0.46506095 -0.027262148 -0.44007298 -0.55076206 -0.30067942 0.7127929
-0.18643613 -0.27602038 -0.22611228 -0.35602653 0.7314355 -0.37222582 -0.13671379 -0.28744623
0.41339853 -0.31932575 -0.59054744 -0.10615001 -0.5713206 -0.37292746 -0.25911906 -0.19283636
-0.35821468 -0.17956048 -0.19927245 0.60482144 1.0958177 -0.86487883 -0.17508438 -0.33882806
-0.40205833 0.9596196 -0.33941075 0.13363735 -0.22124782 -0.39006692 -0.5553811 0.8565204
-0.5062663 -0.27002957 -0.28480774 -0.43920746 0.6121108 -0.31925264 -0.28925866 -0.51648694
0.42426974 -0.3060441 -0.26810116 -0.20808323 -0.2257217 -0.2008636 -0.26794726 -0.30958065
-0.22013007 -0.49167404 -0.21083216 0.33324385 0.7573358 0.21336578 -0.1418222 -0.3500193
-0.34815305 0.70566434 -0.31354925 0.07482207 -0.39481473 -0.3025554 -0.22789158 0.7271302
-0.33612412 -0.32753706 -0.46335116 -0.2911867 0.8337554 -0.32952788 -0.42068195 -0.1745099
0.39624202 -0.3756789 -0.29701772 -0.5670002 -0.47733417 -0.37175694 -0.35993242 -0.48452657
-0.3105281 -0.31747794 -0.5536446 0.65287596 0.43522808 -0.5019985 -0.53176445 -0.084136546
-0.33166707 0.7691496 -0.26439658 -0.0953808 -0.30448547 -0.1531901 -0.15757394 0.87096447

value_N2.weight_sigma f4 [4, 32]
00000000: bc81 c23b f074 b8bb 695b 5939 45c3 ce3b
00000010: 66c3 20b9 b960 cb3b f494 15b9 c354 993b
00000020: 7197 62ba c12b 1fbc c5ef 8bbb d0a5 013c
00000030: d53b dc3b f61d b33a 2073 993b eb6f 11bb
00000040: ffae b2bb 6e08 35bb 2d7b 653b 2030 cdba
00000050: 5b85 7ab9 7d00 d5bc df43 7e3b c435 fcba
00000060: efa1 8b3b 7187 c0ba 1e42 5d3b a033 933d
00000070: 1b62 be3b 6e05 9d3b 1dfa 243b cbdb b93a
00000080: 65f7 c3bb 4a60 f03b 0685 be3b 3c66 113c
00000090: ebc0 59ba 6c16 13bc 5170 78bb 0f7a 073c
000000a0: 0dc8 66bb eb49 d23b 4bf1 89bc fa75 743b
000000b0: 90ed 7ebb 794d ad3c 358f bfbb 20cf 113c
000000c0: b770 4bbc d781 523c 1022 69bb 34be 23bb
000000d0: 1b6c 8fb9 f60d 24bd de43 33bc 844d 5c3c
000000e0: bae4 a13b 5aa5 debb 9687 2cb9 a411 9c3d
000000f0: 66cc bbbb f6c9 f8bb 65ca cbbb 9a86 8abb
00000100: 1460 8c3b e3f8 48bc e6e8 4bbb 78c3 9338
00000110: 34c1 faba f856 f8b8 e0f9 9c3b 721f fe39
00000120: 6255 07b8 2d11 62bb 9506 0b3b bb46 b7b8
00000130: eb4e 05bc 7fbe 7bbb ebb0 563c 521f 9d39
00000140: 4f11 93bb fc36 3f3a 438c d93b 37dd 933b
00000150: ef43 43ba 92b8 23bb 500f bfbc 9918 acbb
00000160: 0254 f3bb 7ffd 93ba 57d2 77bb 0f09 853d
00000170: d63e 6ab9 3b95 03bb b5f7 e6bb a641 80bb
00000180: 115d 813b 0602 ab3c 608a 653b 7b44 1cbc
00000190: ed4a 833b 5a2d 303b 82cd 883c 85e3 4a3b
000001a0: 3c16 2fbb 06c2 033b 05da 983c 884c 02bb
000001b0: 4896 e0b9 c08c 6a3c 9ce2 703c fe8f 6b3c
000001c0: 0e7b 413b 1b5a cabb f2b3 243c c4d4 283b
000001d0: 946e 76b9 3f60 fb3c c5cd a8ba 3242 843b
000001e0: 497c aa3b bf33 39ba 4763 21bb b65b 763d
000001f0: 14d8 4f3c 5eb0 56ba 474f 60bb bcc2 c5ba
0.0059358757 -0.0056291744 0.00020728786 0.006309899 -0.0001533158 0.0062065986 -0.00014265237 0.004679294
-0.00086437823 -0.009715022 -0.004270526 0.007913068 0.0067209997 0.0013665545 0.0046829134 -0.0022191952
-0.00545299 -0.0027623433 0.0035016045 -0.0015654601 -0.00023891537 -0.02600121 0.0038797779 -0.0019242098
0.0042612473 -0.0014688802 0.0033761333 0.07187581 0.005810035 0.004791907 0.0025173493 0.0014179883
-0.0059804195 0.0073356973 0.0058141975 0.008874472 -0.000830664 -0.008977514 -0.0037908743 0.008268847
-0.0035214454 0.006417503 -0.01683869 0.0037301765 -0.0038898923 0.021155106 -0.005845929 0.00889948
-0.01241701 0.012848339 -0.0035573281 -0.0024985196 -0.0002735563 -0.040052377 -0.010941474 0.013446216
0.0049405964 -0.006794614 -0.00016453708 0.07620552 -0.0057311533 -0.007592435 -0.0062191957 -0.0042274715
0.0042839143 -0.0122663705 -0.003111416 7.045915e-05 -0.0019131065 -0.00011841761 0.0047905296 0.00048470084
-3.2266027e-05 -0.00344951 0.002121364 -8.7392946e-05 -0.008136491 -0.0038413105 0.013103704 0.0002996871
-0.0044881473 0.0007294265 0.006639035 0.004512455 -0.00074487826 -0.0024981839 -0.023322731 -0.0052519557
-0.007425786 -0.0011290758 -0.0037814581 0.064958684 -0.00022339387 -0.0020077962 -0.007048572 -0.003914076
0.003947862 0.020874988 0.0035025105 -0.009537811 0.0040067346 0.00268825 0.016699556 0.0030958366
-0.0026716134 0.002010466 0.018658647 -0.0019882042 -0.00042836578 0.014315784 0.014702465 0.014377592
0.002952281 -0.006175292 0.010052668 0.0025761584 -0.00023501582 0.030685542 -0.0012878707 0.0040362114
0.005202804 -0.0007064901 -0.0024625824 0.060146056 0.012685794 -0.0008189733 -0.003422694 -0.0015087943

value_N2.bias_mu f4 [4]
00000000: 0f35 0c3e 90a8 64bc 035e b13e 010b 933d
0.13692115 -0.013956204 0.34642038 0.07179833

value_N2.bias_sigma f4 [4]
00000000: 876e 563b 5b2f fbbb 0313 043c 8e67 3abc
0.0032719688 -0.0076655573 0.008061173 -0.011377228

value_N2.weight_epsilon f4 [4, 32]
00000000: 47dd 82bf 8678 433f 71a1 36bf f4fc 4d3f
00000010: 7d92 26bf 4a43 aa3e 9bc6 113e 8ae6 743f
00000020: 262a 363f 3e5d 12bf bde0 1b3f 15cd 1c3f
00000030: 528b 87bf 7e11 37bf c5cf 0f3f c226 19bf
00000040: b0b5 89bf 37a3 e6be 7858 1abf 5514 713f
00000050: 07dc 813e 47c5 bcbe 75e7 14bf f030 64bd
00000060: 6e86 b73e a161 91be b8b4 d1be 2a82 40bf
00000070: 687a 80bf a845 fdbe 19b9 7e3f 4cf8 8fbf
00000080: c860 a53e 0606 77be 05cc 663e 4628 82be
00000090: dc80 523e d72a d7bd e038 38bd afbe 9abe
000000a0: 4435 66be 3ef7 383e 11fd 44be be27 46be
000000b0: ca4a ab3e a059 673e 6dbd 35be 008b 413e
000000c0: 5d07 ae3e 87bb 113e 570d 433e 9654 98be
000000d0: af1b a4bd 688e ee3d f22c 3c3e ce2f 903c
000000e0: 66ed e7bd 45b9 b73d aa81 043e a947 733e
000000f0: cd5c a23e da08 203e 8df3 a0be a3f0 b53e
00000100: f64b 08bf c595 cb3e 3d36 bebe f889 d63e
00000110: a37c adbe a854 313e c0d3 973d 1311 ff3e
00000120: ffb9 bd3e a470 98be 3d59 a23e 644f a33e
00000130: bc2b 0dbf f1aa bebe 0bc8 953e 4882 9fbe
00000140: 1d6d 0fbf 2e36 70be afc0 a0be 4316 fb3e
00000150: 0840 073e 539b 44be d915 9bbe e7a9 edbc
00000160: bb24 3f3e 956a 17be 3e69 5abe ef7f c8be
00000170: bbcf 05bf 94e4 83be 02a6 043f 40f2 15bf
00000180: 1738 1bbf 65d9 e73e 919e d8be e852 f43e
00000190: 8a92 c5be 2cf3 493e d8e7 ac3d 343d 113f
000001a0: 1311 d83e 859a adbe 47e3 b83e 9afb b93e
000001b0: 18c5 20bf 7923 d9be 6e93 aa3e 65a7 b5be
000001c0: a256 23bf c7c7 88be 0112 b7be 14f9 0e3f
000001d0: f606 1a3e efe6 5fbe be9d b0be 5c54 07bd
000001e0: 2cae 593e 1470 2cbe cdbb 78be e755 e4be
000001f0: 8863 18bf 3034 96be 7910 173f 7fc3 2abf
-1.0223778 0.7635578 -0.7134009 0.804641 -0.65067273 0.33254462 0.14235918 0.95664275
0.71158063 -0.57173526 0.608898 0.6125043 -1.0589392 -0.71511066 0.56176406 -0.59824765
-1.0758572 -0.45046398 -0.6029124 0.9417165 0.2536318 -0.3686926 -0.58165675 -0.055710733
0.3584475 -0.28394797 -0.4095819 -0.75198615 -1.0037355 -0.49467206 0.99501187 -1.1247649
0.323004 -0.24123392 0.22538765 -0.2542135 0.20556968 -0.10506218 -0.044976115 -0.30223605
-0.22481257 0.18063065 -0.19237162 -0.19351098 0.33455497 0.22592783 -0.17748041 0.1890068
0.33989993 0.14231692 0.19048057 -0.29752034 -0.08013093 0.116482556 0.1837652 0.01760092
-0.11324577 0.08970884 0.12940088 0.23757805 0.31711426 0.15628377 -0.31435814 0.35535154
-0.5324091 0.39762703 -0.37150756 0.41902137 -0.33884153 0.1731745 0.07413435 0.49817714
0.37055966 -0.29773438 0.31708708 0.31896508 -0.5514486 -0.37239793 0.29254183 -0.31154084
-0.5602587 -0.23458168 -0.31397006 0.49040422 0.1320802 -0.19199876 -0.30290106 -0.02901168
0.18666355 -0.14786752 -0.21329209 -0.39160106 -0.52270097 -0.2576033 0.5181581 -0.5857277
-0.6063246 0.45283046 -0.42308477 0.47719502 -0.38588363 0.19721669 0.08442658 0.56734014
0.42200527 -0.33906952 0.361109 0.3632477 -0.6280074 -0.42409876 0.33315605 -0.35479274
-0.63804066 -0.26714918 -0.35755923 0.55848813 0.15041718 -0.21865438 -0.34495348 -0.033039436
0.21257848 -0.1683963 -0.2429039 -0.44596788 -0.5952687 -0.2933669 0.5900951 -0.66704553

value_N2.bias_epsilon f4 [4]
00000000: 8f1e 4e3f 823d 82be f8ac d63e c47a f43e
0.8051538 -0.25437552 0.4192884 0.47749913
