Lunar_Lander/Rainbow_Lunar/Checkpoints/checkpoint_lunar_agentDueling_Noisy.pth (torch_old, 94278 bytes, 28 tensors)

fc1.weight f4 [128, 8]
0.08331074 0.44949257 -0.95268804 -0.48347065 -0.403936 0.053047653 0.12823379 0.33452326
-0.0010628673 0.09970416 -0.3265828 0.0061528254 0.56626785 -0.15841709 -0.115386054 0.15715131
-0.25912142 0.10409825 0.207445 -0.12819694 -0.7638875 0.1669691 0.14738575 0.27925286
0.029041793 -0.13319214 0.7281346 -0.70332986 -0.51798105 -0.28244796 -0.08279429 0.45682377
-0.2942157 -0.27991322 -0.38148546 -0.37132227 -0.12359635 0.2852361 0.31520134 0.2151606
0.01054596 -2.2158725 -0.0075943572 -0.31174514 -0.34815615 -0.38421217 0.21879068 0.3110434
-0.2820037 -0.7392934 0.8416023 0.79986066 0.25331777 0.09593961 0.40682974 0.13352984
-0.08460005 -0.54676926 -0.1444807 -0.52734965 0.4409389 0.07314274 -0.21828203 0.22790863
0.14028446 0.010147382 0.27130076 0.07291346 0.1725315 0.57075584 -0.10527957 -0.40062565
0.07626813 0.41803035 0.55453503 0.6392314 -0.18374963 -0.47305936 -0.3054409 -0.00863756
-0.46456954 0.47323883 0.4611416 -0.51959956 -0.061759703 0.17527267 -0.29227862 -0.44067633
0.18536536 0.07078851 0.38383782 0.25011376 -0.22747822 0.23398699 -0.20237479 -0.4801595
0.20399204 0.15316942 0.14039357 -0.16314472 0.6468487 0.5255841 0.119675905 -0.08804025
-0.5216913 -0.53778785 -0.36136302 -0.5007737 0.0011734326 0.2037941 0.097409725 0.24463499
0.07488836 0.5380381 0.4427235 -0.5384472 -0.55113626 0.028862026 0.16002497 0.006836186
0.32837167 -0.1376963 -0.25431985 0.08234195 -0.11777203 -0.1944991 -0.18109143 -0.09759836
-0.17243534 -0.10538559 -0.3243077 -0.1413114 -0.3295761 -0.15471111 0.3170091 0.03817041
-0.17847754 -0.06918627 0.049615 0.47353843 0.1770469 0.50996727 0.35421526 0.0052388636
-0.19796845 -0.06327068 -0.051934566 -0.014221533 -0.2967231 -0.29284954 -0.4437968 -0.27100262
0.009519714 0.35288098 0.5354736 -0.75059974 0.029068613 -0.042063218 -0.018271346 -0.36147952
0.017005116 0.46745583 -1.1505783 -0.5556388 -0.29757118 0.084995955 -0.054076884 0.15712856
-0.51858 -0.58207655 0.44044012 -0.38446438 0.28450754 0.08328154 -0.53867996 0.21782513
0.2820633 -0.026578037 0.8369452 -0.40489224 -0.26639786 -0.39823925 0.31324315 0.17738475
0.16758083 0.041311447 -0.54326576 -0.45518225 -0.58680916 0.075441584 0.3091313 0.3221469
-0.6252986 -0.28243855 -0.59101796 -0.20646113 -0.03311719 0.010631917 0.0487801 0.21539073
0.16194035 0.35517538 -0.9218884 -0.6165874 -0.43870872 0.102264665 -0.050055064 0.28358787
0.2834353 -0.139261 -0.061926547 -0.093314804 -0.06214179 -0.27203482 0.044405915 0.22886224
-0.3095325 -1.3000818 0.027528524 -0.52547526 0.18865983 0.47002316 0.261474 0.019141993
-0.24245381 0.28871804 -1.2484577 -0.40191844 -0.50029993 -0.121860296 0.048521902 0.32886314
0.11263447 0.5020002 0.27236262 -0.38568825 0.0014409478 -0.1720359 -0.19112863 0.012612678
0.37794873 0.0923862 0.2644774 0.23176822 0.8652302 0.20482142 0.29426694 -0.16853857
0.006573018 0.018283766 0.003953663 0.062824175 1.3465813 -0.08290945 -0.2644573 -0.11405433
00000000: d29e aa3d e423 e63e 5de3 73bf 7789 f7be
00000010: b3d0 cebe 7f48 593d b84f 033e a246 ab3e
00000020: e94f 8bba b231 cc3d dc35 a7be a49d c93b
00000030: eef6 103f 1738 22be 864f ecbd 46ec 203e
00000040: 90ab 84be 7731 d53d 766c 543e 0f46 03be
00000050: 228e 43bf f3f9 2a3e 4aec 163e 3bfa 8e3e
00000060: 0ee9 ed3c 8563 08be 0767 3a3f 6d0d 34bf
00000070: 689a 04bf 059d 90be 0d90 a9bd cee4 e93e
00000080: 71a3 96be c950 8fbe 1052 c3be f41d bebe
00000090: 1520 fdbd 770a 923e 1262 a13e 0f53 5c3e
000000a0: f6c8 2c3c dbd0 0dc0 16da f8bb 0f9d 9fbe
000000b0: 8641 b2be 75b7 c4be aa0a 603e 1541 9f3e
000000c0: ca62 90be 5542 3dbf 4073 573f abc3 4c3f
000000d0: deb2 813e fc7b c43d fd4b d03e 0cbc 083e
000000e0: ca42 adbd 12f9 0bbf c0f2 13be 6300 07bf
000000f0: bec2 e13e dccb 953d 5385 5fbe e160 693e
00000100: bba6 0f3e 3441 263c efe7 8a3e a753 953d
00000110: 19ac 303e 0e1d 123f d19c d7bd ce1e cdbe
00000120: 7732 9c3d 1308 d63e 02f6 0d3f aba4 233f
00000130: dd28 3cbe d634 f2be c062 9cbe 8d84 0dbc
00000140: 0fdc edbe 5c4c f23e c01a ec3e 7a04 05bf
00000150: bef7 7cbd ae7a 333e 8ba5 95be 54a0 e1be
00000160: 6bd0 3d3e 91f9 903d 6486 c43e e90e 803e
00000170: 0df0 68be 499a 6f3e 563b 4fbe 77d7 f5be
00000180: 4ae3 503e 72d8 1c3e 55c3 0f3e 690f 27be
00000190: e097 253f ae8c 063f a418 f53d 724e b4bd
000001a0: 908d 05bf 77ac 09bf 9304 b9be b532 00bf
000001b0: ddcd 993a 67af 503e c07e c73d 9881 7a3e
000001c0: 125f 993d ddbc 093f a8ac e23e add7 09bf
000001d0: 4417 0dbf 0e70 ec3c 96dd 233e 1602 e03b
000001e0: 5520 a83e 4200 0dbe 3636 82be e5a2 a83d
000001f0: 7632 f1bd c62a 47be 0870 39be a6e1 c7bd
00000200: e492 30be 66d4 d7bd a90b a6be f0b3 10be
00000210: 33be a8be 976c 1ebe 044f a23e 9358 1c3d
00000220: d1c2 36be 88b1 8dbd 1939 4b3d a173 f23e
00000230: c84b 353e 378d 023f b45b b53e c6aa ab3b
00000240: 3eb8 4abe 0f94 81bd 57b9 54bd 6f01 69bc
00000250: 17ec 97be 60f0 95be 5639 e3be dbc0 8abe
00000260: 93f8 1b3c d1ac b43e cc14 093f 4e27 40bf
00000270: 4d21 ee3c 7b4a 2cbd caad 95bc d813 b9be
00000280: 504e 8b3c 5f56 ef3e 2646 93bf 583e 0ebf
00000290: 405b 98be 5c12 ae3d b97f 5dbd 4fe6 203e
000002a0: a9c1 04bf f802 15bf 5e81 e13e 84d8 c4be
000002b0: f9aa 913e 838f aa3d eee6 09bf 8d0d 5f3e
000002c0: 9a6a 903e 2fba d9bc 0a42 563f 094e cfbe
000002d0: 4d65 88be 04e6 cbbe 6861 a03e 59a4 353e
000002e0: 4f9a 2b3e 3136 293d 7713 0bbf a60d e9be
000002f0: 2039 16bf 1e81 9a3d 7546 9e3e 70f0 a43e
00000300: 9213 20bf c99b 90be f44c 17bf 8c6a 53be
00000310: e4a5 07bd 7e31 2e3c a4cd 473d 638f 5c3e
00000320: b1d3 253e 8cd9 b53e e100 6cbf acd8 1dbf
00000330: 6e9e e0be 2370 d13d 8a06 4dbd 6e32 913e
00000340: 6f1e 913e 709a 0ebe b1a6 7dbd d51b bfbd
00000350: 6488 7ebd 2648 8bbe fae2 353d dd5a 6a3e
00000360: 0b7b 9ebe 1569 a6bf 8083 e13c 8c85 06bf
00000370: 0b30 413e e0a6 f03e ecdf 853e abcf 9c3c
00000380: d045 78be dad2 933e 76cd 9fbf 41c8 cdbe
00000390: a813 00bf e491 f9bd e7be 463d c060 a83e
000003a0: e7ac e63d 1683 003f 1d73 8b3e ee78 c5be
000003b0: 2fde bc3a 2e2a 30be 39b7 43be 68a5 4e3c
000003c0: 7f82 c13e fa34 bd3d 9569 873e a654 6d3e
000003d0: ba7f 5d3f b5bc 513e 28aa 963e 6095 2cbe
000003e0: 7962 d73b d6c7 953c bb8d 813b f6a9 803d
000003f0: c75c ac3f 6ecc a9bd f266 87be 5195 e9bd

fc1.bias f4 [128]
0.055232055 -0.06793329 -0.28540844 0.1429112 -0.20091358 0.15427975 0.22576194 -0.049807932
0.042269997 0.099492684 0.14930658 0.2261768 -0.1939738 -0.036338534 -0.14901988 0.17062664
0.038977318 0.2853013 0.1424137 0.05958097 0.26066333 0.009027252 0.3209104 0.19909179
-0.27551022 0.28934124 -0.13327186 0.092047155 0.31917846 0.4090794 -0.29022858 -0.01934134
0.22499415 0.14395384 0.36490485 0.08430836 -0.13990945 0.42376575 0.29011315 0.40233094
-0.17794283 -0.18328224 0.08859678 -0.15847322 0.05349128 0.33086476 0.24555053 0.11634605
0.39739716 -0.14222696 0.4689402 -0.018922761 -0.2541786 -0.055172097 0.3024909 0.084369354
0.32331362 -0.10297395 0.07538991 0.101994224 0.2800685 0.47208416 0.31380448 0.068330936
0.18525201 -0.15239245 -0.09884561 0.29945177 -0.07582446 0.20389561 -0.06151424 0.0026912382
0.23818511 -0.11938461 0.08311051 -0.021551384 0.1455915 -0.01662388 0.2465368 -0.08581614
-0.28178582 0.2611259 -0.08544629 -0.07353698 0.18111822 0.058383066 -0.27678838 -0.2348481
0.019532613 0.15393391 -0.17391902 -0.34444094 -0.06755928 -0.17268047 -0.22084847 0.0014798465
-0.086383834 -0.12530802 -0.24792424 -0.20259994 -0.25478595 -0.1446971 -0.19243284 -0.1354723
-0.04551717 -0.0014400595 0.022173837 0.054982163 0.16999936 0.27445143 0.11015661 0.020239037
0.0815984 -0.16094619 0.28204376 -0.40470052 0.197517 0.22471444 -0.0120644625 0.15750508
0.31007612 -0.35237226 0.085082375 -0.10937637 0.17643873 -0.04133302 0.33855912 -0.21145761
00000000: 023b 623d 9c20 8bbd 0e21 92be 5057 123e
00000010: 4abc 4dbe 83fb 1d3e 232e 673e 6703 4cbd
00000020: 4e23 2d3d d2c2 cb3d d3e3 183e e49a 673e
00000030: 11a1 46be b7d7 14bd ab98 18be c0b8 2e3e
00000040: aea6 1f3d 0313 923e e6d4 113e 2d0b 743d
00000050: aa75 853e 0ae7 133c 5e4e a43e b8de 4b3e
00000060: ad0f 8dbe 8924 943e 6b78 08be 3883 bc3d
00000070: 5c6b a33e db72 d13e d798 94be bb71 9ebc
00000080: de64 663e a368 133e cfd4 ba3e dda9 ac3d
00000090: 6c44 0fbe d3f7 d83e b689 943e 52fe cd3e
000000a0: a536 36be 57ae 3bbe 3b72 b53d ce46 22be
000000b0: ac19 5b3d 1b67 a93e 9971 7b3e d646 ee3d
000000c0: a477 cb3e f2a3 11be ee18 f03e e803 9bbc
000000d0: b323 82be 23fc 61bd 16e0 9a3e d7c9 ac3d
000000e0: 5d89 a53e 02e4 d2bd 0666 9a3d 59e2 d03d
000000f0: 2365 8f3e 04b5 f13e fbaa a03e 17f1 8b3d
00000100: b4b2 3d3e c40c 1cbe 916f cabd be51 993e
00000110: db49 9bbd 03ca 503e 5bf6 7bbd 7c5f 303b
00000120: cce6 733e eb7f f4bd d835 aa3d 878c b0bc
00000130: f015 153e ce2e 88bc 2574 7c3e 5fc0 afbd
00000140: 3b46 90be 4bb2 853e 77fe aebd 8e9a 96bd
00000150: 0e77 393e 1523 6f3d 35b7 8dbe 057c 70be
00000160: dc02 a03c daa0 1d3e d417 32be 905a b0be
00000170: 855c 8abd 26d3 30be 1a26 62be 69f7 c13a
00000180: 02ea b0bd bf50 00be dadf 7dbe 5c76 4fbe
00000190: 4e73 82be 7a2b 14be 1d0d 45be 40b9 0abe
000001a0: 3670 3abd 61c0 bcba e8a5 b53c fa34 613d
000001b0: 5014 2e3e e684 8c3e ca99 e13d 56cc a53c
000001c0: 101d a73d 14cf 24be 0a68 903e e834 cfbe
000001d0: e541 4a3e 8b1b 663e 06aa 45bc 0349 213e
000001e0: 4cc2 9e3e 236a b4be ab3f ae3d b800 e0bd
000001f0: 5bac 343e d04c 29bd 9f57 ad3e 5888 58be

fc2.weight f4 [64, 128]
0.016659373 0.123564854 0.30647504 -0.074190274 0.09145183 0.034424063 -0.38179934 0.15168615
-0.08819227 0.041444074 -0.002541248 0.19160561 0.20393974 -0.017481327 0.076565854 0.073460706
-0.0017672223 -0.011566655 0.062989235 0.07920178 -0.004216304 -0.20857064 0.095714815 0.012658846
0.57814056 0.033291753 0.23872775 -0.17151073 0.044764474 -0.054819215 0.4286113 -0.71947706
0.012112548 -0.0221199 0.0017039083 -0.03404001 0.44842196 -0.14083347 0.13270889 0.105208024
0.24238415 0.28594217 0.068645164 -0.1878588 -0.027969344 0.03669715 0.10348736 -0.0012860034
-0.032762263 0.19515723 0.11649125 -0.1199733 0.078968376 0.13877259 -0.17008094 0.17723784
0.002171752 0.23545212 0.05068467 0.05738916 0.10302711 -0.037055593 -0.19435044 0.090216115
0.14567466 0.2820503 0.35810557 0.08371983 -0.09281902 0.106827185 0.25834918 0.116579086
0.065773286 0.09857183 -0.059542086 0.21993062 -0.023175698 0.42572927 0.12879461 0.2332966
0.3861168 0.06746655 -0.02827812 -0.1478384 0.011655012 0.064501494 0.11648059 0.14073709
-0.5386663 -0.008364466 0.1450495 -0.24800363 0.08331538 -0.14175946 -0.12017362 -0.1373594
-0.009355492 0.43071923 0.5559914 0.22692457 0.12621668 0.099126056 0.25077346 0.22296283
0.22257617 -0.14545557 0.04031199 0.114797466 -0.13582236 0.08366798 -0.20616102 0.007060254
0.102065146 0.23149039 0.10230526 0.13446015 0.1627696 0.13467012 0.15306121 0.10733051
-0.07774974 -0.11820567 0.10039127 0.15009554 0.1937461 0.034940977 0.15030864 -0.12263888
0.010456971 0.13504493 0.22439979 0.071620606 0.12542869 -0.12057748 -0.2931785 0.13339505
-0.005711275 0.017151631 0.1119633 0.18449806 0.07101319 -0.00849207 0.0066758753 -0.0131758135
0.05121467 0.004060961 0.18998295 -0.053574182 0.043950673 -0.1547856 0.18337236 0.077042766
0.5155154 0.063716605 0.20832294 -0.21657716 -0.027664574 0.0215358 0.36933953 -0.6794538
0.041732047 -0.0030788484 0.058628086 -0.12821336 0.2515969 -0.08498613 0.21403879 0.08653973
0.13053761 0.11517285 0.07781468 -0.16888742 -0.15390933 0.13561109 0.06089601 -0.0028331783
-0.060989164 0.08807732 0.005753871 -0.14031479 0.20178401 0.19505945 -0.13591583 0.043294515
0.04008063 0.23817776 0.12820359 0.14134973 -0.015537082 0.045145378 -0.055073 0.26983082
0.07942693 0.22529209 0.5881654 0.017157929 -0.15231505 0.18168037 0.17836636 0.20117205
0.19407164 0.11588897 -0.008949509 0.23476921 -0.12651338 0.44476435 0.100119546 0.16731171
0.40511277 0.18403853 -0.11904483 -0.055144228 0.047265932 0.005147647 0.042076208 0.07353421
-0.5340733 -0.023460986 0.09014003 -0.10559279 0.05258623 -0.024754383 -0.10590958 -0.052237876
-0.06569901 0.46738675 0.4439838 0.17104916 0.173925 0.10368144 0.15278277 0.1276546
0.1867781 0.014897354 0.012858965 -0.059539698 -0.13697366 0.116930224 -0.23817952 0.10818493
0.12534322 0.24915428 0.17167026 -0.029508512 0.16029222 0.020678656 0.1797894 0.06399052
0.060001012 -0.117618084 0.0065775635 0.1853058 0.1294082 -0.046468787 0.14052682 -0.22987372
00000000: 3d79 883c 920f fd3d 4cea 9c3e 12f1 97bd
00000010: 194b bb3d 3f00 0d3d 347b c3be 9d53 1b3e
00000020: 269e b4bd 43c1 293d 118b 26bb 4334 443e
00000030: 94d5 503e 0035 8fbc 8fce 9c3d 9172 963d
00000040: 24a2 e7ba 1182 3dbc 8000 813d 8b34 a23d
00000050: ec28 8abb 8b93 55be 2106 c43d 0c67 4f3c
00000060: 0501 143f ef5c 083d 0c75 743e 82a0 2fbe
00000070: f45a 373d 1d8a 60bd f172 db3e a62f 38bf
00000080: b573 463c cb34 b5bc ad55 df3a 8a6d 0bbd
00000090: 9097 e53e a636 10be d7e4 073e 4e77 d73d
000000a0: 8d33 783e 0367 923e d695 8c3d 0f5e 40be
000000b0: f71f e5bc c04f 163d 2ef1 d33d 1d8f a8ba
000000c0: b931 06bd 4cd7 473e f792 ee3d 90b4 f5bd
000000d0: 2cba a13d 671a 0e3e b329 2ebe d67d 353e
000000e0: f453 0e3b 5c1a 713e bb9a 4f3d e510 6b3d
000000f0: e1ff d23d 9bc7 17bd cd03 47be 3ac3 b83d
00000100: bd2b 153e e668 903e 9d59 b73e 4d75 ab3d
00000110: e617 bebd 36c8 da3d 5846 843e 04c1 ee3d
00000120: 25b4 863d 07e0 c93d 67e2 73bd 7e35 613e
00000130: f6da bdbc 30f9 d93e bce2 033e 4ee5 6e3e
00000140: 1ab1 c53e e72b 8a3d 84a7 e7bc f362 17be
00000150: aaf4 3e3c 5c19 843d 608d ee3d 621d 103e
00000160: 09e6 09bf 1d0b 09bc db87 143e aaf4 7dbe
00000170: 41a1 aa3d 6429 11be 961d f6bd f1a7 0cbe
00000180: c747 19bc 3b87 dc3e 7455 0e3f ea5e 683e
00000190: f23e 013e 9a02 cb3d 6165 803e 5e50 643e
000001a0: 02eb 633e 4ef2 14be 2f1e 253d ef1a eb3d
000001b0: 0415 0bbe 1e5a ab3d e01b 53be b459 e73b
000001c0: 8807 d13d d10b 6d3e 6c85 d13d ecaf 093e
000001d0: 13ad 263e f7e6 093e 14bc 1c3e 19d0 db3d
000001e0: 413b 9fbd d015 f2bd f099 cd3d a5b2 193e
000001f0: 6165 463e 451e 0f3d 82ea 193e 182a fbbd
00000200: b753 2b3c 3849 0a3e 0fc9 653e d3ad 923d
00000210: 6170 003e 53f1 f6bd 7e1b 96be b698 083e
00000220: a625 bbbb 9481 8c3c 044d e53d 0fed 3c3e
00000230: 5d6f 913d 5322 0bbc 4dc1 da3b 5edf 57bc
00000240: 79c6 513d cf11 853b e48a 423e 9a70 5bbd
00000250: 9f05 343d 1e80 1ebe f7c5 3b3e 99c8 9d3d
00000260: d1f8 033f da7d 823d 9c52 553e 67c6 5dbe
00000270: d1a0 e2bc d96b b03c 121a bd3e aff0 2dbf
00000280: 39ef 2a3d 81c6 49bb 0124 703d 5d4a 03be
00000290: 4fd1 803e 350d aebd fc2c 5b3e be3b b13d
000002a0: a7ab 053e bedf eb3d 4e5d 9f3d d3f0 2cbe
000002b0: 689a 1dbe a2dd 0a3e 186e 793d d8ac 39bb
000002c0: c6cf 79bd e261 b43d f88a bc3b aeae 0fbe
000002d0: 78a0 4e3e aabd 473e 852d 0bbe 9755 313d
000002e0: 962b 243d dfe4 733e cd47 033e fcbd 103e
000002f0: 3f8f 7ebc 5cea 383d 3a94 61bd 4427 8a3e
00000300: 96aa a23d f8b2 663e 0292 163f c98e 8c3c
00000310: 7af8 1bbe 6b0a 3a3e aca5 363e 0c00 4e3e
00000320: b7ba 463e 3257 ed3d f6a0 12bc 5767 703e
00000330: b98c 01be 27b8 e33e 7a0b cd3d c353 2b3e
00000340: f16a cf3e 9974 3c3e c7cd f3bd eade 61bd
00000350: ec99 413d 98ad a83b 1a58 2c3d 1b99 963d
00000360: 07b9 08bf 4131 c0bc 569b b83d 0841 d8bd
00000370: a964 573d b4c9 cabc 1fe7 d8bd 62f7 55bd
00000380: 348d 86bd 514d ef3e d851 e33e 8327 2f3e
00000390: 6519 323e ef56 d43d 1673 1c3e e3b7 023e
000003a0: c242 3f3e 0814 743c 69ae 523c e6df 73bd
000003b0: d342 0cbe 1d79 ef3d 55e5 73be 1090 dd3d
000003c0: f959 003e 4d22 7f3e 54ca 2f3e d6bb f1bc
000003d0: a523 243e 4966 a93c b61a 383e 760d 833d
000003e0: 9fc3 753d c0e1 f0bd 9a88 d73b cec0 3d3e
000003f0: 9583 043e 0e56 3ebd 43e6 0f3e 0464 6bbe

fc2.bias f4 [64]
0.042606417 -0.07510539 0.05757993 -0.002339164 0.015820917 0.08796139 0.05196934 -0.038439855
0.29753202 0.12034126 0.050003134 0.057471372 0.11567209 -0.08210388 -0.025832975 0.22244632
0.054430757 -0.054915797 0.28741786 0.06334762 0.21119633 0.08140782 0.03905809 0.13017744
-0.07880963 0.12009541 0.08635063 0.06667182 0.15069583 0.1444775 -0.008622731 -0.007932956
-0.07155418 -0.058483183 -0.08734405 -0.002824657 -0.12289258 -0.10301037 0.15376098 0.08328633
0.15823007 0.054240346 -0.0102849845 -0.00040143874 0.18500899 0.10599892 0.1393486 0.00013314959
-0.00033408956 0.07939937 0.095991485 -0.0039954167 -0.018492958 -0.018174885 0.014009119 0.112183124
0.16212828 0.05839309 0.2024065 0.06106876 0.08610787 0.10988959 0.008964843 0.03767685
00000000: 1184 2e3d dbd0 99bd efd8 6b3d a94c 19bb
00000010: de9a 813c 1a25 b43d cddd 543d 1c73 1dbd
00000020: 1e56 983e 7b75 f63d 16d0 4c3d 1a67 6b3d
00000030: 7de5 ec3d 1426 a8bd ad9f d3bc f8c8 633e
00000040: c9f2 5e3d 63ef 60bd 6f28 933e 66bc 813d
00000050: da43 583e 25b9 a63d 60fb 1f3d 3c4d 053e
00000060: f166 a1bd 95f4 f53d 99d8 b03d 3c8b 883d
00000070: 0250 1a3e e9f1 133e 5b46 0dbc 3bf9 01bc
00000080: ff8a 92bd 108c 6fbd 70e1 b2bd e11d 39bb
00000090: 1baf fbbd 1af7 d2bd 8573 1d3e 0692 aa3d
000000a0: 1007 223e 202b 5e3d 5a82 28bc 3278 d2b9
000000b0: ff72 3d3e f615 d93d 66b1 0e3e 129e 0b39
000000c0: be28 afb9 239c a23d 2f97 c43d fceb 82bb
000000d0: 8b7e 97bc 7fe3 94bc 8186 653c 44c0 e53d
000000e0: f504 263e 982d 6f3d a643 4f3e 3c23 7a3d
000000f0: 5359 b03d cb0d e13d 47e1 123c 0a53 1a3d

value_N1.weight_mu f4 [32, 64]
0.26361477 0.30906785 0.13413095 0.44023773 -0.27967647 0.08720143 0.03858063 -0.050888058
-0.19866842 0.23921065 0.1151763 0.15959488 0.20088069 0.28001875 0.3583111 -0.41291648
0.09471163 0.24630024 -0.65578556 0.3262097 -0.57935727 0.16687953 0.39998123 -0.9787316
0.17724584 0.19617082 -0.5481041 0.1511217 0.16471392 0.12727073 0.29122013 0.204626
0.25243738 0.18831299 0.27672333 0.28746873 0.18156908 -0.07894044 0.11776141 -0.25334102
-0.18347593 -0.5850611 0.19856374 0.4121196 -0.64568776 0.15915574 0.2601241 0.22653085
0.14576675 0.2686434 -0.7730937 0.26902393 0.086499944 0.2478973 -0.2573184 0.2662562
0.030524809 0.23741604 0.21312211 0.25297025 0.07661135 0.15767792 -0.503857 0.21886712
0.21351236 0.26090446 0.23018548 0.3730825 -0.52727544 0.24858563 0.14506723 -0.04875377
-0.65608555 0.09082995 0.30588633 0.31928423 0.11553298 0.084655255 0.1403833 -0.47554845
0.30299747 0.1729243 -1.0462437 0.22620153 -0.53383046 0.24287672 0.37428123 -1.2317591
0.1625147 0.21911222 -0.42976537 0.3165658 0.20782821 0.23685727 0.308266 0.17440975
0.1542909 0.25607166 0.2656936 0.29658365 0.30590877 0.033073235 0.080692805 0.016817484
-0.49264032 -0.7164951 0.3827758 0.4035009 -0.6478834 0.17154741 0.086104356 0.19092435
0.16785738 0.3507835 -1.0501125 0.41731235 0.18161026 0.11228165 -0.2738131 0.24047628
0.27834928 0.16871995 0.26943114 0.2804225 0.30733642 0.20537429 -0.5194139 0.16101936
0.17360163 0.10792643 0.21313728 0.11443496 -0.51465094 0.19954716 0.013295523 0.093979955
-0.2548335 0.20609619 0.22125986 0.06524662 0.2121594 0.24448866 0.17308171 0.057004973
0.055312395 0.2503539 -0.42528543 0.29792684 -0.44945443 0.09450222 0.09108004 -0.7781215
0.22362073 0.20231527 -0.3483674 0.08869167 0.114642605 0.29245326 0.13072804 0.26157203
0.18076698 0.06322417 0.19724272 0.2671769 0.17755836 -0.11980861 -0.030486232 -0.051859166
-0.20403174 -0.5866176 0.25086844 0.07887459 -0.5779847 0.21225595 0.27557826 0.20985377
0.28590077 0.28719983 -0.7053985 0.2000219 0.03719339 0.25114965 -0.51532793 0.18666568
0.12662022 0.19490314 0.10734573 0.1232286 0.043861218 0.0802507 -0.3776515 0.2829192
0.26640978 0.19606715 0.16718537 0.495211 -0.46326587 0.19528101 0.23596418 -0.08061338
-0.49951857 0.062387355 0.21349137 0.0988328 0.21220472 0.1794424 0.31665304 -0.557618
0.18054758 0.14591579 -1.1633916 0.51928735 -0.54568446 0.2616022 0.26387528 -1.2166854
0.09236974 0.08909839 -0.3318678 0.30307224 0.1993558 0.07756687 0.3107004 0.31802204
0.23225491 0.31223825 0.38643497 0.20633699 0.28901744 -0.05794503 0.22213805 -0.27476263
-0.31324232 -0.8184743 0.3627899 0.3342471 -0.5116721 0.2892569 0.23684438 0.21005383
0.32911876 0.16308543 -0.709391 0.23833911 0.32303196 0.21753609 -0.23655817 0.1958173
0.121659316 0.24865991 0.26026702 0.27238247 0.27944523 0.29771313 -0.8053565 0.22392315
00000000: 84f8 863e 243e 9e3e a059 093e d766 e13e
00000010: c131 8fbe aa96 b23d b906 1e3d ff6f 50bd
00000020: bc6f 4bbe a3f3 743e 8de1 eb3d d76c 233e
00000030: abb3 4d3e 9e5e 8f3e 8d74 b73e ca69 d3be
00000040: 2cf8 c13d 2136 7c3e 90e1 27bf f504 a73e
00000050: c250 14bf 78e2 2a3e 57ca cc3e 278e 7abf
00000060: ef7f 353e 01e1 483e 8d50 0cbf a6bf 1a3e
00000070: c4aa 283e 4253 023e ce1a 953e 7a89 513e
00000080: 793f 813e 1fd5 403e aeae 8d3e 1a2f 933e
00000090: 3fed 393e 87ab a1bd e52c f13d eab5 81be
000000a0: 1de1 3bbe 90c6 15bf 4b54 4b3e 5701 d33e
000000b0: cb4b 25bf b9f9 223e fc2e 853e b4f7 673e
000000c0: e143 153e a18b 893e 78e9 45bf 81bd 893e
000000d0: e226 b13d cad8 7d3e 3dbf 83be bc52 883e
000000e0: 2a0f fa3c 311d 733e af3c 5a3e 5185 813e
000000f0: 69e6 9c3d 5276 213e c6fc 00bf b41e 603e
00000100: fca2 5a3e 4595 853e beb5 6b3e ab04 bf3e
00000110: 86fb 06bf 3b8d 7e3e 818c 143e 08b2 47bd
00000120: 39f5 27bf 0e05 ba3d 229d 9c3e 3979 a33e
00000130: 8e9c ec3d bc5f ad3d a4c0 0f3e 167b f3be
00000140: 7c22 9b3e 1113 313e 50eb 85bf 60a1 673e
00000150: 1da9 08bf adb4 783e caa1 bf3e 48aa 9dbf
00000160: 416a 263e f45e 603e 350a dcbe ea14 a23e
00000170: ebd0 543e b68a 723e 0bd5 9d3e 7898 323e
00000180: 6ffe 1d3e d31b 833e fe08 883e d0d9 973e
00000190: 13a0 9c3e cd77 073d 4542 a53d d2c4 893c
000001a0: 5a3b fcbe 396c 37bf 31fb c33e ac97 ce3e
000001b0: b0db 25bf 20aa 2f3e 7b57 b03d ac81 433e
000001c0: cee2 2b3e e599 b33e 166a 86bf f7a9 d53e
000001d0: 0af8 393e ecf3 e53d 3b31 8cbe 6a3f 763e
000001e0: cc83 8e3e ecc4 2c3e e1f2 893e 8a93 8f3e
000001f0: 335b 9d3e a34d 523e 4ff8 04bf 42e2 243e
00000200: a0c4 313e 8808 dd3d a940 5a3e e05c ea3d
00000210: 2ac0 03bf 1756 4c3e 77d5 593c 9078 c03d
00000220: 8979 82be e10a 533e f291 623e 05a0 853d
00000230: 5040 593e 3c5b 7a3e 553c 313e 0c7e 693d
00000240: 408f 623d 632e 803e 03bf d9be de89 983e
00000250: e41e e6be 618a c13d 2c88 ba3d f832 47bf
00000260: d5fc 643e bc2b 4f3e 365d b2be faa3 b53d
00000270: bec9 ea3d 6fbc 953e 92dd 053e c5ec 853e
00000280: fb1a 393e ac7b 813d fff9 493e 69cb 883e
00000290: dcd1 353e 375e f5bd 43be f9bc 476a 54bd
000002a0: b2ed 50be 922c 16bf d471 803e 0089 a13d
000002b0: cef6 13bf a059 593e 9818 8d3e e8e3 563e
000002c0: 9661 923e db0b 933e ff94 34bf 8ad2 4c3e
000002d0: 1958 183d b096 803e 88ec 03bf 4a25 3f3e
000002e0: bba8 013e b094 473e 14d8 db3d 475f fc3d
000002f0: d2a7 333d 7b5a a43d 8a5b c1be c9da 903e
00000300: dd66 883e d4c5 483e a432 2b3e 4c8c fd3e
00000310: 2f31 edbe bff7 473e 98a0 713e a118 a5bd
00000320: e6c0 ffbe e289 7f3d 7b9d 5a3e da68 ca3d
00000330: 324c 593e c0bf 373e 5920 a23e 0ec0 0ebf
00000340: 77e1 383e f36a 153e 04ea 94bf 04f0 043f
00000350: fab1 0bbf b9f0 853e a91a 873e 59bc 9bbf
00000360: 592c bd3d 3779 b63d 94ea a9be 492c 9b3e
00000370: ed23 4c3e 61db 9e3d 1f14 9f3e c9d3 a23e
00000380: 3bd4 6d3e b1dd 9f3e ceda c53e 014a 533e
00000390: 18fa 933e c557 6dbd 2878 633e b0ad 8cbe
000003a0: 4c61 a0be 8887 51bf 99bf b93e 7022 ab3e
000003b0: f1fc 02bf 7b19 943e 5587 723e 5a18 573e
000003c0: 4182 a83e deff 263e a69a 35bf 2b0f 743e
000003d0: 7264 a53e c8c1 5e3e 4e3c 72be 5584 483e
000003e0: 8528 f93d b4a0 7e3e b841 853e b775 8b3e
000003f0: 7213 8f3e db6d 983e d82b 4ebf 1c4c 653e

value_N1.weight_sigma f4 [32, 64]
0.0074438257 0.0023260429 -0.0070397537 0.026369823 0.008762249 0.002356541 0.008137011 0.053151187
0.0024725627 -0.0098622935 0.0020773378 0.0016030812 0.006159299 0.0031053976 0.008721067 -0.010923788
0.00016215346 0.009171457 -0.0015792768 -0.0036519961 -0.00017434006 -0.015776625 0.0019042972 -0.009028123
-0.0051538716 0.005370415 -0.013928426 -0.017108634 0.0058757076 -0.0031962274 0.0049864827 -0.0024204138
-0.02183702 0.0032038586 -0.002353867 -0.007838762 0.006811375 0.052135106 -0.0077192746 -0.019132297
-0.0065005473 -0.007252568 0.00743706 0.0065477393 -0.008111178 0.0040617785 0.002048593 0.009240443
-0.005059072 -0.006591509 0.007258267 0.014597814 -0.012983098 -0.010935469 0.029418293 -0.020374333
-0.0017719119 -0.0020798186 0.00065566023 -0.0012108412 0.0054999427 0.0011565445 -0.007978133 0.020142747
-0.008705508 0.007737171 -0.006273079 0.0024950511 -0.0073793745 0.004200063 -0.009390439 0.053133
0.0072617107 0.0035116258 -0.0044337353 0.017659485 0.0070807855 0.019162592 0.00011505025 0.0005500589
-0.015324216 0.010373775 -0.0040303334 -0.0011500483 -0.015033967 -0.00897141 0.00044890295 -0.0075241863
0.004865199 0.00018243288 0.0016837658 0.0016058472 0.0077598277 0.012056246 0.017215995 0.010312789
-0.017095 -0.029220916 0.0031545458 -0.024836486 -0.015560975 0.04584767 0.0045924643 -0.011601781
0.015135717 -0.025719488 0.0026977994 0.029517367 -0.01779225 0.007413338 0.0063473196 -0.010473762
-0.020554576 -0.005185134 0.015684167 -0.005717287 -0.020326914 -0.019542191 -0.0029271457 0.008844778
-0.0059872563 -0.0029137556 0.013167279 0.0029646424 0.0023711354 0.0008036543 0.012233801 0.0040228185
-0.016524443 -0.0014832276 0.008255439 0.01855611 -0.011105803 -0.004482397 0.000641178 0.05315539
0.006652607 0.00490276 0.00010512427 -0.014572412 -0.016615333 -0.014663627 -0.0099372445 -0.0018841067
8.081561e-05 0.015595658 0.008048204 -0.0039386055 -0.0039648325 0.0011574321 -0.022000171 0.0041057747
0.00034451243 0.011235856 0.0029894335 -0.01332599 0.0055307965 -0.0013960522 0.00010202217 0.008672331
0.005704518 0.024562366 0.01459675 -0.00021620504 0.011117994 0.04801002 -0.016581144 -0.00083240296
-0.012525331 0.011580529 0.009971273 0.01556966 -0.003993205 0.0025556833 0.011648693 -0.01781753
0.0017148843 -0.007556128 -0.00394716 0.010748821 -0.0020393217 0.007301846 0.023221219 -0.0029158539
-0.0032991306 -0.004243368 -0.006949554 -0.00832664 -0.0009713268 -0.0065086987 -0.009023245 0.016478566
0.012341944 0.023438197 -0.016606838 0.006579833 0.014842201 -0.00040172454 -0.0052874377 0.053146806
-0.008553248 -0.0061188624 -0.00037054752 -0.014623965 -0.010082605 0.009326523 -0.019630976 -0.006180342
-0.0011268316 -0.008369143 -0.009619764 -0.008343983 0.0034041633 -0.011560971 0.0061394945 0.0009614628
0.0074347947 -0.0020412714 0.003308433 -0.0006015533 -0.00052747404 0.0022171722 0.012209972 -0.007204716
0.01071723 0.016959362 0.0033625178 -0.0005570219 0.0277945 0.046573736 -0.0023438064 0.026290273
0.013343091 0.007161447 0.007116878 -0.012615686 -0.010945643 0.0015890374 -0.0046184007 -0.006754898
-0.009494302 -0.0045426604 -0.0014666052 0.010918186 0.012001742 0.0017620374 0.0127498945 -0.014190799
0.0043513225 -0.0010963446 -0.006401369 -0.0073320647 0.0011148322 0.004926141 -0.0053655677 -0.015707633
00000000: 56eb f33b 8670 183b bcad e6bb 8705 d83c
00000010: 898f 0f3c 3370 1a3b 1951 053c 0fb5 593d
00000020: b80a 223b 7595 21bc f223 083b 7b1e d23a
00000030: f2d3 c93b ed83 4b3b cee2 0e3c b0f9 32bc
00000040: bd07 2a39 e143 163c bcff ceba 5456 6fbb
00000050: 0ecf 36b9 fb3d 81bc 9c99 f93a b1ea 13bc
00000060: cfe1 a8bb 4efa af3b 0e34 64bc 6827 8cbc
00000070: 0289 c03b cc77 51bb a665 a33b ce9f 1ebb
00000080: 8de3 b2bc d4f7 513b 5643 1abb 276e 00bc
00000090: f431 df3b 9f8b 553d f8f1 fcbb 56bb 9cbc
000000a0: 8b02 d5bb f3a6 edbb 95b2 f33b 6b8e d63b
000000b0: bfe4 04bc ab18 853b b041 063b 3a65 173c
000000c0: 92c6 a5bb 96fd d7bb c2d6 ed3b ab2b 6f3c
000000d0: 0fb7 54bc ae2a 33bc a2fe f03c 13e8 a6bc
000000e0: 7f3f e8ba 914d 08bb 9de0 2b3a 17b5 9eba
000000f0: dd38 b43b 3297 973a b7b6 02bc 6702 a53c
00000100: 8ca1 0ebc 1888 fd3b 678e cdbb 0384 233b
00000110: aece f1bb afa0 893b 5bda 19bc fda1 593d
00000120: a5f3 ed3b 4e23 663b de48 91bb a0aa 903c
00000130: ef05 e83b defa 9c3c 2247 f138 d431 103a
00000140: 6c12 7bbc c4f6 293c e310 84bb 38bd 96ba
00000150: 0751 76bc d2fc 12bc bc5a eb39 738d f6bb
00000160: 3f6c 9f3b 744b 3f39 ceb1 dc3a 4a7b d23a
00000170: 2746 fe3b 9087 453c 8f08 8d3c f9f6 283c
00000180: d00a 8cbc b460 efbc 7fbc 4e3b e375 cbbc
00000190: 76f3 7ebc c4ca 3b3d 627c 963b 6515 3ebc
000001a0: ccfb 773c adb1 d2bc 90cd 303b 68ce f13c
000001b0: 0dc1 91bc 96eb f23b 2dfd cf3b 249a 2bbc
000001c0: 1262 a8bc 0ee8 a9bb 157c 803c 1458 bbbb
000001d0: a184 a6bc f216 a0bc 5bd5 3fbb b0e9 103c
000001e0: bf30 c4bb b5f4 3ebb 92bb 573c 724a 423b
000001f0: 0d65 1b3b 54ac 523a 4870 483c d9d1 833b
00000200: 455e 87bc dc68 c2ba d241 073c fc02 983c
00000210: 1df5 35bc 12e1 92bb ba14 283a 77b9 593d
00000220: 1dfe d93b 55a7 a03b 2a76 dc38 20c1 6ebc
00000230: e11c 88bc b63f 70bc d3cf 22bc 21f4 f6ba
00000240: 8d7b a938 ee84 7f3c 9ddc 033c 6b0f 81bb
00000250: 6deb 81bb fab4 973a b439 b4bc bc89 863b
00000260: ad9f b439 9916 383c 5fea 433b 4155 5abc
00000270: af3b b53b bdfb b6ba bcf4 d538 6516 0e3c
00000280: f7ec ba3b 0437 c93c 3527 6f3c 19b5 62b9
00000290: 3f28 363c 28a6 443d 2ed5 87bc 9e35 5aba
000002a0: 0c37 4dbc 42bc 3d3c 8d5e 233c e317 7f3c
000002b0: 6ed9 82bb 407d 273b 29da 3e3c 12f6 91bc
000002c0: f8c5 e03a 6599 f7bb 2e57 81bb d31b 303c
000002d0: 24a6 05bb 5344 ef3b 6d3a be3c e917 3fbb
000002e0: 3a36 58bb f30b 8bbb 16b9 e3bb 766c 08bc
000002f0: a3a0 7eba ec46 d5bb 3cd6 13bc 0ffe 863c
00000300: dd35 4a3c 7601 c03c 100b 88bc a49b d73b
00000310: b42c 733c 8e9e d2b9 3e42 adbb 77b0 593d
00000320: ec22 0cbc bd80 c8bb 0c46 c2b9 5b99 6fbc
00000330: 8331 25bc 46ce 183c 24d1 a0bc 7784 cabb
00000340: 32b2 93ba bb1e 09bc 379c 1dbc 34b5 08bc
00000350: 6218 5f3b 3a6a 3dbc d02d c93b ad0a 7c3a
00000360: 949f f33b dac6 05bb 4cd2 583b 8fb1 1dba
00000370: 2f46 0aba fa4d 113b 560c 483c 8a15 ecbb
00000380: 5297 2f3c 5cee 8a3c b05d 5c3b 1b05 12ba
00000390: 4bb1 e33c 1ac4 3e3d 8c9a 19bb b35e d73c
000003a0: fb9c 5a3c 92aa ea3b b334 e93b 06b2 4ebc
000003b0: 5b55 33bc 3f47 d03a f455 97bb 3158 ddbb
000003c0: fd8d 1bbc 99da 94bb 1b3b c0ba 31e2 323c
000003d0: f4a2 443c 2af4 e63a efe4 503c 8680 68bc
000003e0: 8a95 8e3b 38b3 8fba 93c2 d1bb d141 f0bb
000003f0: 901f 923a 776b a13b a5d1 afbb 4bad 80bc

value_N1.bias_mu f4 [32]
-0.054715313 0.12990865 0.11230208 0.12096717 -0.045931295 0.19025269 0.20427275 0.09840337
0.39908493 0.05884214 0.37143594 0.21298043 0.037508857 0.16684785 0.1653128 0.17231373
0.16488585 0.15346815 0.11807509 -0.020060528 0.30426165 0.3993152 -0.005661785 0.12058538
0.05248886 0.40767244 0.006464437 0.14835215 0.023471048 0.04204504 0.00094230345 0.20632082
00000000: 2a1d 60bd c606 053e a2fe e53d a3bd f73d
00000010: 7422 3cbd 9ad1 423e e02c 513e b587 c93d
00000020: dc54 cc3e 7504 713d da2c be3e 8b17 5a3e
00000030: e3a2 193d 2ada 2a3e c247 293e 0373 303e
00000040: d6d7 283e c126 1d3e 5ad1 f13d fa55 a4bc
00000050: 2fc8 9b3e 0b73 cc3e 7f86 b9bb 78f5 f63d
00000060: 8ffe 563d 71ba d03e a1d3 d33b a0e9 173e
00000070: 5b46 c03c 6b37 2c3d ea04 773a c445 533e

value_N1.bias_sigma f4 [32]
-0.003233938 0.019791944 0.007517748 0.004274872 -0.0024529116 -0.025462711 -0.005817011 -0.0019445096
0.0029339816 0.0049998737 0.0074371267 -0.009351953 0.010016124 -0.007965071 -0.018474014 -0.0016169912
0.0030452118 -0.0007252935 0.01198698 0.0027167366 0.0040972047 0.0012935761 -0.008174441 -0.0073846434
0.004160326 -0.0053248922 -0.01161451 0.0005966615 0.0038507718 0.0018568409 -0.00763687 0.011835865
00000000: 7af0 53bb b722 a23c 7157 f63b 3a14 8c3b
00000010: 07c1 20bb 2d97 d0bc a09c bebb eade feba
00000020: 0b48 403b fbd5 a33b 24b3 f33b ef38 19bc
00000030: ab1a 243c ee7f 02bc d156 97bc 39f1 d3ba
00000040: 2d92 473b 9f21 3eba 0a65 443c 470b 323b
00000050: d841 863b 368d a93a 17ee 05bc e1fa f1bb
00000060: 5853 883b 6f7c aebb c94a 3ebc 4769 1c3a
00000070: 3b5d 7c3b 3e61 f33a b53e fabb 37eb 413c

value_N1.weight_epsilon f4 [32, 64]
0.44844264 0.5570901 -0.6787571 -0.6728777 0.55333805 0.586351 -0.6366991 -0.45313653
-0.6321287 -0.58888716 0.2830362 0.4835575 0.39509064 -0.29546687 0.3938739 0.3517822
0.59819645 -0.85082155 -0.36635417 0.3647944 0.5144006 -0.5257677 -0.13281816 -0.47611028
0.6475809 0.18796895 0.29389986 0.43862918 -0.68786114 -0.5561946 -0.6833186 0.30746338
-0.70937353 0.7856777 -0.21030882 0.18477789 -0.65369445 0.17393123 0.40738732 -0.74327576
0.58659077 -0.5989099 -0.43179837 -0.46047682 -0.59744376 -0.71029323 0.42992517 0.1849737
-0.41117105 -0.1843127 -0.5370235 -0.38199532 -0.3393963 -0.51464945 -0.32113948 0.07331971
0.4447721 0.7530195 -0.19686152 -0.22539927 0.67168266 -0.5818684 0.637294 -0.5243832
0.8990383 1.1168549 -1.360773 -1.348986 1.1093328 1.1755171 -1.276455 -0.90844864
-1.2672924 -1.1806016 0.56743133 0.9694366 0.79207814 -0.59235233 0.7896388 0.70525336
1.1992649 -1.705728 -0.73446727 0.7313402 1.031271 -1.0540596 -0.26627398 -0.9545064
1.2982711 0.37684038 0.5892108 0.8793643 -1.3790249 -1.1150596 -1.369918 0.6164029
-1.4221529 1.5751275 -0.42162737 0.37044293 -1.3105274 0.3486975 0.81673056 -1.49012
1.1759979 -1.2006953 -0.86566985 -0.9231644 -1.1977558 -1.4239966 0.86191446 0.37083548
-0.8243162 -0.3695103 -1.0766253 -0.7658247 -0.68042207 -1.0317698 -0.64382076 0.14699145
0.8916796 1.5096544 -0.3946682 -0.45188072 1.3465902 -1.1665304 1.2776477 -1.051284
-0.61221766 -0.7605441 0.9266449 0.9186183 -0.7554218 -0.8004913 0.869227 0.6186258
0.86298746 0.8039537 -0.38640344 -0.6601568 -0.5393811 0.40337387 -0.53771996 -0.48025605
-0.81666285 1.1615489 0.5001498 -0.4980204 -0.7022641 0.7177825 0.18132447 0.6499898
-0.884083 -0.2566168 -0.4012346 -0.59882027 0.93907386 0.75932163 0.9328724 -0.4197516
0.96844274 -1.0726138 0.2871154 -0.25226033 0.89242923 -0.23745237 -0.5561686 1.0147263
-0.8008187 0.81763685 0.58949476 0.62864685 0.81563526 0.9696983 -0.5869375 -0.25252765
0.5613342 0.25162527 0.73314905 0.52150327 0.4633467 0.70260376 0.43842232 -0.100096695
-0.60720664 -1.0280286 0.26875702 0.307717 -0.9169869 0.79437166 -0.87003917 0.7158924
0.6597099 0.81954265 -0.99852854 -0.9898793 0.81402296 0.8625887 -0.9366565 -0.6666152
-0.9299329 -0.86631966 0.41637832 0.71136785 0.5812231 -0.43466523 0.57943314 0.5175115
0.8800147 -1.2516549 -0.5389485 0.5366539 0.7567416 -0.77346385 -0.19539055 -0.70041215
0.9526649 0.27652362 0.43236 0.6452732 -1.0119216 -0.8182253 -1.0052391 0.45231345
-1.0435688 1.1558208 -0.3093881 0.27182922 -0.9616586 0.25587252 0.5993129 -1.0934428
0.86294144 -0.8810643 -0.6352243 -0.6774135 -0.8789074 -1.0449218 0.6324686 0.27211726
-0.6048792 -0.27114487 -0.7900224 -0.56195843 -0.49929038 -0.7571076 -0.47243252 0.1078616
0.6543101 1.107777 -0.2896056 -0.33158785 0.9881213 -0.8559943 0.93753165 -0.77142704
00000000: 469a e53e 759d 0e3f 06c3 2dbf b741 2cbf
00000010: 90a7 0d3f 191b 163f b6fe 22bf 8301 e8be
00000020: 30d3 21bf 4fc1 16bf 1fea 903e d994 f73e
00000030: 5249 ca3e 6f47 97be d7a9 c93e cc1c b43e
00000040: 6723 193f 71cf 59bf c692 bbbe 55c6 ba3e
00000050: c2af 033f b698 06bf 7c01 08be bac4 f3be
00000060: ddc7 253f ef7a 403e 0b7a 963e 0194 e03e
00000070: ab17 30bf c562 0ebf f8ed 2ebf d76b 9d3e
00000080: 8199 35bf 2c22 493f 325b 57be 6a36 3d3e
00000090: 8558 27bf 071b 323e 1295 d03e 5247 3ebf
000000a0: d02a 163f 2952 19bf ad14 ddbe 9ec3 ebbe
000000b0: 13f2 18bf c7d5 35bf 271f dc3e bf69 3d3e
000000c0: 0385 d2be 78bc 3cbe 5f7a 09bf e494 c3be
000000d0: 5ac5 adbe 11c0 03bf 656c a4be a528 963d
000000e0: 2bb9 e33e e3c5 403f 1196 49be 11cf 66be
000000f0: 65f3 2b3f 54f5 14bf b325 233f fa3d 06bf
00000100: 6027 663f 1af5 8e3f cf2d aebf 93ab acbf
00000110: 9efe 8d3f 5877 963f e162 a3bf 1790 68bf
00000120: a336 a2bf f41d 97bf 2e43 113f ff2c 783f
00000130: a2c5 4a3f 67a4 17bf c525 4a3f 7c8b 343f
00000140: 8381 993f 4c55 dabf 0c06 3cbf 1d39 3b3f
00000150: b000 843f 6deb 86bf 1055 88be 885a 74bf
00000160: bf2d a63f 39f1 c03e 85d6 163f 051e 613f
00000170: e383 b0bf 46ba 8ebf 7959 afbf 95cc 1d3f
00000180: 1b09 b6bf c79d c93f 8bdf d7be b2aa bd3e
00000190: 5dbf a7bf 7b88 b23e 4115 513f 41bc bebf
000001a0: 1987 963f 62b0 99bf 8a9c 5dbf 8154 6cbf
000001b0: 1050 99bf 8545 b6bf 6da6 5c3f 26de bd3e
000001c0: 6306 53bf 7430 bdbe dcce 89bf 160d 44bf
000001d0: 2430 2ebf 0811 84bf 70d1 24bf ed84 163e
000001e0: 1d45 643f 5b3c c13f f311 cabe e95c e7be
000001f0: 115d ac3f de50 95bf f689 a33f 7990 86bf
00000200: 4cba 1cbf 05b3 42bf 9a38 6d3f 922a 6b3f
00000210: 5363 41bf ffec 4cbf a985 5e3f 435e 1e3f
00000220: bfec 5c3f e9cf 4d3f acd6 c5be 0900 29bf
00000230: e114 0abf 0587 ce3e 04a8 09bf 1fe4 f5be
00000240: d110 51bf a2ad 943f d109 003f 88fc febe
00000250: 94c7 33bf 98c0 373f 1fad 393e bb65 263f
00000260: 4353 62bf 4763 83be 9f6e cdbe 494c 19bf
00000270: 2567 703f e762 423f bad0 6e3f afe9 d6be
00000280: ddeb 773f 694b 89bf ca00 933e 4428 81be
00000290: 3e76 643f b726 73be 1161 0ebf 8de2 813f
000002a0: 7402 4dbf a650 513f 21e9 163f 00ef 203f
000002b0: 79cd 503f 263e 783f 8941 16bf 4e4b 81be
000002c0: 99b3 0f3f 07d5 803e a8af 3b3f 3d81 053f
000002d0: c73b ed3e d7dd 333f e478 e03e 7fff ccbd
000002e0: e571 1bbf 7196 83bf 859a 893e 158d 9d3e
000002f0: a7bf 6abf f15b 4b3f e3ba 5ebf b944 373f
00000300: bfe2 283f 8ccd 513f 919f 7fbf bb68 7dbf
00000310: cf63 503f 9dd2 5c3f b8c8 6fbf 4ba7 2abf
00000320: 1510 6ebf 20c7 5dbf 8a2f d53e 341c 363f
00000330: 09cb 143f 718c debe bb55 143f a27b 043f
00000340: a548 613f 3a36 a0bf 87f8 09bf 2662 093f
00000350: d1b9 413f ba01 46bf 7614 48be 364e 33bf
00000360: d9e1 733f 8194 8d3e 4a5e dd3e a030 253f
00000370: a686 81bf 3777 51bf adab 80bf a195 e73e
00000380: aa93 85bf f0f1 933f 1e68 9ebe 332d 8b3e
00000390: 422f 76bf b901 833e 926c 193f eff5 8bbf
000003a0: bbe9 5c3f 6e8d 61bf 0f9e 22bf f96a 2dbf
000003b0: 1300 61bf ffbf 85bf 76e9 213f f452 8b3e
000003c0: 5dd9 1abf 80d3 8abe e83e 4abf 82dc 0fbf
000003d0: fda2 ffbe ced1 41bf ade2 f1be 8be6 dc3d
000003e0: de80 273f a3cb 8d3f 2f47 94be e2c5 a9be
000003f0: 84f5 7c3f 7122 5bbf 1302 703f 3e7c 45bf

value_N1.bias_epsilon f4 [32]
-0.6007482 -1.2043806 0.8201465 -0.8837686 1.2376578 0.29661912 1.3637372 0.8047579
1.1595948 -0.97532684 -0.14306907 0.98926795 -0.8086184 0.5391327 1.2898374 -1.2004156
0.9394514 -0.67697066 -1.5331715 -0.64807254 0.80384254 -0.3958189 1.377907 -0.9380717
-0.91642565 -1.3050771 0.92507315 -0.82146245 -0.48317322 -0.6301141 -0.93732905 -0.9243799
00000000: a2ca 19bf 2529 9abf 1ff5 513f a93e 62bf
00000010: 926b 9e3f 76de 973e f18e ae3f 9d04 4e3f
00000020: 9a6d 943f 05af 79bf b380 12be aa40 7d3f
00000030: 9e01 4fbf 9a04 0a3f 6419 a53f 38a7 99bf
00000040: e37f 703f f34d 2dbf f73e c4bf 15e8 25bf
00000050: a0c8 4d3f c6a8 cabe 425f b03f 7825 70bf
00000060: df9a 6abf c40c a7bf 98d1 6c3f 5d4b 52bf
00000070: 7b62 f7be 284f 21bf ccf4 6fbf 29a4 6cbf

value_N2.weight_mu f4 [4, 32]
-0.34905455 -0.34418422 -0.34832907 -0.18418118 0.2669782 -0.24810646 -0.47072798 -0.18103477
0.80099094 -0.30646485 -0.19187048 -0.1395181 -0.9404492 -0.40205714 -0.13146418 -0.3228216
-0.0801634 -0.40309444 -0.38693383 0.4565845 0.76066524 0.45528919 0.10929847 -0.46017238
-0.42035127 0.7349237 -0.35503298 -0.6377855 -0.32041246 -0.4398469 -0.5514761 0.6468073
-0.15615585 -0.36841032 -0.15531303 -0.40698788 0.25926572 -0.5717277 -0.11935803 -0.21066016
0.7872479 -0.43608102 -0.70074 0.049939953 -0.6717558 -0.44159454 -0.24938345 -0.24624471
-0.46441653 -0.045518246 -0.3296175 0.63735443 0.92510545 0.48712122 0.2407832 -0.45863852
-0.4777921 0.7811375 -0.3607859 -0.5099894 -0.2482557 -0.48298734 -0.66072124 0.6651103
-0.48943543 -0.30925328 -0.2631046 -0.4681221 0.58490926 -0.41373014 -0.2765426 -0.48822835
0.63292843 -0.3428878 -0.23953003 -0.16906846 -0.14824684 -0.22211355 -0.31993166 -0.3295062
-0.34206435 -0.45178455 -0.26361755 0.15654485 0.5528011 0.78847694 0.092273116 -0.37529278
-0.36943772 0.68544006 -0.338065 -0.23204625 -0.42258817 -0.34234822 -0.20773947 0.5458107
-0.2897763 -0.26746225 -0.4279856 -0.3625881 0.43866828 -0.4478783 -0.37005198 -0.1799971
0.8930823 -0.35492948 -0.53978217 -0.6243416 -0.5612399 -0.33576643 -0.49835604 -0.47479776
-0.39362225 -0.27128512 -0.46695325 0.46436697 0.45261845 0.88972276 -0.31094974 -0.10498597
-0.28743938 0.83501583 -0.2773333 -0.9355022 -0.29407856 -0.18119153 -0.1317269 0.7844623
00000000: 47b7 b2be ea38 b0be 3058 b2be fe99 3cbe
00000010: 5eb1 883e 9f0f 7ebe 4203 f1be 2e61 39be
00000020: be0d 4d3f f6e8 9cbe b279 44be d5dd 0ebe
00000030: 47c1 70bf 6fda cdbe 8c9e 06be df48 a5be
00000040: b52c a4bd 6562 cebe 311c c6be 72c5 e93e
00000050: f5ba 423f aa1b e93e e0d7 df3d b79b ebbe
00000060: 4838 d7be f623 3c3f e2c6 b5be e945 23bf
00000070: 1a0d a4be 9d33 e1be 8a2d 0dbf 2a95 253f
00000080: 52e7 1fbe 47a0 bcbe 610a 1fbe b760 d0be
00000090: 7abe 843e bf5c 12bf fc71 f4bd 4cb7 57be
000000a0: 1489 493f 0346 dfbe b263 33bf d68d 4c3d
000000b0: 30f8 2bbf ae18 e2be 605e 7fbe 9327 7cbe
000000c0: 01c8 edbe 5771 3abd a0c3 a8be a929 233f
000000d0: b6d3 6c3f f467 f93e df8f 763e abd2 eabe
000000e0: 2ba1 f4be a1f8 473f eeb8 b8be aa8e 02bf
000000f0: be36 7ebe 1e4a f7be 0725 29bf ab44 2a3f
00000100: 4897 fabe 7256 9ebe a5b5 86be b3ad efbe
00000110: 9dbc 153f 70d4 d3be fe96 8dbe 11f9 f9be
00000120: 9907 223f fd8e afbe 5c47 75be 4820 2dbe
00000130: 05ce 17be bc71 63be 15ce a3be 09b5 a8be
00000140: 0f23 afbe 4e50 e7be e1f8 86be 4b4d 203e
00000150: 5f84 0d3f a0d9 493f b0f9 bc3d 6026 c0be
00000160: f126 bdbe 0079 2f3f db16 adbe 889d 6dbe
00000170: 7a5d d8be 4448 afbe a8b9 54be 40ba 0b3f
00000180: 8f5d 94be d0f0 88be ee20 dbbe 26a5 b9be
00000190: 2199 e03e 4e50 e5be 7477 bdbe 2951 38be
000001a0: 0ba1 643f 51b9 b5be 2a2f 0abf dad4 1fbf
000001b0: 6bad 0fbf 94e9 abbe 8628 ffbe b118 f3be
000001c0: db88 c9be e2e5 8abe 7f14 efbe 82c1 ed3e
000001d0: 9bbd e73e dfc4 633f ce34 9fbe e202 d7bd
000001e0: 412b 93be 99c3 553f a1fe 8dbe 127d 6fbf
000001f0: 7791 96be 468a 39be 6be3 06be 85d2 483f

value_N2.weight_sigma f4 [4, 32]
-0.00030111033 0.009874737 -0.004934811 -0.009133184 -0.0023459562 -0.012855548 -1.9030784e-05 -0.001703512
-0.0028602048 0.0012255104 -0.0039536045 -0.0013404991 -0.0019193463 -0.008129683 -0.0030432432 0.014852518
-0.0011672701 0.004376229 -0.00066555623 -0.004010796 0.00093459984 0.0004179236 0.010290507 -0.005547603
0.0050941184 -0.0018718861 -0.0008459138 -0.0003778729 0.00863889 -0.0067203757 0.011185029 -0.00094700797
-0.0052520186 0.004000649 -0.00172281 0.012284273 0.001996841 0.023198117 0.007032095 0.003962446
-0.0038519672 0.0020549335 -0.006572446 -0.009346405 3.0689116e-05 -0.0018020789 0.0017833178 0.00024032831
0.008587075 0.011143223 -0.0031627426 0.0011800313 0.0008935222 -0.0017901435 -0.0035117725 0.009256361
0.0007933302 7.050755e-05 -0.013434058 0.023966603 0.013402112 0.0035941133 0.00015820052 -0.0006017041
-0.0016855807 0.003320266 -0.0027724856 -0.00024223444 -0.00060957775 0.004393836 0.0013435523 0.0029264258
0.0014498142 -0.0023253295 -0.0012362291 0.0021141449 0.0036923392 0.003325028 -0.0024459776 0.0037973896
0.003727023 0.0021751244 -0.0008621329 -0.002465514 0.0009826483 -0.0006059683 0.0025821165 0.00014782681
-0.0031191288 0.0014262476 0.0010512777 -0.0022060713 0.0044103563 0.0014217416 0.0049954923 -0.00048190472
0.006074661 -0.0023387468 -0.00689154 -0.0068568722 -0.004066653 -0.01183679 0.0026413621 0.0002380758
0.00033687774 0.0046478645 0.0049858987 0.0055168546 0.0023488342 -0.0014621079 0.0016356709 0.0006573382
0.0043936064 -0.0043866364 0.0026335751 0.0012561915 0.0005391308 0.0016321422 0.0012292239 0.005029312
-0.005409464 -0.00093440927 0.016168857 -0.0038654963 0.0012311684 5.0357306e-05 0.004642779 -0.0051086894
00000000: 58de 9db9 a6c9 213c 32b4 a1bb 5aa3 15bc
00000010: 9dbe 19bb 14a0 52bc 4ca4 9fb7 6148 dfba
00000020: 4672 3bbb 4ea1 a03a 3d8d 81bb b0b3 afba
00000030: 9392 fbba 5d32 05bc 2671 47bb fa57 733c
00000040: 16ff 98ba 7866 8f3b b978 2eba ff6c 83bb
00000050: efff 743a c21c db39 8499 283c abc8 b5bb
00000060: 90ec a63b 135a f5ba 50c0 5dba 3e1d c6b9
00000070: 228a 0d3c 9936 dcbb 6941 373c a140 78ba
00000080: 2019 acbb e017 833b e9cf e1ba fa43 493c
00000090: 6fdd 023b fa09 be3c 7d6d e63b 68d7 813b
000000a0: 4971 7cbb 10ac 063b ac5d d7bb aa21 19bc
000000b0: 30b8 0038 bc33 ecba 37be e93a a400 7c39
000000c0: ceb0 0c3c 1192 363c 0446 4fbb 48ab 9a3a
000000d0: 433b 6a3a 40a3 eaba c425 66bb fea7 173c
000000e0: 7df7 4f3a 74dd 9338 861a 5cbc 9c55 c43c
000000f0: 8894 5b3c 378b 6b3b a1e2 2539 aebb 1dba
00000100: b4ee dcba d298 593b 97b2 35bb 5000 7eb9
00000110: 12cc 1fba 2bfa 8f3b 221a b03a 47c9 3f3b
00000120: b107 be3a 8e64 18bb f708 a2ba 778d 0a3b
00000130: 2cfb 713b b7e8 593b b24c 20bb a0dd 783b
00000140: 1241 743b 888c 0e3b c200 62ba 7694 21bb
00000150: 35cc 803a d8d9 1eba ba38 293b f501 1b39
00000160: 4c6a 4cbb eef0 ba3a 07cb 893a bc93 10bb
00000170: c084 903b bb59 ba3a 3ab1 a33b 28a8 fcb9
00000180: f30d c73b a945 19bb 6dd2 e1bb 9daf e0bb
00000190: 8f41 85bb 18ef 41bc b41a 2d3b fca3 7939
000001a0: f79e b039 1d4d 983b c060 a33b bbc6 b43b
000001b0: e6ee 193b 33a4 bfba 0264 d63a 3851 2c3a
000001c0: 3ef8 8f3b c6bd 8fbb 0f98 2c3b cba6 a43a
000001d0: 7554 0d3a 9bed d53a e91d a13a edcc a43b
000001e0: df41 b1bb 25f3 74ba 8d74 843c 4454 7dbb
000001f0: 285f a13a bf36 5338 7422 983b cb66 a7bb

value_N2.bias_mu f4 [4]
0.15191914 0.05251386 0.25770542 -0.1383451
00000000: b190 1b3e c618 573d f7f1 833e 57aa 0dbe

value_N2.bias_sigma f4 [4]
0.0031538587 0.00060225336 0.0048301076 -0.004427558
00000000: f8b0 4e3b 8ae0 1d3a e145 9e3b 0c15 91bb

value_N2.weight_epsilon f4 [4, 32]
0.58563656 0.46854788 0.8382958 0.54068786 0.70302117 -0.59401524 0.8570563 0.8283068
0.6626743 -0.5743384 -0.49699923 0.798892 0.6926347 0.38920444 -0.23632249 -0.24376954
-0.80815375 0.06699759 -0.6744163 -0.3114263 0.71840215 -0.24664442 -0.404774 -0.5481172
0.43860322 -0.59093857 -0.5842318 0.81771487 0.43813422 -0.4404356 -0.22625574 -0.09528531
-0.6900336 -0.5520724 -0.98773265 -0.63707227 -0.8283435 0.69990593 -1.0098374 -0.97596294
-0.78080434 0.6767214 0.5855956 -0.94130456 -0.81610554 -0.45858502 0.27844995 0.28722453
0.9522173 -0.07894075 0.79463947 0.36694196 -0.8464663 0.2906119 0.47693005 0.64582604
-0.51678973 0.6962808 0.68837845 -0.9634828 -0.51623714 0.5189488 0.26658866 0.112271115
0.5001836 0.40017983 0.7159761 0.46179354 0.60044 -0.50733966 0.73199916 0.70744467
0.5659804 -0.49053395 -0.42447975 0.6823219 0.59156907 0.3324138 -0.20183957 -0.20819998
-0.6902322 0.057221655 -0.57600904 -0.26598462 0.61357665 -0.21065538 -0.34571153 -0.46813887
0.37460455 -0.5047119 -0.49898377 0.69839823 0.374204 -0.37616956 -0.1932417 -0.08138178
-0.99550176 -0.79646707 -1.4249879 -0.9190952 -1.1950395 1.0097444 -1.4568781 -1.4080079
-1.1264554 0.97629637 0.8448305 -1.3580067 -1.1773839 -0.66159415 0.40171582 0.41437477
1.3737504 -0.11388671 1.1464151 0.529382 -1.221185 0.4192617 0.6880603 0.9317241
-0.7455653 1.0045145 0.9931139 -1.390003 -0.7447681 0.74868006 0.3846037 0.16197196
00000000: 47ec 153f 82e5 ef3e 8e9a 563f 856a 0a3f
00000010: 32f9 333f 6211 18bf 0b68 5b3f ea0b 543f
00000020: 06a5 293f d707 13bf af76 febe 3084 4c3f
00000030: 8250 313f ce45 c73e 86fe 71be b99e 79be
00000040: 2ae3 4ebf 0836 893d 8ca6 2cbf 4573 9fbe
00000050: 34e9 373f 5b90 7cbe 8a3e cfbe 6951 0cbf
00000060: 9a90 e03e c047 17bf 3790 15bf c355 513f
00000070: 2153 e03e c680 e1be 96af 67be f224 c3bd
00000080: 0ba6 30bf 9e54 0dbf 0cdc 7cbf 2b17 23bf
00000090: 520e 54bf 092d 333f 5a42 81bf b5d8 79bf
000000a0: cbe2 47bf 9d3d 2d3f 98e9 153f 56f9 70bf
000000b0: 4bec 50bf a8cb eabe fe90 8e3e 180f 933e
000000c0: 83c4 733f b0ab a1bd 7e6d 4b3f d1df bb3e
000000d0: 04b2 58bf 15cb 943e 2d30 f43e db54 253f
000000e0: 554c 04bf 753f 323f 9239 303f cfa6 76bf
000000f0: 1e28 04bf d4d9 043f 4f7e 883e 66ee e53d
00000100: 080c 003f 5fe4 cc3e 364a 373f 3470 ec3e
00000110: 70b6 193f 03e1 01bf 4c64 3b3f 181b 353f
00000120: 17e4 103f 4427 fbbe 6955 d9be a6ac 2e3f
00000130: 1271 173f 2432 aa3e 08af 4ebe 6032 55be
00000140: 0fb3 30bf 4161 6a3d 5475 13bf 232f 88be
00000150: 5c13 1d3f 0bb6 57be 1a01 b1be e6af efbe
00000160: 2bcc bf3e cd34 01bf cd7a ffbe 3aca 323f
00000170: ab97 bf3e 4c99 c0be 27e1 45be 7eab a6bd
00000180: 34d9 7ebf 44e5 4bbf 0166 b6bf d349 6bbf
00000190: 0ef7 98bf 4e3f 813f fb7a babf 9a39 b4bf
000001a0: b12f 90bf 8fee 793f d046 583f 2ad3 adbf
000001b0: 84b4 96bf 3c5e 29bf b2ad cd3e ee28 d43e
000001c0: 0ed7 af3f 6f3d e9bd bbbd 923f 9485 073f
000001d0: ca4f 9cbf 78a9 d63e b824 303f 7885 6e3f
000001e0: 5edd 3ebf ee93 803f b63c 7e3f 9eeb b1bf
000001f0: 1fa9 3ebf 7fa9 3f3f c7ea c43e fadb 253e

value_N2.bias_epsilon f4 [4]
0.6666305 -0.7854658 0.5693593 -1.1331804
00000000: 4ca8 2a3f 4914 49bf 88c1 113f 0e0c 91bf
