Lunar_Lander/Rainbow_Lunar/Checkpoints/checkpoint_lunar_agentDueling_PER_multi.pth (torch_old, 37914 bytes, 11 tensors)

fc1.weight f4 [64, 8]
000000 3d 84 86 3e 41 45 d2 3e d3 5e 22 bf 23 f5 6b be
       0.26272765 0.41068462 -0.6342594 -0.23042731
000010 3b 61 d4 3e 26 fa 6c 3e 1c 92 3f be 84 41 1f 3e
       0.4148043 0.23142299 -0.1870808 0.15552336
000020 48 0d a7 3d fd e9 c0 3d 66 b2 ad bd 50 fd 8e be
       0.0815683 0.0941963 -0.084812924 -0.27927637
000030 1c eb 3f 3e 7e f1 fc be fa ca 14 be c4 29 88 3e
       0.18742031 -0.49402994 -0.14530554 0.26594365
000040 aa 92 bd 3e c8 90 43 3e 7d 3e 2a be fc d0 1a bf
       0.37025958 0.19098198 -0.166254 -0.60475135
000050 99 ad ac 3e d2 ea 12 3f 1e cd aa be 91 e9 78 3d
       0.33726195 0.5738956 -0.33359617 0.06076962
000060 ec 2b 97 3d ce 3b 42 3e 62 f2 35 be f5 3c 6f bf
       0.07381424 0.18968126 -0.17768243 -0.9345239
000070 0d 0c 19 bf 49 55 56 be a1 67 06 be f0 34 f8 bc
       -0.59784013 -0.20930971 -0.13125469 -0.03029868
000080 30 19 0b 3d 38 20 fe bd 0e 52 17 be 60 ed 1e bf
       0.033959568 -0.12408489 -0.14777395 -0.62080956
000090 d5 7b 64 3f 78 ca 0c 3f 88 af 99 3e 0e a8 3f 3e
       0.8925145 0.5499644 0.30016732 0.18716452
0000a0 5d 44 a7 3d bb b3 e0 bd 57 6f 9d 3d d8 fc 85 be
       0.08167336 -0.10971781 0.07687252 -0.26169467
0000b0 d6 89 1d bf 4c 2b 17 bf b0 73 02 3e 3b 30 f6 3d
       -0.61538446 -0.5905044 0.12739444 0.12020918
0000c0 f0 f3 59 be 8c 2c b1 3d 28 08 a4 bd 21 17 14 3f
       -0.21284461 0.08651075 -0.08009368 0.5784779
0000d0 c8 f8 fc 3e 05 42 42 3e 8a 79 6d 3e 72 3b 95 3b
       0.49408555 0.18970497 0.23190895 0.0045542056
0000e0 1b ac 86 bd 78 5f fb 3d 37 73 ab 3b 59 51 68 bf
       -0.06575795 0.122740686 0.0052322405 -0.90749127
0000f0 26 91 bc 3e 11 55 35 3e 8f 9f b1 bc e0 7e 73 3c
       0.3682949 0.17708232 -0.021682529 0.014861792
000100 26 bf 1b 3e b7 60 a3 bd b8 79 41 3e 21 05 03 bf
       0.15209636 -0.07977431 0.18894088 -0.511797
000110 1d 40 ee 3b ab c6 02 3f 4f 7e 98 be 23 42 a6 be
       0.0072708265 0.51084393 -0.29783866 -0.32472333
000120 96 a0 99 3d a2 ff 87 3e ae 3b a0 3e f8 ae 33 3f
       0.075013325 0.2656222 0.31295532 0.70188856
000130 43 cb 05 bf 81 4f b0 be 52 25 85 3e 93 0b fa be
       -0.5226328 -0.34435657 0.26005036 -0.48836955
000140 b1 2d a1 be cf 29 c7 3f 9e 76 a1 3e 68 64 09 bf
       -0.31480172 1.5559634 0.3153581 -0.5366883
000150 32 1d 4f 3e c0 06 ec 3d 74 fd 53 be 2d d3 97 be
       0.20225981 0.11524725 -0.20702153 -0.29653302
000160 09 04 5e bd f6 24 49 bd e6 ff 94 bc 20 1d 44 bd
       -0.054203067 -0.049107514 -0.018188428 -0.04787934
000170 cb f8 f8 3e 66 e3 00 3f e1 00 1e bf 9d 8b 0c be
       0.48627314 0.5034698 -0.6172009 -0.13725133
000180 72 17 9a bc d3 77 c0 3e a5 0f dc 3d 2a 5a d7 be
       -0.018810008 0.3759142 0.107451715 -0.42060977
000190 9a a3 23 3f 24 e5 a6 3e dd 6a 47 3c ff 32 05 be
       0.6392151 0.32596695 0.012171474 -0.13007735
0001a0 22 2a 65 bf de 66 56 3e a4 b1 c0 be 3c 58 a9 be
       -0.89517415 0.20937678 -0.3763553 -0.3307513
0001b0 37 0a ac 3e 0d bf 96 3d 2b b4 93 3c e5 fc 0c 3d
       0.33601543 0.07360659 0.018030247 0.034420867
0001c0 1b a5 0a be 3c e8 a3 3f 8a a9 72 3e 4d fe 1e be
       -0.13539545 1.2805247 0.23697487 -0.15526696
0001d0 95 1f f6 bd 8f d9 27 bc 17 15 88 3c 63 f7 93 3c
       -0.120177425 -0.010244741 0.016611619 0.0180623
0001e0 a4 28 76 3e e8 a5 11 be ac 93 2c bc 61 ce 68 3c
       0.2403894 -0.14223444 -0.010533255 0.014209361
0001f0 df 78 0a bf 3f 44 d6 be 9f 82 cc be c7 e3 cd 3d
       -0.54090685 -0.41848943 -0.39943406 0.10053211
000200 72 49 1c be 0b ff 80 bd 86 b8 aa bd 7c 0a 31 be
       -0.15262392 -0.062986456 -0.08335976 -0.17289156
000210 0c 09 58 bf 85 80 bc bd 89 1f 93 3e 5e 30 a0 bc
       -0.84388804 -0.09204201 0.28734997 -0.019554313
000220 f8 65 63 bc 66 5c 62 bd 54 95 fa bd b5 41 92 be
       -0.013879292 -0.0552639 -0.12235513 -0.28565755
000230 cf 65 d4 3e d4 d1 07 3f de 7a 08 3f ca ee eb 3b
       0.41483924 0.5305455 0.5331248 0.0072000967
000240 b8 b0 36 be cc 8c f8 bd da 11 d4 3d 8c 71 d3 be
       -0.1784085 -0.1213623 0.103549674 -0.41297567
000250 19 e7 43 bf 59 6c 83 be 26 8f da be 25 8c 88 be
       -0.765245 -0.256686 -0.4268734 -0.26669422
000260 b3 e7 01 be 21 8c 8a 3f 2c 86 53 3e 46 51 11 bf
       -0.12686042 1.0824014 0.20656651 -0.5676464
000270 f9 7b 1c 3e 07 d7 8e bd 42 2b 2a be c7 43 16 bf
       0.15281667 -0.06974607 -0.16618064 -0.5869717
000280 a4 ad 7f bd 53 1e be be 9e de 0f bf 03 df 25 bf
       -0.062421456 -0.3713251 -0.5619906 -0.64793414
000290 3e f1 3c 3e a1 f2 da 3c 69 3b 9d 3d cf 93 2c 3e
       0.18451402 0.026727023 0.07677347 0.1685326
0002a0 57 04 81 bf 1f 04 ba 3e 05 4f bc 3d a9 9f c9 bd
       -1.007945 0.3633127 0.09194759 -0.09844906
0002b0 e8 27 ba 3d cc 62 30 3f 34 be 89 3c 8e d6 28 3e
       0.09089643 0.6890075 0.016814329 0.16488096
0002c0 67 41 93 3d a1 b5 af be ec bb 36 3e 29 af 55 bf
       0.07190209 -0.3431826 0.17845124 -0.834704
0002d0 23 48 97 be a5 d3 5a be 56 b3 ac 3e 4a 53 19 3d
       -0.29547223 -0.21369798 0.33730572 0.037432946
0002e0 f8 bf 53 3d 6a c9 d1 3d 2b 57 2b be be cc 35 bf
       0.051696748 0.10243495 -0.1673247 -0.71015537
0002f0 d3 5e 2e bf c1 15 4a bc 15 82 b1 3e 6b 3d 10 bc
       -0.6811344 -0.012334288 0.34669557 -0.008803706
000300 4b c7 fc bd 54 cc 90 be 99 87 20 bf 9b 97 af be
       -0.123426996 -0.2828089 -0.62706906 -0.34295353
000310 16 a3 09 3f 2c b7 e4 3d 67 e5 76 3d 07 34 70 3d
       0.53764474 0.1116775 0.06027737 0.058643367
000320 4f 0a c6 3d d0 f5 14 3f 42 0e db be 29 1b 16 bf
       0.09669935 0.5818758 -0.42784315 -0.58635193
000330 c9 58 b5 3e ce da 10 3f 6f aa 64 be 38 43 82 3e
       0.354193 0.5658387 -0.2233064 0.2544191
000340 c1 96 9c 3e ae 29 48 3e 6d 88 22 be c5 aa 0d bf
       0.30583766 0.1954715 -0.15872355 -0.553387
000350 fa 4f 9b bd 0a 2a 89 be ff c5 8d 3d fc c1 8c 3c
       -0.07583614 -0.26789886 0.069225304 0.017182343
000360 85 fe d8 be e7 00 07 be e2 a0 10 be e4 29 20 bf
       -0.42381683 -0.13183938 -0.14123872 -0.6256392
000370 0c bb ac 3e 56 dd 1b 3f 86 eb 91 3d 18 d4 a5 be
       0.33736455 0.60884607 0.07125001 -0.32388377
000380 9a 97 36 bf 9c df 3f 3e 2f 24 db be 7a 04 ac bc
       -0.71325076 0.18737644 -0.42801043 -0.020998228
000390 58 71 7c be af 1f 99 3c cf 72 f1 3d 5a b8 84 3e
       -0.24652612 0.018691866 0.11789476 0.259219
0003a0 a3 3a 2a 3e 83 ea af 3f 68 e4 99 3c 35 e1 8c be
       0.1662393 1.3743442 0.01878567 -0.2751557
0003b0 50 6b 94 3e b1 fe 88 be 13 99 1a be 2a 49 3f bb
       0.28988123 -0.26756814 -0.15097456 -0.0029187896
0003c0 50 23 b7 3d 8f 77 1a 3f db 56 0f bf a0 52 cb 3e
       0.08942282 0.6033868 -0.55991906 0.39711475
0003d0 48 23 7d 3e 02 ca f8 3d fe 61 07 3f 15 69 c8 bd
       0.2472049 0.12147905 0.528839 -0.09785668
0003e0 fb f9 50 bf bd b5 fe be 0f e7 4d be e5 0c 3f 3f
       -0.8163144 -0.4974803 -0.20107673 0.7462905
0003f0 1d 14 3d 3f 81 2c 84 bc aa dd dc 3c 17 3e 65 bd
       0.73858815 -0.016134502 0.026961166 -0.055967417

fc1.bias f4 [64]
000000 df 4c 37 be 36 de 6b 3d d3 90 83 ba 53 f6 87 3e
       -0.17900418 0.057584964 -0.0010037668 0.26555118
000010 50 e4 c2 bd 5f e5 a3 bd ff 33 1a 3f 59 46 8e 3e
       -0.095162034 -0.080027334 0.6023559 0.27788046
000020 6c 8b cb 3e 25 ae 3e 3e 76 f6 8f 3e 60 82 dc bd
       0.39754808 0.18621118 0.28117722 -0.107670546
000030 b5 57 a2 be 23 95 bc bd df e3 07 3f f6 27 56 3e
       -0.3170754 -0.09208133 0.5308208 0.20913681
000040 eb 7e 99 3e 15 b7 07 be 96 d7 1e 3f 86 50 0f 3f
       0.29979643 -0.13253434 0.6204771 0.55982244
000050 6b ca 6c be 7c 9e aa be ed 83 11 bd 99 2c 28 3e
       -0.23124091 -0.3332404 -0.035526205 0.16423263
000060 d2 bf d5 bd 05 aa 22 be 42 79 47 3e d7 a9 03 3e
       -0.104369774 -0.1588517 0.1947985 0.12857758
000070 04 cb 97 bd 68 44 d1 3e 8b c9 44 3d 3c 5a 85 be
       -0.07411769 0.40872502 0.04804377 -0.26045406
000080 9b 1c 11 3e 5c 11 0f 3f 6f d8 ba bd 2c ad 1e 3e
       0.14171068 0.55885863 -0.09123313 0.15495747
000090 10 47 a5 3d d9 92 09 3f 97 be ab be 8a ef cd bd
       0.08070195 0.53739697 -0.33543846 -0.10055454
0000a0 08 8d 31 3f c6 60 05 be 47 de 63 3a b4 65 f8 bc
       0.6935582 -0.13025197 0.00086924847 -0.030321933
0000b0 a1 64 1b 3d 6c 25 06 3e c0 8d c7 3e 76 bf e8 3d
       0.037937764 0.13100213 0.38975334 0.11364643
0000c0 a2 3c db bd a2 55 84 be b6 9a 5e 3e fa ae 99 3e
       -0.10704924 -0.25846583 0.21738705 0.3001631
0000d0 f5 fb 57 bc 32 02 37 3f e8 c0 b9 be 2f 97 13 3f
       -0.01318263 0.71487725 -0.36279988 0.5765256
0000e0 3f b6 43 3f 6e de f8 3e cf ac ee 3e b2 8e 4c 3e
       0.7644996 0.486072 0.46616217 0.19976309
0000f0 d8 2e 1f 3e 8a 12 d5 3e 76 9a 93 3e d5 71 38 3f
       0.15545213 0.41615707 0.28828782 0.72048694

fc2.weight f4 [64, 64]
000000 37 45 df bd 34 82 da 3d c3 22 9b 3d 28 2a 77 3e
       -0.109018736 0.106693655 0.0757499 0.24137175
000010 0b c2 69 3c 9e 58 0d bd 18 c4 ce be 9c 13 99 3e
       0.014267455 -0.03450834 -0.40383983 0.29897773
000020 99 2c 03 3d 72 fa 3d bd 7a 33 ce 3e 03 6a 6f 3e
       0.032024954 -0.04638142 0.40273649 0.23380284
000030 be 16 a5 3e 7e 1c ee 3e c9 5d 46 3e 94 ae af 3b
       0.32243913 0.46506113 0.19371714 0.0053613875
000040 6b fd 52 bd d9 17 8b 3d 44 71 62 bd 8b cb 4e 3e
       -0.05151121 0.06791658 -0.0552838 0.20194833
000050 ab 5f 6d 3d 21 d1 78 3c c9 23 8b 3e 22 2c 29 3e
       0.057952564 0.015186579 0.2717574 0.16520742
000060 94 62 9b 3d 33 7e 11 be 40 a3 66 3d 0a 76 22 bd
       0.07587162 -0.14208297 0.05630803 -0.039663352
000070 ba 67 62 3e 69 57 96 3e 47 30 7e 3d 85 35 3f bf
       0.22109881 0.29363564 0.06205776 -0.7469104
000080 fd 25 d4 3d ba d2 80 be f8 4f e9 3e 53 c2 cf 3d
       0.10358808 -0.25160772 0.45568824 0.10144486
000090 a6 5e b0 3e b0 47 d2 bd 30 9d 35 3d e0 fc 38 3f
       0.3444721 -0.102675796 0.04433936 0.72260857
0000a0 bb c2 90 bd 5f 60 24 3e 87 ef 43 3e 51 7d 0a bf
       -0.07068392 0.16052388 0.19134341 -0.5409747
0000b0 76 60 c6 3e f8 a7 00 3e 1c eb 4f be 13 fb 1e 3e
       0.3874547 0.12564075 -0.20304531 0.15525465
0000c0 2c 08 f9 3e c0 24 86 3d 31 13 8c 3d d7 5b 55 3e
       0.48639047 0.06549978 0.06839598 0.20835815
0000d0 04 f4 c5 bd df f3 78 be 3f fa 2a be ae 6b b7 be
       -0.09665683 -0.2431178 -0.16697024 -0.3582434
0000e0 7a 0d f4 3c 2b 07 d0 3e 78 cc 20 3e 1c ec 9e 3e
       0.029791582 0.4063047 0.15702999 0.31039512
0000f0 30 e7 fa bc 47 2a 90 be 84 25 93 3d 35 09 af 3d
       -0.030627817 -0.28157255 0.0718489 0.08546678
000100 c4 50 52 be dd 65 6b 3e e8 be 58 be e4 82 0d 3d
       -0.20538622 0.22988077 -0.21166575 0.034548655
000110 0c 79 ef 3d 7b d0 a4 3e 66 3a f8 be cd 5b 4c 3e
       0.1169301 0.32190308 -0.48482054 0.19956894
000120 77 00 3e be 62 75 b0 3d bb c1 ef 3d 09 8e 8b 3e
       -0.18554865 0.08616139 0.11706873 0.27256802
000130 10 5e 40 3e ea df 3b 3e 6d 69 ea bd 98 9c 92 3e
       0.18785882 0.18347135 -0.114458896 0.28635097
000140 ba d7 2f 3e ef 52 9b 3e ea cf 13 be 3d 04 52 bd
       0.17172137 0.3033671 -0.14434782 -0.051273573
000150 42 5c 36 3e d7 a4 11 bd 8e 7a ae 3e bc 23 97 bc
       0.17808631 -0.035557594 0.34077877 -0.018449657
000160 78 26 ae 3e 16 1e a9 bd 35 be a3 3d a3 dd 00 be
       0.34013724 -0.082576916 0.079952635 -0.12584548
000170 5f b4 83 3e e5 3a c9 3d 69 04 63 be 68 1a 18 bf
       0.2572355 0.09825686 -0.22169651 -0.5941529
000180 0d 06 2c 3e 75 92 a1 be e8 5b b9 3e ec 15 c2 3e
       0.16799183 -0.3155705 0.3620293 0.3790735
000190 46 8a cb 3e ed 80 f0 3d ca 4f af 3d 5b 38 db 3e
       0.39753932 0.11743341 0.085601404 0.42816433
0001a0 ef b1 e9 bd 67 b8 75 3e 83 6a 06 3e 17 1f 08 bf
       -0.11410891 0.23996125 0.13126568 -0.5317244
0001b0 18 50 b3 3e 70 cd 05 3e c5 dc cc be a1 85 f3 3d
       0.35022044 0.1306665 -0.40012184 0.11890722
0001c0 e1 17 cf 3e 54 e5 da 3e 2c 3b 03 3c 13 8a 27 bd
       0.40447906 0.42753088 0.008009713 -0.040903162
0001d0 a6 f2 87 3e 0e 70 30 be 0c 05 bd be 2b af ed be
       0.26552314 -0.17230245 -0.36917913 -0.46422705
0001e0 eb c3 c1 3d 36 c6 ba 3d 62 22 65 3d 85 25 4c 3e
       0.094611965 0.09119837 0.055940993 0.19936188
0001f0 1a 7f de 3d 04 0f 24 be 63 c4 45 3e 70 ba 34 3e
       0.108640864 -0.16021353 0.19313197 0.17649245
000200 6f d3 1e be e6 af 13 3e 6d e5 3a be 66 7c 43 3e
       -0.15510343 0.14422569 -0.18251581 0.19090423
000210 c2 65 87 3d 4b 0e 8f 3e 10 04 91 be 66 ef f8 3c
       0.06611206 0.27940592 -0.28323412 0.030387592
000220 b5 09 20 be 4e de bf 3d 87 63 f0 3d f5 8e 63 3e
       -0.15628703 0.09368573 0.11737733 0.22222503
000230 31 2b fa 3d 54 20 32 3e 6e f1 82 3d 64 b8 a1 3e
       0.12215269 0.17395145 0.06393705 0.3158599
000240 81 22 9a 3e df c9 ca 3d 7e d7 fa bd 16 30 2f be
       0.3010445 0.09901785 -0.12248133 -0.17108187
000250 6e fb bb 3d eb c1 87 be 93 04 d2 3e a8 88 91 3d
       0.09178816 -0.26515135 0.41019115 0.07106143
000260 99 c1 a9 3e c9 d8 a4 be d1 7c 1f 3e e7 c0 ca bd
       0.33155516 -0.32196644 0.15574957 -0.099000745
000270 2b 95 9f 3c 42 2b b1 3c c5 62 12 be b6 d7 12 bf
       0.019480309 0.021627072 -0.1429549 -0.573604
000280 a7 3b 03 3d 4f 4d b5 be 43 ba cd 3e 00 eb cf 3d
       0.03203931 -0.35410544 0.4018117 0.101522446
000290 a3 a0 03 3e 07 2f 19 3e cc f7 ca 3d f8 30 c9 3e
       0.12854247 0.14959346 0.09910545 0.39295173
0002a0 d8 da 7d bd ae d4 92 3e 08 d6 95 3e d2 cc 21 bf
       -0.061976284 0.28677887 0.29264855 -0.63203156
0002b0 83 5f f4 3c ad 68 99 3d ad fb 0c bf c4 93 91 3e
       0.0298307 0.074906684 -0.55071527 0.2843305
0002c0 c6 fb e1 3e 52 1e fc 3e 98 7a a8 bc a3 27 9b bd
       0.441374 0.49241883 -0.02056627 -0.075759195
0002d0 26 8e b2 3d d8 60 31 be 6c 80 b3 be 86 d1 e2 be
       0.08718519 -0.17322099 -0.35058916 -0.4430048
0002e0 fb 7c be 3c ad b4 7c 3e 74 c5 9c bd 63 54 b2 3e
       0.023252955 0.24678297 -0.07654849 0.34830007
0002f0 bd 99 3a 3e 5a ae 69 be 9f 7e 30 3e 4d e7 8b 3e
       0.18222709 -0.22820416 0.17235802 0.27324906
000300 10 fb 54 be d4 87 96 3d 22 95 c8 bc 3d 47 9b 3c
       -0.20798898 0.07350126 -0.024485175 0.018954867
000310 9b 90 40 3e 47 f0 6f 3e 26 5e 65 be c9 e5 d1 bc
       0.18805163 0.23431502 -0.22399196 -0.025622265
000320 91 f1 12 3e 4a be a8 3d e4 ca 24 3e e6 a9 ea 3d
       0.14349963 0.0823942 0.16093022 0.11458187
000330 63 af 4f bd b9 46 a2 3e 59 ea 49 3c 60 86 1f 3e
       -0.05070437 0.31694582 0.012323939 0.15578604
000340 d6 f4 22 3e bf 7c 6a 3c cf b7 60 bd 10 3e 43 be
       0.1591371 0.014311968 -0.054862794 -0.19066644
000350 a3 95 35 3e ff 49 ae be e5 0b 3d 3e 97 67 43 3e
       0.17732863 -0.3404083 0.18461569 0.19082485
000360 ce 66 cf 3e 12 88 5b be fc 6d 00 3e d5 0c ab be
       0.4050812 -0.21438625 0.12541956 -0.33408228
000370 ef 2a f3 3d 08 06 8d bd 50 ef 0b be b7 af 40 bf
       0.11873423 -0.06885916 -0.13665509 -0.7526812
000380 60 07 25 3e 0a e8 9a be 85 29 fe 3d b7 84 3c 3e
       0.16116095 -0.30255157 0.12410263 0.18410002
000390 f4 0a 83 3e 16 d5 8f 3e 06 90 fe 3d a1 b9 95 3e
       0.25594294 0.2809226 0.12429814 0.29243186
0003a0 ed 00 b8 bd 4f 27 33 3e ac dc 3a 3e 9a f2 59 bf
       -0.089845516 0.17495464 0.18248242 -0.85135806
0003b0 c0 e1 87 3e e9 f8 ed 3c 60 32 b6 be 94 41 79 3e
       0.2653942 0.029049354 -0.35585308 0.24341422
0003c0 1c 22 18 3e 96 38 f2 3e 12 85 28 3c 05 57 a8 3c
       0.14856762 0.47308797 0.010285633 0.020549307
0003d0 7e 5a a8 3e 54 91 5d be f1 1c ba be 2a 9f af be
       0.3288154 -0.2163747 -0.36350206 -0.3430112
0003e0 2c 45 68 3d 92 84 75 3d 76 a0 b0 3c 70 2a e5 3d
       0.056706592 0.059940882 0.021560889 0.11189735
0003f0 f5 2e 2a 3e 47 94 e4 bd 31 66 70 3e a8 e4 3b 3e
       0.16619475 -0.11161094 0.23476483 0.18348944

fc2.bias f4 [64]
000000 43 17 cb 3d 96 9b 08 be ff 23 65 bd 55 18 94 3d
       0.09916546 -0.13340601 -0.05594253 0.072312035
000010 ec 70 ea 3e c4 10 d6 3a 01 24 3d 3e a8 6b b7 3d
       0.45789278 0.0016331901 0.18470766 0.08956081
000020 18 00 ee 3c 73 18 0e bf de 20 fa bd bd 6f e9 bc
       0.02905278 -0.55506057 -0.122133 -0.028495664
000030 67 11 f1 bd bd 0a ae 3d 36 af 57 3d 2a f4 71 3e
       -0.11770897 0.08498142 0.05265733 0.23628297
000040 80 b5 a0 3d 5b aa ea 3c 48 74 2d 3e ab 62 04 3e
       0.078471184 0.028645685 0.16938889 0.12928264
000050 8f 2f 45 3d 9f b7 2e 3c 65 c7 97 3d 8a c3 4d bd
       0.04814106 0.010663896 0.07411078 -0.05023531
000060 77 50 ab 3e dc c1 70 3d 08 af 83 bd 1c 52 1e bd
       0.33459827 0.05877863 -0.06429869 -0.038652524
000070 af 91 32 3e 95 13 95 bd ad 28 28 3e 1f 37 c0 3d
       0.17438386 -0.072791256 0.16421767 0.093855135
000080 ad 91 19 be de db 2a 3f 59 eb df 3e c8 d6 e5 bd
       -0.14996977 0.6674174 0.43734244 -0.11222607
000090 55 a5 70 bd e5 cf 41 3d d1 aa 12 bb 18 b1 fd 3e
       -0.058751423 0.047317404 -0.0022379647 0.49549174
0000a0 d3 22 04 3e 9b f0 90 3d a8 22 43 3e d0 a5 d8 bd
       0.1290391 0.07077142 0.19056189 -0.10578501
0000b0 02 17 1e be 26 79 bb 3d 0f 47 b2 bc 09 7a 28 3e
       -0.15438464 0.091539666 -0.021762399 0.16452803
0000c0 32 6f 9d bd 03 51 c8 3c 27 56 5a 3e 31 44 25 3e
       -0.076872244 0.024452692 0.21321927 0.16139294
0000d0 52 40 1b 3e 27 65 8a 3e d8 4b 07 3f 4b 75 4a be
       0.15161255 0.27030298 0.52850103 -0.19771306
0000e0 64 a4 33 3d f3 45 7f 3e 32 80 f1 3d 6e 27 70 3d
       0.043857947 0.24929027 0.117920294 0.058631353
0000f0 cc 42 b4 bd 04 c4 48 bd ee 42 d0 3d 20 d3 2a 3f
       -0.08801803 -0.04901506 0.10169016 0.667284

fc3_1.weight f4 [32, 64]
000000 7d 9a 3a 3e 1b 3c d4 3e c1 9a 84 3e 2c a8 6c 3e
       0.18222995 0.41452107 0.25899318 0.23111027
000010 11 c2 25 3e b2 ae 38 3e e7 78 a1 3e 52 89 78 3e
       0.16187312 0.18035391 0.31537554 0.24271134
000020 b8 03 c7 bd e5 cf 77 bf 8c 0f 65 3e b4 75 92 3e
       -0.09717506 -0.96801597 0.22369212 0.28605425
000030 1a c6 1d 3e 1b 48 e4 3e 1b ec 6e 3e 53 f8 67 3e
       0.15407601 0.44586262 0.23332255 0.22653322
000040 14 be 83 3e e0 2c 73 3e 62 71 6d bf ef 38 81 3e
       0.25730956 0.23747587 -0.92751133 0.2523875
000050 10 45 99 3e 5f 46 b3 3e b9 71 89 3e 3b a4 c4 3e
       0.29935503 0.35014626 0.26844576 0.38406548
000060 ea 0c 52 3e f2 b6 27 bf ab 0d 02 3f ab a4 b7 bf
       0.20512739 -0.6551353 0.50802106 -1.4347128
000070 de e1 7d 3e f0 d8 f5 3e 02 bc d3 3e 68 e3 a3 3e
       0.24793193 0.48017073 0.41354376 0.32009435
000080 4c 40 8a be fa c0 21 3e 5a ef 11 3e 2e 47 cf bd
       -0.2700218 0.15796271 0.14251462 -0.10120998
000090 e1 12 ca 3e d7 af e3 3e d0 b3 71 3e 02 39 34 3e
       0.39467528 0.44470093 0.2360375 0.17599872
0000a0 66 46 88 3e 43 98 9c 3e 0a c6 a8 3e d2 46 af 3e
       0.2661621 0.30584916 0.32963592 0.3423372
0000b0 20 bc 55 bf 62 fe d7 bc 3a 23 a2 3e 9f 9a c2 bf
       -0.8349018 -0.026366416 0.316675 -1.5203437
0000c0 9f a9 86 3e e1 5b c7 3e 6a 3d 9c bf 29 57 3f 3e
       0.26301286 0.38937286 -1.2206242 0.18685593
0000d0 75 ba 7e 3e 7c 61 44 3e f8 51 24 3e 25 f7 3d bf
       0.24875815 0.19177812 0.16046894 -0.7420524
0000e0 59 07 31 3e 9a a2 09 bf eb a0 59 3e ec 1e 47 3e
       0.17287959 -0.53763735 0.21252792 0.1944539
0000f0 ef 93 fe 3d fa 0a bb 3e 5b b5 ec 3e bb d9 c6 bb
       0.1243056 0.36531812 0.46232113 -0.006068436
000100 5a 8b 88 3e 6c 9a d0 3e e0 17 c0 3e 2a 8b 57 3e
       0.26668817 0.40742815 0.37518215 0.2104918
000110 f5 9c b3 3d bb ac 5e 3e e1 77 56 3e f3 2a d4 3d
       0.087701716 0.21745579 0.20944168 0.103597544
000120 2a fc e3 3d 60 44 8b bf a4 24 43 3e d2 79 9e 3e
       0.11132081 -1.0880241 0.19056946 0.30952317
000130 72 7f 93 3e f6 0c eb 3e 2f 91 c9 3e a6 b7 80 3e
       0.2880817 0.45908326 0.3936858 0.25140113
000140 73 cf 28 3e 63 62 ac 3e db 0b 57 bf d6 f1 2e 3e
       0.16485386 0.33668813 -0.84002465 0.1708444
000150 f5 fd 99 3e 1a eb c3 3e 99 fb 58 3e 52 dd bf 3e
       0.30076566 0.38265306 0.21189727 0.37473541
000160 7a f1 24 3e d9 84 29 bf e2 49 ee 3e 8b 1c c3 bf
       0.16107741 -0.66218334 0.46540743 -1.5243086
000170 d5 22 74 3e 71 ef 09 3f 92 51 9f 3e 9d 27 6f 3e
       0.23841412 0.53880984 0.3111692 0.23354955
000180 27 a5 7d be 98 49 ee 3c 93 0c c9 3d 74 3f 06 3e
       -0.24770032 0.029087827 0.098168515 0.13110143
000190 50 13 61 3e 32 a8 96 3e cc 4e 9e 3e 27 69 8e 3e
       0.21980023 0.29425198 0.30919492 0.278146
0001a0 87 64 9c 3d f5 4d b0 3d ba 96 5e 3e 32 0f ed 3e
       0.076363616 0.08608619 0.21737185 0.46300656
0001b0 c7 a8 7d bf ab 75 8b 3c ba f0 96 3e 26 e4 c7 bf
       -0.9908566 0.017023882 0.29480535 -1.56165
0001c0 54 88 b5 3e 04 59 73 3e b0 b5 bb bf c2 aa 8e 3e
       0.35455573 0.23764426 -1.4664822 0.27864653
0001d0 45 f9 8d 3e d3 ad 7b 3e b8 89 ef 3d 4f d4 54 bf
       0.2772924 0.24578027 0.1169619 -0.8313646
0001e0 c1 da 72 3e 96 27 f8 be e1 e1 49 3e f4 65 60 3d
       0.2371626 -0.48467702 0.19715072 0.05478473
0001f0 7c 75 52 3e f0 e3 bb 3e 5b 92 0e 3f 09 e4 1d 3d
       0.20552629 0.3669734 0.5569207 0.03854755
000200 d4 e3 de bd 54 7f bc bd 28 6c c9 bd 94 63 4e 3d
       -0.108832985 -0.092039734 -0.09835082 0.050387934
000210 78 b4 bc 3d 88 6a 17 3d f4 88 30 3d 6c c7 a6 3d
       0.09214109 0.03696683 0.04309936 0.081435055
000220 4c 08 af 3d aa dd 98 3d b8 27 8f 3d c0 8a 0a 3d
       0.085465044 0.07464154 0.069899976 0.03382373
000230 44 23 84 3d 86 a8 af bd 7e b2 a5 bd d8 b2 09 3d
       0.06452039 -0.08577065 -0.08090685 0.033617824
000240 68 5b 9f 3c 24 0e e1 bd de 7e ba bd 98 cb cb bd
       0.019452766 -0.10989025 -0.09106229 -0.09950942
000250 44 52 cb 3d 56 5f a7 3d e6 be 86 bd 88 80 9a 3c
       0.099278 0.08172481 -0.0657938 0.018860117
000260 08 87 eb bc 2a 8c de 3d 3c de e7 bd 26 c3 ba bd
       -0.028750911 0.10866578 -0.11321685 -0.09119253
000270 fe 22 d5 bd 8a fc 94 3d 44 f1 7f bd e4 79 98 3d
       -0.10407065 0.072747305 -0.06248595 0.07445124
000280 98 12 2d 3d 04 43 7a bd 84 ed 09 bd 90 32 4f bd
       0.04225406 -0.061099067 -0.03367378 -0.05058533
000290 98 e1 61 3d 18 54 4d bd c8 c1 2d 3d 00 4f 12 3c
       0.055146784 -0.050129026 0.042421132 0.008929968
0002a0 78 71 cc bd b6 ec a0 bd f2 80 b1 bd 86 24 86 3d
       -0.0998258 -0.07857649 -0.086671725 0.06549935
0002b0 b0 e1 dd 3c c0 fa 4d bb d6 6e 98 bd 8e a5 fd bd
       0.027085155 -0.0031429976 -0.07443015 -0.12385093
0002c0 98 30 35 bd 7c ed c3 bd 48 a2 fe bd a2 29 f4 bd
       -0.044235796 -0.09566781 -0.124332964 -0.11922003
0002d0 c0 37 a7 bd 36 de f8 bd 84 9a 1f 3d 8c 93 3f 3d
       -0.0816493 -0.121517584 0.038965717 0.04677157
0002e0 e8 5e 4e 3d c0 d8 fe bd ce 4c 9e 3d 88 a4 c7 3c
       0.05038348 -0.124436855 0.07729493 0.024370447
0002f0 12 e7 82 3d e8 ac fb bc b0 de 75 3d 54 cb f2 bd
       0.063917294 -0.030722097 0.060026824 -0.11855188
000300 8f 24 c5 3c c8 ff ac 3d 84 04 0a 3d f8 9c 0b be
       0.024065284 0.08447224 0.033695713 -0.13634098
000310 6e be 5d bd 4b 94 04 bd ee e0 3c 3d ec 87 87 bd
       -0.054136686 -0.032367986 0.046112947 -0.06617722
000320 50 47 93 3c f0 bc 33 bd a2 16 0b bd 6d 90 64 bc
       0.01797834 -0.043881357 -0.03395713 -0.013950449
000330 c5 5f b8 bd 86 c2 c2 bd 61 8a ac 3d 01 ed ae 3d
       -0.090026416 -0.09509759 0.08424831 0.08541299
000340 eb 89 b7 bc ec f5 be 3d cb 89 b0 3d 3a 93 c8 bd
       -0.022404632 0.093242496 0.08620032 -0.09793706
000350 f6 e8 8c bd 01 b0 d5 bd 6c f2 b0 3c e4 fa 06 bc
       -0.06880371 -0.10433961 0.02159997 -0.008238528
000360 df c9 16 bd 40 87 a6 3d cd e1 88 bd 5a 6a a8 bd
       -0.036813613 0.08131266 -0.06683693 -0.0822341
000370 cd 2e bd bd cc 07 9e bd 3f 9f d0 3d ff 1a a8 bd
       -0.09237442 -0.07716331 0.10186624 -0.08208274
000380 e4 e0 0c bd d9 1f 1b 3d 2d e2 eb bd a4 61 9b bd
       -0.03439416 0.03787217 -0.11517749 -0.07586983
000390 b3 3b 96 3d aa 04 82 bd 4c b7 ab bd 40 df 11 bd
       0.073356055 -0.06348546 -0.083845705 -0.0356133
0003a0 7b c8 16 bd ef 40 c1 3b 1f 3b f7 3c d8 69 de bd
       -0.036812287 0.0058976333 0.030179558 -0.10860032
0003b0 c3 33 dc 3d 90 64 f3 bd 60 95 de 3c a4 91 34 bd
       0.1075206 -0.11884415 0.027170837 -0.044084206
0003c0 25 9b 91 bd 05 8f c9 3d be 3c 00 be d5 76 2d bc
       -0.071096696 0.09841732 -0.12523171 -0.010587414
0003d0 cb 22 7c 3d a9 ba bd 3d 2d 52 ff bd e3 49 4c 3c
       0.06155662 0.09264118 -0.12466846 0.012468788
0003e0 ba 50 d6 3d ce c1 09 be 3a 94 37 3c 31 d8 c5 bd
       0.10464616 -0.13452837 0.011204774 -0.09660376
0003f0 f5 62 a8 3b 56 98 00 be f0 74 42 3d 4d 2f 3e bd
       0.0051387497 -0.12558112 0.0474748 -0.04643183

fc3_1.bias f4 [32]
000000 1b 47 c5 3d d6 5d 3a 3e c8 18 b2 bc c8 3d b6 bd
       0.09632703 0.18199858 -0.021740332 -0.088985026
000010 aa 2f 8a bd 16 19 a1 3e 5d 26 ac 3e e1 4f 16 3f
       -0.067473724 0.31464452 0.3362302 0.58715636
000020 72 7b f3 3d 94 bf 87 3f 70 6e f9 3e 11 90 8d 3d
       0.1188878 1.060534 0.4871707 0.06912244
000030 d5 52 27 3d 16 2a 61 3d 52 5b d0 3e 5a 2c 17 3c
       0.04085048 0.054971777 0.40694672 0.009226883
000040 e3 75 0b 3e 43 fc 8e 3d 32 08 10 3f cb 7a 08 3f
       0.13619189 0.06981709 0.56262505 0.5331237
000050 ac 81 d4 3c 75 04 64 3e a0 80 04 bd 84 0f be 3e
       0.025940739 0.22267325 -0.03234923 0.37121212
000060 ed f9 04 3d 4b 71 94 3c 03 26 e0 3c 5a c8 63 3e
       0.03246491 0.018120429 0.027361875 0.22244397
000070 7e 08 5c 3e c0 77 a5 bd d8 42 92 3c 2d 2a db 3d
       0.21487615 -0.08079481 0.01785414 0.10701404

fc4_1.weight f4 [1, 32]
000000 b2 4b 33 bf e3 80 2d bf 0a 8d fc bd 9c 63 31 3b
       -0.70037377 -0.6777479 -0.123315886 0.0027067428
000010 57 17 94 bd 47 6f 25 3f 97 f6 fe 3e dc 6f 61 3f
       -0.07231014 0.6462292 0.49797508 0.8806131
000020 19 61 41 bf 4c 5e 17 40 ed 80 0a 40 94 70 74 bf
       -0.75538784 2.3651304 2.164119 -0.9548428
000030 25 72 0a 3e 1c d8 41 bf 7d bc 08 40 ee ef 34 bf
       0.13520105 -0.7572038 2.1365044 -0.70678604
000040 f4 76 20 bf 23 a3 35 bf 7b 54 b2 3f 73 2f 38 3f
       -0.6268151 -0.7095205 1.3932031 0.719474
000050 67 58 17 bf 92 17 4e bf 09 34 03 3e 5f a8 34 3f
       -0.59119266 -0.80504715 0.12812819 0.70569414
000060 91 11 37 bf 74 9e 5b bf 31 5d 57 bf ae 1d 60 bf
       -0.7151118 -0.85788655 -0.84126574 -0.8754529
000070 bb 0b 85 bf db ce 33 bf 65 d9 3f bf 35 9e 1b bf
       -1.0394205 -0.7023751 -0.7494109 -0.6078828

fc3_2.weight f4 [32, 64]
000000 92 e5 75 3e ca d1 31 3d 4e 5f b0 be 5c 13 0c be
       0.24013355 0.04341296 -0.34447712 -0.1367926
000010 1b 15 11 bd 34 ca a1 be 39 94 fe 3d b0 93 24 bd
       -0.03542052 -0.3159958 0.12430615 -0.04017991
000020 d0 21 8c bc 13 47 3e bf 2b 24 a7 be 06 05 75 be
       -0.017105967 -0.743272 -0.3264478 -0.23927698
000030 a6 8b 23 3d 76 35 90 be f3 e8 55 3c a4 5f 69 3d
       0.0399281 -0.28165787 0.013056028 0.056975976
000040 e2 af eb 3d 76 da 81 bd 99 94 7b bc f8 e6 9d bd
       0.11508156 -0.06340496 -0.015355253 -0.077100694
000050 66 9c 80 be a3 ba b5 3d db ec 1f 3e 7a de 62 be
       -0.25119323 0.08873489 0.15617697 -0.2215518
000060 aa 76 8a 3d ed 87 bc be e0 c8 1b bd 48 b1 0c be
       0.067609146 -0.36822453 -0.038033366 -0.13739502
000070 99 1d bd 3d 28 4d a8 be f6 23 2d 3d 7b fe 61 3e
       0.09234161 -0.32871366 0.042270623 0.22069733
000080 15 f6 34 be 2e ff 62 3d 31 d1 93 3d c4 6a 34 3d
       -0.17671998 0.05541914 0.072176345 0.044047132
000090 17 7b 8f bd d9 77 35 3e 54 19 7d bd 35 4c 47 3e
       -0.070058994 0.177215 -0.061791733 0.19462664
0000a0 e9 5f 86 3d 8e 0c f7 bd 1d 6d 60 ba 1f 25 c0 be
       0.06561262 -0.120629415 -0.0008561181 -0.3752832
0000b0 dd 53 37 bf e4 3a 53 3d 9a 33 a5 3e af 84 4b be
       -0.7161234 0.051569834 0.3226593 -0.19874834
0000c0 80 7b 39 bf 84 7b 28 3d e0 5e 65 bd e1 af 8f 3d
       -0.7245407 0.04113342 -0.055998683 0.07015968
0000d0 10 3d 02 3e b6 a6 51 3e af 80 0a 3d 30 b3 1b 3c
       0.12718606 0.20473751 0.03381413 0.009503171
0000e0 28 d7 41 be 62 04 af be 24 85 02 be b1 70 7a 3e
       -0.18929732 -0.3418303 -0.12746102 0.24457051
0000f0 d3 12 a4 bf ac 6d b0 bd 61 49 0d bf db 51 e7 3d
       -1.2818245 -0.08614668 -0.5519009 0.112949096
000100 32 e2 67 bd a2 e3 5a be 69 5d 2c bd a9 0e 08 3e
       -0.0566122 -0.21375898 -0.04208127 0.13286842
000110 6a ba 44 3c eb 32 ac bb 04 28 29 3e ad d9 f4 3d
       0.012007335 -0.0052550933 0.16519171 0.11955581
000120 10 a2 65 3c d9 2c 5d be ab d9 3e 3e 53 46 66 be
       0.0140156895 -0.2159914 0.18637721 -0.22487764
000130 fe 71 6a bd e0 c3 83 bc a4 18 c3 3c ee ce 3b 3e
       -0.057237618 -0.016084611 0.02381546 0.18340656
000140 08 eb 32 bd 04 11 b0 3d 45 53 41 be d4 c0 45 3e
       -0.043681175 0.085969955 -0.18879421 0.1931184
000150 00 9b 08 3e ba 82 e7 bd 9d 1e 97 bd 2d 2f 02 bb
       0.13340378 -0.11304231 -0.07378886 -0.0019864545
000160 14 50 f5 3d e5 f3 b3 3e 0f a8 a6 bb 88 37 3d 3e
       0.11978164 0.35147014 -0.005085952 0.18478215
000170 07 52 1c 3d e2 57 73 3b 71 5d 94 bd 51 14 cc 39
       0.038164165 0.003713124 -0.07244385 0.0003892505
000180 ae 7f fc bd d8 08 82 bd 5d 85 c2 bc bb fb 69 3d
       -0.123290405 -0.06349343 -0.023745233 0.057124835
000190 2c 93 33 bd ff 0f 15 bd ab d6 5a 3c f0 36 c0 3c
       -0.043841526 -0.03639221 0.013356845 0.023463696
0001a0 df 76 35 3e 22 72 04 3e 5f d7 e4 3d 11 68 2d be
       0.17721127 0.12934163 0.11173891 -0.1693423
0001b0 4a 7f 69 3e 02 05 5b 3c 80 39 bc bd 2d 89 c3 be
       0.22802463 0.013367893 -0.09190655 -0.38190594
0001c0 d2 41 64 3e 92 cb 61 3d bd 88 48 bf b5 ca 3f 3e
       0.22290733 0.05512578 -0.78333646 0.1872967
0001d0 50 80 cb bd 32 63 96 bb 26 09 b0 3d f1 81 e5 3b
       -0.09936583 -0.0045894617 0.08595495 0.0070040156
0001e0 41 f8 cc ba 79 d9 76 3e 1c 9c e6 3c 3c 79 6e bc
       -0.001563795 0.24106397 0.02815061 -0.014555272
0001f0 56 c0 da 3d 1e d0 4f 3d d0 38 7e 3e bb 78 a9 bc
       0.106812164 0.050735585 0.2482636 -0.020687452
000200 10 71 8f be 6d f0 8f 3e 9f f4 2e be 1f 94 48 bd
       -0.28015947 0.28113118 -0.17085503 -0.048969384
000210 68 0e 89 3b 20 76 b1 bd 62 03 be 3b 97 e0 5a bc
       0.0041826256 -0.08665109 0.005798743 -0.01335921
000220 d8 35 2d 3d 6d 5b b0 be ac 78 03 3e 5a b7 87 bc
       0.042287678 -0.34444752 0.12839001 -0.016566921
000230 8b 8d 19 3e 0e ee b2 be 3e f9 2f 3d 8a ee e4 bd
       0.149954 -0.34947246 0.042962305 -0.1117831
000240 4d a4 d1 3d 66 d5 25 be 6b 8b 99 3e 8f 3a 80 bd
       0.10236416 -0.16194686 0.2998918 -0.06261169
000250 1d fe 05 3e b1 d1 7e 3d 59 ec 9e 3d 8a 52 52 be
       0.13085218 0.062211696 0.077599235 -0.20539299
000260 da e2 31 be 57 33 47 bf 18 4c 3d bd 1a 5b 16 3e
       -0.17371693 -0.77812713 -0.046215147 0.1468319
000270 6a de e7 3d 97 8b c3 3d 94 92 22 3e a9 e6 2f bd
       0.11321719 0.09548109 0.15876228 -0.042944584
000280 01 4e 4e bd 43 5b cc 3d 80 4f 16 3c d0 8d 77 3c
       -0.05036736 0.09978344 0.009174228 0.015109494
000290 e0 f0 22 be 63 60 01 3e 2e 6a 9d bd e9 fe 45 be
       -0.15912199 0.12634425 -0.07686268 -0.19335522
0002a0 a6 56 89 bd 90 a7 66 be db 38 88 3d e3 e6 d0 3e
       -0.0670598 -0.22524858 0.06651469 0.40801153
0002b0 4c 6e f6 be 3a 92 ae 3d 59 d0 0b 3e b0 28 8d 3e
       -0.48131025 0.08523984 0.13653697 0.27570105
0002c0 94 55 82 3d 30 74 15 bd 6d 1e 9c 3e 84 e3 94 bd
       0.06363979 -0.03648776 0.30491963 -0.07269958
0002d0 9f 66 b1 3d a2 fa e3 bd d5 10 c8 3c 12 29 92 bd
       0.086621515 -0.11131789 0.024422089 -0.0713674
0002e0 19 1f 07 be 20 0c 9b be 4f 29 79 be 2b dd 2b 3e
       -0.13195457 -0.30282688 -0.24332164 0.16783588
0002f0 13 02 4a be 68 f9 c8 bd 49 ac a2 be 29 e8 10 3e
       -0.19727354 -0.098131955 -0.31772068 0.14151062
000300 f6 e7 e5 3d e8 af 39 be bb 9d 42 3d 24 dc 10 be
       0.11225884 -0.18133509 0.047513705 -0.14146477
000310 88 bf b4 3c c5 1e 49 3e c9 6b 5f bd e7 36 2d 3c
       0.022063985 0.19640644 -0.05454615 0.010572172
000320 6c 43 c5 bd 07 38 f6 3e f6 16 91 be e1 29 07 3f
       -0.09632 0.4808962 -0.2833783 0.5279828
000330 fa e3 c1 be 61 9f 67 be d6 fa ef bd a5 ea da bd
       -0.37869245 -0.22619392 -0.11717765 -0.10689286
000340 01 24 87 bd ca d7 60 be 1c 86 90 3d 63 b2 41 be
       -0.06598664 -0.21957317 0.07056829 -0.18915705
000350 7e 2f 9e be 32 82 61 be 3a 1d 7f 3d 03 1b d9 be
       -0.3089561 -0.22022322 0.062283732 -0.4240342
000360 65 39 c4 bc dc 70 ce 3d 72 60 03 be 8b 4a 4e 3f
       -0.02395315 0.1008012 -0.1282976 0.80582494
000370 fb e1 c3 be 89 96 6d be 52 be c4 3d 41 44 5b be
       -0.38258347 -0.23201956 0.09606613 -0.21412756
000380 54 36 87 bd 5e 45 03 3d e8 0f 7f 3e 30 19 52 bd
       -0.06602159 0.032048576 0.24908412 -0.051293552
000390 82 75 64 3d 20 1a ab be 23 c3 1d be 0f 9e f1 3d
       0.055776127 -0.3341837 -0.1540647 0.117977254
0003a0 8d 38 7c bc 1c 8a bc bd 1f fb af bd c2 e6 9e 3e
       -0.015394342 -0.0920603 -0.085928194 0.3103543
0003b0 01 0d 67 3e 44 6c 00 bd 58 61 e4 bd 66 3b 2b 3f
       0.22563554 -0.03135325 -0.11151379 0.6688751
0003c0 6e 45 0c 3e 74 48 4d be 22 53 8f 3f e1 e1 2a bd
       0.1369836 -0.2004717 1.1197245 -0.04171932
0003d0 12 8f da 3d 23 98 ef bd b8 c9 1d 3c 90 62 5a be
       0.1067182 -0.1169894 0.009630613 -0.21326661
0003e0 e5 95 f7 3d a9 05 e3 3d 7c 69 36 3d fe 3f 75 3d
       0.12089137 0.11085064 0.04453419 0.05987548
0003f0 c3 1a a9 3e 5b a4 74 be 4e 48 7d bd e3 52 b9 3c
       0.3302823 -0.23890822 -0.061836533 0.022622531

fc3_2.bias f4 [32]
000000 c7 1f 4d 3e 5a ef ad 3c c2 e7 84 bd a1 33 4e 3e
       0.20031653 0.021232296 -0.06489517 0.20136882
000010 9b 79 38 bd fb 31 12 3e 35 63 ee 3d d9 11 eb bd
       -0.045037847 0.14276879 0.11640016 -0.114780135
000020 fa 14 06 bd f8 9c 9f 3e ac d8 89 3c e5 6a 02 be
       -0.03273485 0.31174445 0.01682695 -0.1273609
000030 d7 fb ee be 18 ad a1 bd 89 eb 39 3d db 84 fa bd
       -0.46676514 -0.07894343 0.04539064 -0.122323714
000040 91 51 2c 3e 63 8a 4d bd 81 05 50 3e 06 57 96 3e
       0.1682799 -0.050180804 0.203146 0.2936327
000050 87 84 2e be b6 9c 93 3e cd db f1 3d 5c 5f 24 bd
       -0.17042743 0.28830498 0.11809502 -0.040130004
000060 1d 74 d4 3d 45 08 f8 bc eb a3 9a bc 2c 84 06 bf
       0.10373709 -0.03027738 -0.01887699 -0.5254543
000070 e0 34 14 be 4d b2 70 bd 1e 6f 95 ba 88 2c 7b 3e
       -0.14473295 -0.05876379 -0.0011400913 0.24528706

fc4_2.weight f4 [4, 32]
000000 78 d3 11 3e 64 11 ea 3d a6 00 ab 3e 23 12 22 be
       0.14240825 0.11429098 0.33398932 -0.15827231
000010 cf ca b8 3c 54 14 a9 3e 7d 80 07 be ed fc ae 3d
       0.022557644 0.33023322 -0.13232608 0.085443355
000020 41 64 64 3e 40 bd 07 3d 24 86 61 3e eb 70 1a 3e
       0.22303869 0.033139467 0.22023827 0.15082137
000030 7d a9 21 bf a4 8d 34 be 43 2b 92 be e0 2f 83 be
       -0.63149244 -0.17632157 -0.2854863 -0.25622463
000040 1b 48 e6 bd 0c 93 08 3d 1e d5 91 3e 52 d5 a1 3e
       -0.11244222 0.03334336 0.28482908 0.31608063
000050 c4 89 1e 3e 65 ca 8c 3e 5b 4c 38 be 92 6e b3 bd
       0.15482241 0.27498165 -0.17997877 -0.08761324
000060 f6 fc 87 be c9 3a 7d 3d c9 b7 87 bd 27 7d 20 be
       -0.2656018 0.06182364 -0.06626851 -0.15672742
000070 31 25 93 be 89 ed 81 be 54 f5 13 be fc 03 eb 3e
       -0.28739312 -0.25376537 -0.14449054 0.45901477
000080 8a 05 3f bf d0 89 ad 3e 7b 8b 70 bf 21 00 d3 3d
       -0.74617827 0.33894205 -0.9396283 0.10302759
000090 e2 92 fa 3e 01 0e 5e 3e fb c3 83 3d 90 3a 87 3d
       0.48940188 0.2168503 0.06433865 0.06602967
0000a0 fd 4b 70 3b 49 02 60 3e 89 3d 5a be 27 f1 e9 bd
       0.0036666386 0.21875872 -0.21312536 -0.11422949
0000b0 1c f4 2f 3e 3d 4c 08 be 97 ea ed 3d 76 e4 a1 3b
       0.17182964 -0.13310333 0.1161701 0.0049405647
0000c0 b3 cb a1 3e ea f6 b0 bd f2 d8 24 3d 03 e9 53 3f
       0.31600723 -0.08640845 0.040245958 0.8277742
0000d0 c5 fb 83 be f4 0c da 3e d7 4e 4d bd 69 7b c9 be
       -0.25778022 0.42588007 -0.050124016 -0.39351967
0000e0 a3 d7 d4 be ab d3 a1 3c f1 ef df 3e 5c 41 33 bf
       -0.41570768 0.019754251 0.43737748 -0.70021605
0000f0 cf 54 83 be dd 52 71 bd b7 90 1a bf d8 d6 3c bf
       -0.2565064 -0.058916915 -0.6037707 -0.73765326
000100 63 32 d4 be 84 40 37 be d3 f7 85 be 85 ca f8 3e
       -0.41444692 -0.17895705 -0.26165637 0.4859201
000110 b6 fc f8 be b4 6f 48 be 73 6c 60 be 86 b7 2a 3d
       -0.48630303 -0.19573861 -0.2191637 0.041678928
000120 06 21 c8 bd dc f3 d6 be cc 20 f7 be c5 af 57 39
       -0.09771924 -0.41982925 -0.4826721 0.00020569477
000130 fb 54 fa 3e c4 27 b7 bd 58 0f f6 3e 0b 82 8a 3d
       0.4889296 -0.089431316 0.4805858 0.06763085
000140 9f 54 22 be 68 27 8b 3e 6d 91 50 be e9 2f 39 bf
       -0.15852593 0.27178502 -0.20367976 -0.7233873
000150 9d fc 03 3e 6d 3d 2c bf 36 c1 d1 3e 74 89 d2 3e
       0.12889333 -0.6728123 0.4096772 0.41120493
000160 36 70 81 3e b6 b2 1d 3e a0 f6 1f 3e 04 74 01 3f
       0.25280923 0.15400204 0.15621424 0.5056765
000170 9c 38 b7 3e 77 02 a1 3e 81 2a aa 3e 1c 2d 0d bf
       0.35785377 0.31447193 0.33235553 -0.55146956
000180 46 68 86 3f 81 84 df bc 72 6d 4a 3e f5 b2 01 bf
       1.0500572 -0.027284862 0.19768313 -0.5066369
000190 b9 5a 05 be bb c6 4c 3e 2c 0e 08 3e c1 c8 48 bd
       -0.13022889 0.19997685 0.13286656 -0.04901958
0001a0 6b e6 f2 3d 48 ff 07 3d 28 0b 12 3f 7b 10 40 bd
       0.11860355 0.03320244 0.57048273 -0.046890717
0001b0 a3 8c 11 bf f4 8f 2e bd f2 c1 e2 bd db 80 18 bf
       -0.5685522 -0.042617753 -0.110721484 -0.5957162
0001c0 42 5d a4 be bf 0c 88 be 32 31 88 bd 99 34 7a 3d
       -0.321024 -0.26572224 -0.06650008 0.061085317
0001d0 98 3c 6c b7 3b 5f f5 3d a8 c6 0e bf 04 2d c2 bd
       -1.4080804e-05 0.119810544 -0.55771875 -0.09481242
0001e0 2f 16 f9 3e 07 bd 6b bd 24 f7 35 bf 88 b4 25 be
       0.48649737 -0.057553317 -0.7108023 -0.16182148
0001f0 76 df 0e 3e 94 86 d6 3c 31 eb 40 3e 20 32 be 3f
       0.13952431 0.026187219 0.18839718 1.4859047

fc4_2.bias f4 [4]
000000 d0 ca 7d 3d 90 c0 38 3e d7 ed b0 bc 6f 94 5b 3d
       0.061960995 0.18042207 -0.021597786 0.053608354
