Lunar_Lander/Rainbow_Lunar/Checkpoints/checkpoint_lunar_agentDueling_noisy_multisteps.pth (torch_old, 94278 bytes, 28 tensors)

fc1.weight f4 [128, 8]
0	0x3d29c4aa	0.04144732
1	0x3f05762d	0.52133447
2	0xbf00eff1	-0.5036612
3	0xbf0a8e9c	-0.54123855
4	0x3eba2822	0.36358744
5	0x3e7327d3	0.2374566
6	0xbd386731	-0.045020286
7	0x3eafc0aa	0.3432668
8	0xbd968711	-0.073499806
9	0x3de8282b	0.113357864
10	0x3ea362a2	0.31911188
11	0x3e709cb8	0.23497283
12	0x3e575d23	0.21031623
13	0x3d9c69f4	0.076373965
14	0xbe918910	-0.28424883
15	0x3e8e07f7	0.27740452
16	0x3f287fca	0.6581999
17	0x3e84aef5	0.25914732
18	0xbe6bbb42	-0.23020652
19	0xbcf3ac2c	-0.029745184
20	0x3ecf1b24	0.40450394
21	0xbc832369	-0.016008096
22	0x3decc5bf	0.115611546
23	0x3ed82d5e	0.42222112
24	0x3d696ff1	0.05699152
25	0x3eaef422	0.34170634
26	0x3f1c57a9	0.6107126
27	0xbec76dc4	-0.38950932
28	0xbde96ed8	-0.11398095
29	0xbde504a1	-0.111825235
30	0xbe4c7b64	-0.19968945
31	0x3ea2d372	0.31801945
32	0x3e8e95e0	0.2784872
33	0xbeecb965	-0.46235195
34	0x3e592310	0.21204782
35	0xbeac1cfc	-0.33615863
36	0xbe9f2764	-0.3108474
37	0x3eca30d3	0.39490375
38	0x3e9f5c3c	0.31125057
39	0x3e533e50	0.20629239
40	0x3dccac71	0.09993828
41	0x3d1d7f81	0.038451675
42	0x3cbba8f7	0.022907717
43	0xbef9a1de	-0.48756307
44	0xbe9dcfba	-0.30822545
45	0xbeb13617	-0.3461158
46	0x3e41a420	0.18910265
47	0x3e78de4f	0.24303554
48	0xbd808ae1	-0.06276489
49	0xbe07f431	-0.13276745
50	0x3e071514	0.13191634
51	0x3e773dd4	0.2414468
52	0x3bc6bb73	0.006064826
53	0x3eda254d	0.42606583
54	0x3ea20094	0.31641066
55	0xbe5a4468	-0.21315157
56	0x3e8559ff	0.26045224
57	0xbe8e1bdd	-0.27755633
58	0xbdb87a8f	-0.09007751
59	0xbe98de11	-0.29856923
60	0xbee99c24	-0.45626938
61	0x3eb746bf	0.35796162
62	0xbd0fba51	-0.035089795
63	0x3e3e796c	0.18601006
64	0xbd229160	-0.03968942
65	0x3e215639	0.15755548
66	0xbda5bc94	-0.08092609
67	0x3d27973e	0.04091572
68	0x3c084770	0.008317813
69	0x3f2dc52b	0.6787898
70	0xbe8ed256	-0.2789485
71	0x3d378ed8	0.04481396
72	0x3dd35b13	0.103201054
73	0x3f170ab4	0.59000707
74	0x3f125ef5	0.5717614
75	0x3ef44f40	0.47716713
76	0xbd1fc56e	-0.039006643
77	0xbece4b57	-0.40291855
78	0xbc0b5436	-0.008503964
79	0x3d40ded0	0.04708749
80	0xbf04b81b	-0.5184342
81	0x3f8f9916	1.1218593
82	0x3eda11b8	0.42591643
83	0xbef39d77	-0.47581074
84	0x3f06467b	0.52451295
85	0x3d0a620d	0.033784915
86	0xbdec9a1f	-0.11552834
87	0xbe9fb487	-0.3119242
88	0xbe215c05	-0.15757759
89	0xbb9b2bcf	-0.004735447
90	0x3e091479	0.13386716
91	0xbee97a04	-0.45600903
92	0xbf26fd4e	-0.6523026
93	0x3eaca42e	0.3371901
94	0xbdb17744	-0.08665326
95	0xbeb12fbb	-0.34606728
96	0xbdcd35f4	-0.10020056
97	0x3ed1ab8e	0.40951198
98	0xbce70584	-0.028200872
99	0xbf36a6dc	-0.7134836
100	0x3eb4140e	0.3517155
101	0x3f04d465	0.5188659
102	0x3e599715	0.2124904
103	0x3cc5f2e2	0.024163667
104	0xbe3b971c	-0.18319362
105	0x3efbec3a	0.49203664
106	0xbe9daa6d	-0.30794087
107	0xbf21df5a	-0.6323143
108	0x3ed1ef4c	0.41002882
109	0x3eea6327	0.45778772
110	0xbe5dc401	-0.21656801
111	0x3e469f3c	0.1939668
112	0x3dafd0bb	0.08584734
113	0x3f5dc2b0	0.86625195
114	0x3f2bae23	0.67062587
115	0xbec14e38	-0.3775499
116	0x3e8abbdb	0.27096447
117	0x3e02fa98	0.12790906
118	0x3cc6e0a9	0.024277048
119	0x3d350f98	0.044204324
120	0x3e1a63a0	0.15077066
121	0xbd366c0a	-0.044536628
122	0x3dd59ace	0.10429917
123	0xbe0d48bd	-0.13797279
124	0xbd1559c5	-0.036462564
125	0xbf02e52d	-0.51130944
126	0xbe393ea2	-0.18090299
127	0xbdaf04d2	-0.08545841
128	0x3e4e731a	0.20161095
129	0xbf2333e0	-0.6375103
130	0xbe009b8c	-0.12559336
131	0xbdea7e86	-0.11449914
132	0xbe297097	-0.16546856
133	0xbebfb20a	-0.3744052
134	0x3ea5d1ff	0.32386777
135	0xbd9539c5	-0.07286409
136	0xbda6fd64	-0.08153799
137	0xbdbcb9ab	-0.09215101
138	0x3e211bc5	0.1573325
139	0xbc93f6e2	-0.018062059
140	0xbc527531	-0.012845323
141	0x3ec71b63	0.38888082
142	0x3f2889ab	0.65835065
143	0xb9a0d867	-0.0003067881
144	0x3d4bf42c	0.049793407
145	0xbec1db3b	-0.37862572
146	0x3e39af9a	0.18133393
147	0xbe96015b	-0.2929791
148	0xbe85133e	-0.25991243
149	0xbed54df7	-0.41661045
150	0xbf179530	-0.5921202
151	0xbeb66841	-0.35626414
152	0x3e033f33	0.12817077
153	0x3f0ce1a5	0.55031806
154	0x3dbfe7f1	0.09370411
155	0xbf08073f	-0.53136057
156	0x3e201bbc	0.1563558
157	0xbf13e360	-0.5776882
158	0xbd534de7	-0.051587965
159	0x3d136ea5	0.03599419
160	0x3e42c661	0.19020988
161	0x3eb80eea	0.3594888
162	0xbec2628a	-0.37965804
163	0xbe94bf7b	-0.29052338
164	0x3f0e9cfa	0.5570828
165	0x3eb2245c	0.34793365
166	0xbf10f484	-0.566231
167	0xbd945d47	-0.07244354
168	0xbe7e5f18	-0.24840963
169	0x3e9f304f	0.31091544
170	0x3ed9dbac	0.4255041
171	0xbf307554	-0.6892903
172	0x3e63d649	0.22249712
173	0x3e8fc0b5	0.2807671
174	0x3cb4346d	0.021997655
175	0x3e6aadfe	0.22917935
176	0x3deafd09	0.11474044
177	0x3dcf53fe	0.10123442
178	0x3ec29975	0.38007703
179	0xbecfdafe	-0.40596765
180	0x3e2c0b97	0.16801296
181	0xbde3b12b	-0.111177765
182	0x3e9a4003	0.30126962
183	0x3e31d94d	0.1736805
184	0x3e9ff958	0.31244922
185	0x3e664090	0.22485566
186	0xbe55af4d	-0.20867653
187	0xbd2e9905	-0.0426264
188	0xbe48e12c	-0.19617146
189	0xbd4be096	-0.04977473
190	0x3ea7dd46	0.32786006
191	0x3e85f2b3	0.26161727
192	0x3d417cce	0.047238164
193	0xbd6659e0	-0.056238055
194	0xbf7a18d5	-0.9769414
195	0xbf60ea04	-0.8785708
196	0x3daf04d5	0.085458435
197	0x3da68911	0.08131612
198	0x3bab2d0f	0.0052238773
199	0x3e0a861b	0.1352772
200	0x3dedfd13	0.11620536
201	0x3f3caec2	0.7370416
202	0xbe4dfb04	-0.20115286
203	0xbe989a2d	-0.29805127
204	0x3edb4c85	0.42831817
205	0x3e06dc24	0.13169914
206	0xbe27ce5e	-0.16387317
207	0x3eaa7670	0.33293486
208	0xbd214cd8	-0.039379925
209	0x3eea35a4	0.4574405
210	0x3ea103ff	0.3144836
211	0x3cadb40c	0.021204017
212	0xbf402684	-0.7505877
213	0xbd86822f	-0.06567799
214	0x3d0a2231	0.033724014
215	0x3d14867e	0.036261074
216	0xbd6db047	-0.05802944
217	0xbf0c5eee	-0.5483235
218	0x3ea1bfc2	0.31591612
219	0xbf188b76	-0.595878
220	0xbec3f004	-0.38269055
221	0x3eed26f9	0.46318796
222	0x3ec1549e	0.3775987
223	0x3ae33270	0.0017333757
224	0xbe8f54dc	-0.2799443
225	0x3ee5c8fa	0.44879895
226	0xbe92f571	-0.28702882
227	0xbe9b0a52	-0.3028131
228	0x3e580c98	0.21098554
229	0xbc99a4db	-0.018755367
230	0xbcb52afd	-0.022115225
231	0x3eac1fad	0.33617917
232	0x3cd25f74	0.025680281
233	0x3f5a2b34	0.8522217
234	0x3f002898	0.5006194
235	0xbed06133	-0.40699157
236	0x3ec0bc41	0.37643626
237	0xbddfc424	-0.10926083
238	0xbe627dd4	-0.22118312
239	0xbd88ff54	-0.06689325
240	0xbd735251	-0.059404675
241	0x3d829dbb	0.06377741
242	0x3dffd101	0.12491036
243	0x3f213176	0.62966096
244	0x3fb7fcc1	1.4374009
245	0xbe789fbf	-0.24279688
246	0xbdf6327a	-0.120213464
247	0xbecad420	-0.39614964
248	0x3e11f6b3	0.14254265
249	0x3f2955a7	0.6614632
250	0xbd87967d	-0.066205
251	0xbf1ec9b2	-0.6202651
252	0x3e9f2145	0.3108007
253	0x3e3b193c	0.18271345
254	0xbee9a42b	-0.45633063
255	0xbd856816	-0.065139934

fc1.bias f4 [128]
0	0x3e4fb135	0.20282443
1	0xbeddbaed	-0.43306676
2	0xbe81650a	-0.252724
3	0x3e9613af	0.29311892
4	0xbe1805ed	-0.1484601
5	0x3ee48a92	0.4463697
6	0x3e6bb729	0.23019089
7	0xbdea6de1	-0.11446739
8	0x3d85fb40	0.06542063
9	0x3e1dd8d0	0.15414739
10	0x3e890791	0.26763585
11	0x3e8b73f3	0.272369
12	0xbe04d5a2	-0.1297212
13	0x3d7988e5	0.06092157
14	0x3e1c90e5	0.15289648
15	0x3e72f0cc	0.23724669
16	0xbe54b3cc	-0.20771712
17	0x3e7c37af	0.24630617
18	0xbe3f5462	-0.18684533
19	0x3cc1073c	0.02356302
20	0x3e874916	0.26422948
21	0x3e447aba	0.19187441
22	0x3ec2ee00	0.38072205
23	0x3ea2d471	0.31802705
24	0x3cd27652	0.025691185
25	0x3ebf2b84	0.37337887
26	0xbdccb4e2	-0.09995438
27	0xbdff75f9	-0.124736734
28	0x3ed84a40	0.42244148
29	0x3f06e62f	0.5269498
30	0x3d961217	0.07327669
31	0x3e3ddc68	0.1854111
32	0x3f02346b	0.50861233
33	0x3ea96eee	0.33092445
34	0x3ee6a3e4	0.45046914
35	0x3d8a8532	0.06763686
36	0x3b9f2814	0.0048570726
37	0x3ebac090	0.3647504
38	0x3ecb7786	0.39739627
39	0x3ebb85bf	0.36625478
40	0xbe33e502	-0.17567828
41	0xbed94283	-0.42433557
42	0x3c6c402e	0.0144195985
43	0x3bafd249	0.005365644
44	0x3e2543ff	0.1613922
45	0x3ea9546a	0.33072215
46	0x3e22e7c3	0.15908723
47	0x3d7a2d78	0.06107852
48	0x3ecd3821	0.40081885
49	0xbca2b938	-0.01986371
50	0x3ec4eee0	0.38463497
51	0xbe216503	-0.15761189
52	0xbdc641e2	-0.09680535
53	0x3dc1ef1d	0.09469435
54	0x3eb81bab	0.3595861
55	0x3e499cc4	0.19688708
56	0x3f04bc63	0.51849955
57	0xbed0d3cb	-0.40786585
58	0x3e847a71	0.25874665
59	0x3e1b5bfe	0.15171811
60	0x3e73c58d	0.23805828
61	0x3f032ccd	0.51240236
62	0x3e766bd1	0.24064566
63	0x3e6a4f77	0.22881876
64	0x3dbd21ba	0.092349485
65	0xbe82c31a	-0.25539476
66	0xbbaa6fb8	-0.005201306
67	0x3eb3f8dc	0.35150802
68	0xbe4de08e	-0.20105192
69	0x3e850f77	0.2598836
70	0x3c8031b5	0.015648702
71	0x3d3e01ae	0.04638832
72	0x3e8b52d1	0.2721162
73	0xbe85e79b	-0.26153263
74	0xbe53e486	-0.20692644
75	0x3e0f6f7c	0.14007372
76	0x3e018eff	0.12652205
77	0x3d74486b	0.059639376
78	0x3e820217	0.2539222
79	0x3eac83c8	0.3369429
80	0xbe658ea1	-0.2241769
81	0x3ecc694f	0.39924094
82	0xbd876c76	-0.06612484
83	0x3d11b7ea	0.035575785
84	0x3e53c52d	0.20680685
85	0x3e130d58	0.14360559
86	0x3e012d7d	0.12615009
87	0xbcb8006b	-0.022461137
88	0x3e80b40d	0.25137368
89	0x3e34c6cb	0.17653958
90	0xbd75a252	-0.059969254
91	0xbe764ef5	-0.24053557
92	0xbd48ee77	-0.049055543
93	0xbe71b2bf	-0.23603342
94	0xbed7d7f6	-0.42156953
95	0x3dae93dd	0.085242964
96	0xbcc19eed	-0.023635352
97	0xbe90606a	-0.28198558
98	0xbe0615b9	-0.13094224
99	0xbe3020e2	-0.17200044
100	0xbe6b74d3	-0.22993784
101	0x3d404903	0.04694463
102	0x3cdd0eb4	0.02698455
103	0xbe1ac994	-0.15115958
104	0x3e655fe4	0.2239986
105	0xbe65d7b1	-0.22445561
106	0xbe7677d5	-0.2406915
107	0xbc837373	-0.016046261
108	0xbd6e69c5	-0.05820634
109	0x3ecf6dc3	0.4051343
110	0x3cd515de	0.026011404
111	0x3d981656	0.07426135
112	0x3c9e1cb4	0.019300796
113	0x3e509926	0.20370921
114	0x3e2353b1	0.15949894
115	0xbe84bf22	-0.25927073
116	0x3bf051bc	0.0073339622
117	0x3db398fc	0.08769414
118	0xbca1177f	-0.019664524
119	0x3e287371	0.16450287
120	0x3ea9936b	0.33120283
121	0xbe8c29ef	-0.27375743
122	0x3d9a5bc4	0.07537034
123	0xbd6678e4	-0.056267634
124	0xbb4343a7	-0.0029794963
125	0xbe7721ab	-0.24133937
126	0x3e539545	0.2066241
127	0xbe581d6f	-0.21104978

fc2.weight f4 [64, 128]
0	0xbcb91d25	-0.022596905
1	0x3ece3b16	0.40279454
2	0xbe1df3bf	-0.15425013
3	0xbca7036e	-0.020387378
4	0xbb948d55	-0.0045334497
5	0x3dd4bcc8	0.1038757
6	0xbe27b94f	-0.16379283
7	0x3e2cd154	0.16876727
8	0x3da63b57	0.08116787
9	0x3df64f16	0.12026803
10	0x3da2b0ce	0.07943879
11	0xbdbf0ce8	-0.093286335
12	0xbe0a6d11	-0.13518168
13	0x3c78aeac	0.015178364
14	0x3de4f93e	0.11180352
15	0x3e218e1c	0.15776867
16	0x3da35034	0.07974282
17	0xbc970e61	-0.018439474
18	0x3e06c17c	0.13159746
19	0x3df90bf5	0.12160484
20	0x3c2044b7	0.009782008
21	0xbd92d344	-0.07169202
22	0x3c0ed92e	0.008718772
23	0x3c2e7b7d	0.010649559
24	0xbe9d8346	-0.30764216
25	0x3ccb23dd	0.024797374
26	0xbeb1a384	-0.34695065
27	0xbe93622e	-0.28785843
28	0x3cb1b40d	0.0216923
29	0x3c97e341	0.01854098
30	0xbe83e07c	-0.25757205
31	0x3b192bd4	0.002337207
32	0xbd020e33	-0.031751823
33	0xbe831155	-0.2559916
34	0xbc539184	-0.012913112
35	0x3e812643	0.25224504
36	0x3e931b08	0.2873156
37	0xbd007f95	-0.03137167
38	0x3c5e675e	0.013574449
39	0x3d999edb	0.075010024
40	0x3dfc66ab	0.1232427
41	0x3e55c288	0.20874989
42	0x3e1fe5b7	0.15614973
43	0x3e4623a1	0.19349529
44	0x3e9ae509	0.30252865
45	0x3d291471	0.04127926
46	0x3e73eeac	0.23821515
47	0xbea244d2	-0.3169313
48	0xbd8b74ed	-0.06809411
49	0xbf171648	-0.59018373
50	0x3e1ff027	0.15618955
51	0xbe8b6042	-0.27221876
52	0x3e0ab986	0.13547334
53	0x3e10e5e9	0.14150204
54	0xbe05200d	-0.13000508
55	0xbdc58ce4	-0.096460134
56	0xbd70f045	-0.05882289
57	0x3eefc54a	0.46830207
58	0xbd0ddf5d	-0.034636844
59	0xbc88c666	-0.016696166
60	0x3de6b65a	0.112652496
61	0xbec03723	-0.37542066
62	0x3da4a45a	0.0803916
63	0x3e4988ef	0.19681142
64	0x3e3f054f	0.18654369
65	0x3e1a4eb8	0.15069091
66	0xbec89c82	-0.39181906
67	0x3d93eeeb	0.07223304
68	0x3e59aa4d	0.21256371
69	0x3d00855b	0.031377178
70	0x3e574923	0.21023993
71	0x3e5318fb	0.20614998
72	0x3e4cc0c8	0.19995415
73	0xbec88e54	-0.39171088
74	0xbe59e358	-0.21278131
75	0x3e08ff2d	0.13378592
76	0xbdae9d03	-0.08526041
77	0x3e9f01bc	0.3105601
78	0x3dcab15e	0.09897111
79	0x3e3cbcdd	0.1843142
80	0x3f13a5bb	0.5767476
81	0xbbf0cc49	-0.0073485714
82	0x3bbd6473	0.0057797967
83	0xbcfb8741	-0.030704143
84	0x3dd6c18e	0.104861364
85	0xbdd78d82	-0.10525037
86	0x3cf5c940	0.03000319
87	0x3ea630a3	0.32458982
88	0xbe57b584	-0.21065336
89	0x3e0041d9	0.12525119
90	0x3dc6320c	0.096775144
91	0xbeb78b0a	-0.35848266
92	0xbaff45ca	-0.0019475755
93	0xbe07d3a2	-0.13264325
94	0x3f21b6ed	0.6316975
95	0x3d99bda8	0.07506877
96	0x3e503cda	0.20335713
97	0xbd617af9	-0.055048916
98	0x3e2711d6	0.16315398
99	0xbdd22cf8	-0.10262483
100	0x3e7550d8	0.2395662
101	0xbc6de4ca	-0.01451988
102	0x3c21e20f	0.009880557
103	0x3e33b097	0.17547832
104	0x3e3ec738	0.18630683
105	0xbe7cf888	-0.24704182
106	0x3f1c660f	0.6109323
107	0xbeba4462	-0.36380297
108	0x3e1cee76	0.1532534
109	0xbd8c23ac	-0.06842741
110	0xbe2c5429	-0.1682898
111	0xbe8873e0	-0.26650906
112	0x3dc333dc	0.09531376
113	0x3db1bc1c	0.08678457
114	0x3ded7497	0.115945034
115	0xbef6b2e9	-0.48183373
116	0x3dbe0754	0.092787415
117	0xbe39025a	-0.18067303
118	0x3e8551d4	0.26038992
119	0x3dcbda48	0.09953743
120	0xbd71e83a	-0.05905936
121	0xbf156647	-0.5835919
122	0xbdc90f3c	-0.09817359
123	0x3b9d4a99	0.0048001525
124	0x3ef0f3e0	0.47061062
125	0x3ed58b1d	0.41707698
126	0x3de0cf66	0.10977058
127	0xbeb277b6	-0.34856957
128	0x3d132778	0.035926312
129	0x3eb03548	0.3441565
130	0xbda79df6	-0.081844255
131	0x3de8edb9	0.11373467
132	0x3d7a84e5	0.061161894
133	0x3bd3f1d1	0.0064680357
134	0xbe0efc55	-0.13963445
135	0x3e4d1884	0.20028883
136	0x3e1906b5	0.14943965
137	0x3e09553c	0.1341142
138	0x3e70bbf8	0.23509204
139	0xbdd3994a	-0.10331972
140	0xbe00c076	-0.12573418
141	0x3db3adba	0.0877337
142	0x3dc21884	0.09477332
143	0x3de80a06	0.11330037
144	0x3e007e55	0.12548192
145	0x3c192856	0.009347996
146	0x3e7dddb9	0.24791612
147	0x3d14e983	0.036355507
148	0x3dcab237	0.09897273
149	0x3b5edf35	0.0034007553
150	0x3ddab71a	0.10679455
151	0x3dd51d90	0.10406029
152	0xbe1c3f91	-0.15258624
153	0x3e023279	0.12714566
154	0xbec316ca	-0.38103324
155	0xbe964925	-0.2935268
156	0x3c80a206	0.015702259
157	0x3df0dcc9	0.117608614
158	0xbdf5ded0	-0.12005389
159	0x3dd24fb7	0.10269111
160	0x3d73d18b	0.059526008
161	0xbe7b45ed	-0.24538393
162	0x3d7bb18e	0.061448626
163	0x3e913d62	0.28367144
164	0x3e46f1db	0.19428198
165	0xbb905fb7	-0.0044059413
166	0x3dc87891	0.09788621
167	0x3d0f69f2	0.035013147
168	0x3d5d2941	0.05399442
169	0x3e0a9383	0.13532834
170	0x3e4805b9	0.19533433
171	0x3e741f44	0.23840052
172	0x3e447690	0.19185853
173	0x3df9d343	0.12198498
174	0x3e5b43ea	0.21412626
175	0xbe814cf0	-0.2525401
176	0xbd8a50ad	-0.06753669
177	0xbf276501	-0.65388495
178	0x3d8f9de4	0.07012537
179	0xbe1dc52e	-0.1540725
180	0x3ec3ea72	0.38264805
181	0x3e97b503	0.29630288
182	0xbd6d80ca	-0.05798415
183	0xbe440ffb	-0.19146721
184	0xbc61609f	-0.013755946
185	0x3f099ac5	0.53751785
186	0x3d76d6e4	0.06026353
187	0x3db6cb84	0.08925536
188	0x3c0eb495	0.008710046
189	0xbe96a615	-0.29423586
190	0x3e14fd8a	0.14549842
191	0x3eb75aca	0.35811454
192	0x3dba03f8	0.09082788
193	0x3d7bf6d3	0.061514687
194	0xbe7ecbd3	-0.2488244
195	0xbcf766df	-0.03020042
196	0x3e7b05b7	0.24513899
197	0x3ddd78ea	0.10814078
198	0x3de57500	0.112039566
199	0x3ea0143a	0.31265432
200	0x3e99d679	0.30046442
201	0xbeb68d86	-0.3565485
202	0xbe21abe4	-0.15788227
203	0x3e4e0d05	0.20122154
204	0xbe265b64	-0.162458
205	0x3ea43b2e	0.320764
206	0x3d477bef	0.048702177
207	0x3e2b2082	0.1671162
208	0x3f278163	0.65431803
209	0x3e00a0d0	0.12561345
210	0xbc4d55e0	-0.012532681
211	0x3e0a940e	0.13533041
212	0x3ddee948	0.108843386
213	0xbb702305	-0.0036641967
214	0x3d13027a	0.035891034
215	0x3eef3a1f	0.4672403
216	0xbe2462d1	-0.1605332
217	0x3e10d3f2	0.1414335
218	0xbc720cb9	-0.014773541
219	0xbe64cf98	-0.22344816
220	0xbd6d527e	-0.05794
221	0x3d065bde	0.032802455
222	0x3f39fc83	0.7265093
223	0x3e4b953c	0.19881147
224	0x3ddab521	0.10679079
225	0xbc5247e3	-0.012834522
226	0x3d98a38d	0.0745307
227	0xbdf0fe28	-0.117672265
228	0x3e882e74	0.2659794
229	0x3d5847fa	0.052803017
230	0x3c6f87da	0.014619792
231	0x3d89a5a5	0.06721047
232	0x3e6786d9	0.22610034
233	0xbdbd41ab	-0.09241041
234	0x3f39b89d	0.7254732
235	0xbeba0495	-0.3633162
236	0x3e2b6b47	0.16740142
237	0x3cdd8475	0.0270407
238	0xbdb48648	-0.088146746
239	0xbd5ffe51	-0.054685894
240	0x3de2bdbd	0.11071346
241	0x3e2a71a2	0.1664491
242	0x3e3ac59f	0.18239449
243	0xbf00dd0b	-0.50337285
244	0x3d9609b7	0.07326072
245	0xbea8533a	-0.32875997
246	0x3e980884	0.29693997
247	0xb99a75b4	-0.00029460865
248	0x3d677bf9	0.056514714
249	0xbf1a997b	-0.6039044
250	0xbd07751f	-0.03307068
251	0x3d9b1409	0.07572181
252	0x3ee271a5	0.4422733
253	0x3eb5df91	0.3552213
254	0x3e1cf855	0.15329106
255	0xbe61fa58	-0.22068155

fc2.bias f4 [64]
0	0x3e01ee37	0.12688528
1	0x3c70e4e0	0.014703006
2	0x3c934e62	0.017981712
3	0x3cb4945d	0.022043401
4	0x3e465f74	0.1937235
5	0xbd972753	-0.073805474
6	0xbc6f01a8	-0.014587797
7	0xbd8a73b4	-0.0676035
8	0x3df2f1de	0.11862539
9	0x3e1777ff	0.14791869
10	0x3d4f4be1	0.050609473
11	0x3c990056	0.018676918
12	0x3df6213d	0.120180584
13	0xbc9f7eff	-0.019469736
14	0x3d4464e7	0.04794779
15	0x3e4331c6	0.19061956
16	0xbc02df52	-0.007987814
17	0x3c0a0f0b	0.008426438
18	0x3e093333	0.13398437
19	0x3e0f9a95	0.14023812
20	0x3d57bf11	0.05267245
21	0x3e2279d1	0.15866782
22	0xbc09baec	-0.008406382
23	0xbc1bc171	-0.009506569
24	0xbc1ad875	-0.009451021
25	0x3dec5dbb	0.11541315
26	0x3da35cd3	0.07976689
27	0x3e28da10	0.16489434
28	0x3d7a51e7	0.061113264
29	0x3e3cb8ca	0.18429866
30	0x3d8673b9	0.06565041
31	0x3d7aafd8	0.061202854
32	0x3c3f8dc3	0.0116915135
33	0x3c07ffe8	0.008300759
34	0xbc6ee15b	-0.014580096
35	0x3d485e53	0.04891808
36	0xbb7e0396	-0.0038759462
37	0xbdd35827	-0.10319548
38	0x3e025b44	0.12730128
39	0xbd1f3038	-0.038864344
40	0x3d7edd94	0.062223032
41	0xbe190b03	-0.14945607
42	0xbd28cc59	-0.041210506
43	0x3ce4ed43	0.027945166
44	0x3e38baf6	0.1804007
45	0x3da6ca34	0.08144036
46	0x3e5e2131	0.21692349
47	0x3b500b5b	0.003174505
48	0x3d80f79d	0.062972285
49	0x3cf8f908	0.030392185
50	0x3cdaf035	0.026725868
51	0x3d1198f9	0.035546277
52	0x3ce46004	0.027877815
53	0x3d5b13fa	0.053485848
54	0x3e843757	0.2582347
55	0x3d2348c1	0.039864305
56	0x3cf6ec46	0.03014196
57	0x3def91fe	0.11697768
58	0x3e14adc1	0.14519407
59	0x3e01d631	0.12679364
60	0x3df33e3f	0.11877107
61	0x3d112461	0.035435084
62	0x3ea811cd	0.3282608
63	0x3de2d957	0.110766105

value_N1.weight_mu f4 [32, 64]
0	0x3e622e12	0.22087887
1	0x3e8bdc2b	0.27316412
2	0x3df307dd	0.11866734
3	0x3e76c501	0.24098589
4	0x3e88fb89	0.26754406
5	0x3ebce0cc	0.36890256
6	0x3ddf0163	0.10888936
7	0x3eb7bf83	0.358883
8	0x3ea47bac	0.32125604
9	0x3e6b58d0	0.22983098
10	0x3dd3aa0a	0.10335167
11	0x3e2601bb	0.16211598
12	0x3e8d77f6	0.27630585
13	0x3ed7c9c8	0.42146134
14	0x3e984e89	0.29747418
15	0x3f458471	0.77155215
16	0x3dee12d3	0.11624684
17	0x3e64aa94	0.22330695
18	0xbd4edb4c	-0.050502107
19	0x3dff8ea5	0.12478379
20	0xbf581076	-0.8440012
21	0x3e0cacfe	0.13737866
22	0x3ece0e30	0.402452
23	0x3dfaa0da	0.12237711
24	0x3e120806	0.14260873
25	0x3e4f3d84	0.2023831
26	0x3d8ce055	0.068787254
27	0x3dfaeade	0.122518286
28	0x3e2c895f	0.16849278
29	0x3e0afdf7	0.13573442
30	0x3e8be797	0.27325127
31	0x3df87bdb	0.121329986
32	0x3e62dbaf	0.22154115
33	0x3e1b9742	0.15194419
34	0x3e22f0a5	0.15912111
35	0x3e8744fa	0.26419812
36	0x3d83f50d	0.06443224
37	0xbd99d4f2	-0.07511319
38	0x3da72232	0.08160819
39	0x3cc2b5d8	0.02376835
40	0x3e036b39	0.12833871
41	0xbf16a9b6	-0.5885271
42	0x3e6190c3	0.22027878
43	0x3ea04dfd	0.313095
44	0xbf13391a	-0.57509005
45	0x3e258432	0.1616371
46	0x3e6b8af3	0.23002224
47	0x3eab2238	0.33424544
48	0x3dfbb495	0.12290303
49	0xbf6c7e41	-0.9238015
50	0x3d118426	0.035526417
51	0x3df75234	0.12076226
52	0x3d2a8004	0.04162599
53	0x3e1fdd17	0.15611683
54	0xbfd810fa	-1.6880181
55	0x3eacfac3	0.33785066
56	0x3da94917	0.08265894
57	0x3e547426	0.20747432
58	0x3e501655	0.20321019
59	0x3e715828	0.23568785
60	0x3d9b7f4c	0.07592639
61	0x3e27a021	0.16369678
62	0x3e984414	0.2973944
63	0x3e36a1a2	0.17835096
64	0x3e35c658	0.17751443
65	0x3e61f329	0.22065414
66	0x3e44946d	0.19197245
67	0x3e5ca080	0.21545601
68	0x3eb444b2	0.3520866
69	0x3edac789	0.42730358
70	0x3e1f2cf2	0.15544489
71	0x3ea7470c	0.32671392
72	0x3da1bf88	0.0789786
73	0x3d718102	0.058960922
74	0x3e8d2deb	0.27574095
75	0x3ea4b6fa	0.3217085
76	0x3e2ac011	0.1667483
77	0x3e4d4109	0.2004434
78	0x3dc88e62	0.09792782
79	0x3f668a78	0.90055037
80	0x3e8bf96c	0.2733873
81	0x3e09cb74	0.13456517
82	0xbe3ec24a	-0.18628803
83	0x3db9a9b1	0.09065569
84	0xbf5268a3	-0.8219091
85	0x3e475c5f	0.1946883
86	0x3eb2b726	0.34905356
87	0x3dd5abed	0.10433183
88	0x3db6e3ed	0.08930192
89	0x3e3080c8	0.17236626
90	0x3e83dcef	0.25754496
91	0x3e8668f3	0.26251945
92	0x3e4382b3	0.19092827
93	0x3e65e192	0.2244933
94	0x3e87a307	0.26491567
95	0x3df23b4d	0.11827717
96	0x3e1a8641	0.15090276
97	0x3e6f03f1	0.23341347
98	0x3e3d73aa	0.18501154
99	0x3e81dbcc	0.25363004
100	0x3e618b78	0.2202586
101	0x3d1ed64e	0.038778596
102	0x3d2b7a6f	0.04186481
103	0x3d9d58ea	0.07682975
104	0x3ddb8cf8	0.10720247
105	0xbf24ca14	-0.64370847
106	0x3ebfebc9	0.37484577
107	0x3eaaafc5	0.33337227
108	0xbf1db791	-0.61608225
109	0x3e2641e2	0.1623607
110	0x3d20cdd7	0.039258804
111	0x3ea3537c	0.3189963
112	0x3e0eb1c6	0.13935003
113	0xbf596222	-0.84915364
114	0xbcdff116	-0.027336638
115	0x3e8657ee	0.2623896
116	0x3df81f7e	0.12115382
117	0x3d862ae7	0.06551152
118	0xbfe7b270	-1.810133
119	0x3e9e9034	0.30969393
120	0x3e8b88ca	0.272528
121	0x3e0005c1	0.12502195
122	0x3e735e55	0.23766454
123	0x3e7698d2	0.24081734
124	0x3e86af92	0.26305825
125	0x3e34125c	0.17585129
126	0x3af0d440	0.0018373802
127	0x3e5c54b3	0.21516685
128	0x3ddca3ae	0.10773407
129	0x3d614af9	0.05500314
130	0x3df04488	0.11731821
131	0x3d03c6d0	0.032172024
132	0x3dc84aeb	0.097799145
133	0x3e483b85	0.19553955
134	0xbc48f06f	-0.012264355
135	0x3ecab657	0.3959224
136	0x3db14dfb	0.08657452
137	0x3e0fc496	0.14039835
138	0x3e3f5fcc	0.18688887
139	0x3c28a02a	0.010292092
140	0x3e6053f7	0.2190703
141	0x3ea07c92	0.3134504
142	0x3d9b4973	0.07582369
143	0x3f7ccbd5	0.98748523
144	0x3d1934d0	0.03740388
145	0x3e422980	0.18961143
146	0xbe3bbb06	-0.18333063
147	0x3d9cc540	0.0765481
148	0xbf9e1005	-1.2348639
149	0x3d35b79c	0.044364557
150	0x3e31ae6c	0.17351693
151	0x3e9f74cb	0.31143793
152	0x3e16b0d0	0.14715886
153	0x3e23cf03	0.15996937
154	0x3e5b61f4	0.21424085
155	0x3d3415ce	0.043966107
156	0x3d49e192	0.049287386
157	0x3e8f99da	0.28047067
158	0x3d92babb	0.07164522
159	0x3e11e1a9	0.14246239
160	0x3e0ca3ba	0.13734332
161	0x3c7328e3	0.014841291
162	0x3d8be5cc	0.0683094
163	0x3e64c127	0.22339307
164	0x3db40cff	0.08791541
165	0xbdf870a5	-0.1213086
166	0xbcb5ba51	-0.02218357
167	0x3c9bbff8	0.019012436
168	0x3d97ad25	0.074060716
169	0xbf2ab299	-0.6667877
170	0x3e9d61db	0.3073872
171	0xbc3c80ed	-0.011505348
172	0xbf02d98d	-0.51113206
173	0x3e146ff6	0.14495835
174	0x3e69b439	0.22822656
175	0x3e80be32	0.25145108
176	0x3e81f8bd	0.25385085
177	0xbf5a696b	-0.85317105
178	0x3db8bc1f	0.09020256
179	0x3dc7c64d	0.0975462
180	0xbd264cc6	-0.04060056
181	0x3de17d1c	0.11010191
182	0xbfb46a3f	-1.4094924
183	0x3e6f5718	0.23373067
184	0x3da7792d	0.08177409
185	0x3de360d6	0.11102454
186	0x3d33bb66	0.04387989
187	0x3d909deb	0.070613705
188	0x3b666a8a	0.0035158717
189	0x3cd2b39a	0.025720406
190	0x3e75554d	0.23958321
191	0x3e6cd141	0.23126699
192	0x3e945809	0.28973415
193	0x3e7037cc	0.23458785
194	0x3e7a5d9b	0.2444977
195	0x3eaf49eb	0.34236082
196	0x3ec44b27	0.38338587
197	0x3ef8e615	0.4861304
198	0x3e74aec9	0.238948
199	0x3e95e8c7	0.29279158
200	0x3e3e77eb	0.18600433
201	0x3d976954	0.073931366
202	0x3e42e96b	0.19034354
203	0x3dffdb4b	0.12492999
204	0x3e892d13	0.267922
205	0x3eb55c20	0.35421848
206	0x3e96abe6	0.29428023
207	0x3f292330	0.66069317
208	0x3e38621c	0.18006176
209	0x3e2416e0	0.16024351
210	0xbe653a8d	-0.22385617
211	0x3e9ca5e5	0.30595317
212	0xbf4ed6dd	-0.80796605
213	0x3e84d725	0.25945392
214	0x3e8f267b	0.27959046
215	0xbdc0fe74	-0.09423533
216	0x3da7cec0	0.08193731
217	0x3d923968	0.071398556
218	0x3e2859c9	0.164405
219	0x3e913e4c	0.2836784
220	0x3e5c8458	0.2153486
221	0x3e0e1791	0.13876177
222	0x3ea26af4	0.31722224
223	0x3e8bec26	0.27328604
224	0x3e7c4eb0	0.24639392
225	0x3ea5df14	0.32396758
226	0x3e910907	0.283272
227	0x3e4b6d38	0.19865882
228	0x3e8ab8ff	0.27094266
229	0xbd71dbd5	-0.05904754
230	0x3e0d67d7	0.13809143
231	0xbd856e76	-0.065152094
232	0x3e2c65fc	0.16835779
233	0xbf0d3dd9	-0.551725
234	0x3ecca3df	0.39968774
235	0x3e6ce0d7	0.23132645
236	0xbf0138b9	-0.50477177
237	0x3e9ad4a9	0.30240372
238	0x3e803e77	0.25047657
239	0x3ea33678	0.31877494
240	0x3ea67058	0.32507586
241	0xbf6ea76c	-0.93224216
242	0x3e007b4c	0.12547034
243	0x3df7cd4c	0.12099704
244	0x3e94c5cc	0.29057157
245	0x3e4c76aa	0.19967142
246	0xc00e5747	-2.224077
247	0x3e8ffed9	0.2812412
248	0x3dee9695	0.11649815
249	0x3e6e5fda	0.23278752
250	0x3e84e678	0.25957084
251	0x3e80ba70	0.2514224
252	0x3e8a6d56	0.27036542
253	0x3e9e765e	0.30949682
254	0xbe6adde3	-0.22936206
255	0x3e9a602b	0.30151495

value_N1.weight_sigma f4 [32, 64]
0	0xbcb9bfb1	-0.022674413
1	0xbbcffc22	-0.0063471952
2	0xbc593f72	-0.013259755
3	0x3a781da1	0.0009464864
4	0xbc8d3836	-0.017238718
5	0xbc47a9a2	-0.01218644
6	0xbbdd93b9	-0.0067619947
7	0x3d3536d3	0.044241738
8	0xbb96462e	-0.004586003
9	0x3ca24f56	0.019813221
10	0x3c42a9df	0.011881321
11	0xbb252939	-0.0025201573
12	0xbbd851a4	-0.006601529
13	0xbb891ee7	-0.004184592
14	0x3b882f2f	0.0041560153
15	0xbb6cceef	-0.0036134084
16	0x3c00caf1	0.007860885
17	0xbcff340b	-0.031152746
18	0x3d073ba5	0.033015866
19	0xbb636ea8	-0.0034703407
20	0xbbc76a94	-0.006085703
21	0xbb9d5a56	-0.0048020286
22	0x3c1b66ca	0.009484956
23	0xbba608f6	-0.005066986
24	0x3a609aa1	0.00085679634
25	0xbb18b989	-0.0023303947
26	0x3b037e1f	0.0020064188
27	0x3b96d18c	0.0046026167
28	0x3b59d6ee	0.003323968
29	0xb9f10bc3	-0.00045975865
30	0x3c1baccc	0.009501647
31	0x3c6dec19	0.014521622
32	0x3aa46584	0.0012542461
33	0x3c3bc37c	0.011460181
34	0xba1e3e64	-0.00060365186
35	0x3c364029	0.011123695
36	0x3c10cd1d	0.008837965
37	0x3d3a2ea3	0.045454632
38	0x3c0c5644	0.008565489
39	0x3d4ccccd	0.05
40	0xbc3e2f39	-0.011607938
41	0xbc6e61bc	-0.014549669
42	0x3a3e4b3f	0.00072591373
43	0xbc3a9d59	-0.011390054
44	0xbb30e331	-0.0026990885
45	0xbbec6179	-0.007213768
46	0xbbb7a466	-0.0056043146
47	0xbbc85904	-0.006114127
48	0xbbfd7991	-0.007735439
49	0x3c731111	0.014835612
50	0x3d4d8c27	0.050182488
51	0x3bd6391a	0.0065375688
52	0xbb312e3a	-0.002703561
53	0xbc96f5b1	-0.018427702
54	0xbb6e98d3	-0.0036407008
55	0x3ca7fc91	0.020506175
56	0x3cabe31b	0.020982316
57	0xbc10a839	-0.00882917
58	0x3adc226d	0.0016794928
59	0xbbacdc9f	-0.0052753235
60	0x3bb4a07e	0.005512296
61	0xbb910cd0	-0.004426576
62	0xbb5950ad	-0.0033159659
63	0xbc53f240	-0.012936175
64	0x3c42d325	0.011891161
65	0xbbee3064	-0.007268952
66	0xbc6db31e	-0.014508037
67	0xbc387e6a	-0.011260608
68	0x3b646755	0.003485163
69	0x3b10211d	0.0021992393
70	0xbc82ced3	-0.015967762
71	0x3b1ebe6e	0.0024222392
72	0xbcbf1505	-0.023325453
73	0xbc4e20d6	-0.012581071
74	0x3be78088	0.0070648827
75	0x3c081735	0.008306314
76	0xbc1f85ec	-0.009736519
77	0x3ba3778e	0.0049886173
78	0x3c95077a	0.018192042
79	0xbc8f39b7	-0.017483575
80	0xbaf8b8b0	-0.001897594
81	0xbc53d42f	-0.0129290065
82	0x3b0e6f1b	0.0021733704
83	0x3cf54cf5	0.029943923
84	0x3b778e4e	0.003777403
85	0xbbaa0f5f	-0.0051898207
86	0xbc115ab1	-0.00887172
87	0xbab1ad16	-0.0013555612
88	0x3ba32e97	0.004979919
89	0x3b5ff6ce	0.0034174207
90	0xb88b7d9f	-6.651435e-05
91	0xbbc8b6d5	-0.006125311
92	0xbc089c96	-0.008338114
93	0xbbcec6f6	-0.006310339
94	0xbc4d0670	-0.012513742
95	0xbc8bde62	-0.017073814
96	0xbc2633fc	-0.01014423
97	0x3c9caf26	0.019126486
98	0xbb8aba8f	-0.0042336653
99	0x3cdf48a9	0.027256327
100	0x3b002f9f	0.0019559634
101	0x3d460fd4	0.04835494
102	0xbc0c98d3	-0.008581358
103	0x3d4ccccd	0.05
104	0x3c4a0d6f	0.012332304
105	0x3c1011ff	0.008793353
106	0x3c0d68e0	0.008630961
107	0x3cb9cb62	0.022679988
108	0xb97ff30e	-0.0002440924
109	0x3c2527a0	0.010080248
110	0x3c8797e0	0.016551912
111	0x3b5419fa	0.0032364116
112	0x3b8bf489	0.004271094
113	0xbc84c760	-0.01620835
114	0x3d4cd93c	0.05001186
115	0xbbb36448	-0.005474601
116	0x3cd4b89e	0.025966939
117	0x3bec7e2f	0.0072171907
118	0x39a8a2a9	0.00032164648
119	0xbd187ac6	-0.03722646
120	0xba1549f7	-0.00056949205
121	0x3ab85ff7	0.0014066686
122	0xbbfad333	-0.0076545714
123	0x3bbdbc40	0.0057902634
124	0xbca26b32	-0.019826505
125	0xb976b78a	-0.00023528762
126	0x3b9838a8	0.004645426
127	0xbbadc421	-0.0053029214
128	0x3cb2e17a	0.021836031
129	0x3c8c7f9f	0.017150698
130	0x3b91cfab	0.004449805
131	0xbbea4b42	-0.0071500847
132	0xbb90a338	-0.0044139884
133	0xbd2c22d5	-0.042025406
134	0x3b6552c3	0.0034991957
135	0x3cf8ace7	0.030355884
136	0x3cda4bd1	0.02664748
137	0xba9e6486	-0.0012084402
138	0x3a554787	0.00081359636
139	0xb9f602b4	-0.0004692279
140	0x3c6f933d	0.014622507
141	0x3c30ae11	0.010783688
142	0xbb4868fa	-0.003058015
143	0x388f47a8	6.8321184e-05
144	0x39f87ddf	0.00047396027
145	0xbc07f23e	-0.008297501
146	0xbc8c726e	-0.017144408
147	0x3c867c4e	0.016416695
148	0x3d10a818	0.035316557
149	0x3b26e230	0.0025464408
150	0x3ce6dcda	0.028181482
151	0xba86be3a	-0.0010280081
152	0x39d93c4f	0.000414344
153	0x3c8a5c21	0.016889634
154	0xbb07f908	-0.00207478
155	0xbc2c17b5	-0.010503699
156	0x3c001af8	0.00781893
157	0x3ba93a8a	0.005164449
158	0x3cc627ad	0.02418884
159	0xbc2eaa03	-0.010660651
160	0xbce46433	-0.02787981
161	0x3b5db00c	0.0033826856
162	0xbbedbf79	-0.0072554913
163	0x3b9e7e15	0.0048368075
164	0xbc0505a5	-0.008119022
165	0x3d5270c4	0.051377073
166	0xbbbef329	-0.005827327
167	0x3d4ccccd	0.05
168	0x3c02a818	0.007974647
169	0x3bcb989d	0.0062132613
170	0xbc535760	-0.01289925
171	0x3b97d3e7	0.004633415
172	0x3c53cc0f	0.012927069
173	0x3c0858ab	0.008321921
174	0xbbb52dca	-0.00552914
175	0xbc45bd3c	-0.012069043
176	0x3c5a27fe	0.013315199
177	0x3c8c6761	0.017139139
178	0x3d4e8c23	0.050426614
179	0xbcd8bf2d	-0.026458347
180	0x3a1b1208	0.00059154676
181	0xbbf88e85	-0.007585349
182	0x3baa6137	0.005199577
183	0x3dac93a0	0.08426595
184	0x3bce1c81	0.006290019
185	0xbca42917	-0.020039124
186	0xba9f5d70	-0.0012158584
187	0x3bc9d1aa	0.006159027
188	0x3b9f3e88	0.004859749
189	0x3c7e1a67	0.0155092245
190	0xbc8a23c2	-0.016862754
191	0xbd0c3ac0	-0.034235716
192	0x3cd3b786	0.025844347
193	0xbc52d5a5	-0.01286832
194	0x3c03ed41	0.008052171
195	0x3c0e5c52	0.008689003
196	0xbcb50061	-0.022094907
197	0xbbe38840	-0.0069437325
198	0x3c1fb059	0.009746634
199	0x3dbab722	0.09116961
200	0xbc3689dc	-0.011141267
201	0xbb725086	-0.0036974265
202	0xbc5821a8	-0.013191618
203	0x3bd7422a	0.0065691667
204	0xbca885bb	-0.02057158
205	0x3d0235d5	0.03178962
206	0xbbfffbed	-0.0078120143
207	0xbb0aae99	-0.0021161197
208	0xbab1798f	-0.0013540256
209	0xbb306135	-0.0026913409
210	0xbbcac4ff	-0.0061880345
211	0x3c3a2284	0.011360768
212	0xbc5d21db	-0.013496841
213	0xbc61c50f	-0.013779893
214	0x3d120e10	0.035657942
215	0xba1bbdf3	-0.00059410854
216	0xbc570dd1	-0.013125853
217	0xbb28be8f	-0.0025748347
218	0x39b57fe5	0.000346183
219	0x3870a730	5.7376164e-05
220	0x3c7055c0	0.014668882
221	0x3c2c1745	0.010503595
222	0xba3b8490	-0.0007153237
223	0xbb422bec	-0.002962823
224	0x3bdff56d	0.006834677
225	0xbc04e214	-0.008110542
226	0x3c155f2c	0.009116929
227	0xbc29d632	-0.01036601
228	0x3bc28fc0	0.0059375465
229	0x3d544b8c	0.05182986
230	0xbbc8a21c	-0.0061228406
231	0x3d4ccccd	0.05
232	0x3c8bc303	0.017060762
233	0xbc44a14e	-0.012001349
234	0xbcea3ec8	-0.02859439
235	0xbcad1507	-0.02112819
236	0x3bb11b87	0.005404893
237	0xbbde6da0	-0.0067879707
238	0xbb42cc0d	-0.0029723675
239	0x3cb5459a	0.022127915
240	0xbb4f9605	-0.0031675112
241	0xbb9a3740	-0.0047062933
242	0x3d4af6e8	0.049551874
243	0xbc29f65a	-0.010373676
244	0xbb86adfc	-0.004110096
245	0x3c819f72	0.0158231
246	0x3be594d2	0.007006266
247	0x3d7e5617	0.06209382
248	0xbbc349ec	-0.00595974
249	0xbc30caa0	-0.010790497
250	0xba17da8f	-0.00057927606
251	0x3b8d05ae	0.0043036556
252	0x3aed0d45	0.001808562
253	0xbb3b841c	-0.002861268
254	0x3bcd7224	0.00626971
255	0x3c91d9ea	0.017804105

value_N1.bias_mu f4 [32]
0	0x382036bd	3.819795e-05
1	0x3dc87ce9	0.0978945
2	0x3dcd583c	0.10026595
3	0x3dfd9e00	0.12383652
4	0xbe069aee	-0.13145038
5	0x3e3766a5	0.1791025
6	0x3e3dd726	0.18539104
7	0x3db67028	0.08908111
8	0x3e81a0b3	0.25317916
9	0x3b9a7837	0.0047140378
10	0x3e74638d	0.238661
11	0x3e2e4126	0.1701704
12	0xbd1455f0	-0.03621477
13	0x3dc0f819	0.09422321
14	0x3e082f24	0.13299233
15	0x3e1bec85	0.15226944
16	0x3dd1420f	0.10217678
17	0x3e2d53c7	0.1692649
18	0x3dd10249	0.10205514
19	0x3d2253cc	0.039630696
20	0x3e78c3c0	0.24293423
21	0x3eb4d43b	0.3531817
22	0x3d3477af	0.04405945
23	0x3dbcfe53	0.09228196
24	0x3c178c1a	0.009249711
25	0x3e89db7a	0.2692526
26	0xbd02d131	-0.03193778
27	0xbd35b343	-0.04436041
28	0x3d75496d	0.059884477
29	0xbc215908	-0.009847887
30	0xbd915059	-0.07095403
31	0xbe362650	-0.17788053

value_N1.bias_sigma f4 [32]
0	0xbc69c7da	-0.01426884
1	0x3ca4b72f	0.02010688
2	0xbaed19f5	-0.0018089401
3	0xba81998d	-0.0009887681
4	0x3d4ce27f	0.05002069
5	0x3b821d59	0.0039707837
6	0xbb375b8c	-0.002797815
7	0x39e6a28a	0.0004399012
8	0xb9878293	-0.00025846492
9	0xbbb5d0a2	-0.0055485526
10	0xbc9a91f7	-0.01886843
11	0x3b420d4a	0.0029609972
12	0xbc5f3af5	-0.013624896
13	0xbc02f488	-0.007992871
14	0xbc67e445	-0.014153545
15	0x3b19c88b	0.002346548
16	0x3bc8c0dc	0.0061265063
17	0xb98bba93	-0.00026651155
18	0x3cafa42b	0.021440586
19	0xbc5377e5	-0.012907003
20	0x3bb70c44	0.005586179
21	0xbc8bbb7b	-0.017057171
22	0xbca9d92b	-0.020733437
23	0xbbc8ac08	-0.0061240233
24	0xbaabf396	-0.0013118859
25	0xbb9facb1	-0.0048728813
26	0x3b4d71cd	0.0031348348
27	0xbc608779	-0.013704174
28	0x3a37c7bd	0.00070106593
29	0x3b291d48	0.0025804807
30	0xbc82d248	-0.01596941
31	0x3c2b8ff5	0.010471334

value_N1.weight_epsilon f4 [32, 64]
0	0x3f82c177	1.0215291
1	0xbeba3343	-0.36367235
2	0x3fab1d25	1.3368269
3	0x3f1c211b	0.60988015
4	0x3f819789	1.012437
5	0xbf4846e8	-0.78233194
6	0xbf9d21c6	-1.2275932
7	0xbf029428	-0.5100732
8	0xbf5e58aa	-0.8685404
9	0x3f51a2d0	0.8188906
10	0xbfbc0e32	-1.4691832
11	0xbf2701a2	-0.65236866
12	0x3f3f559b	0.7474
13	0xbea0f7f4	-0.31439173
14	0x3fd2634e	1.6436555
15	0x3f844d89	1.0336162
16	0x3efe7017	0.49694893
17	0x3fea35a0	1.8297615
18	0xbf86c591	-1.0529042
19	0x3f84b299	1.0367004
20	0xbf622671	-0.88339907
21	0xbed5286c	-0.41632402
22	0x3f850a2f	1.0393733
23	0x3f6db551	0.9285479
24	0xbfab329c	-1.337482
25	0x3fb5b44a	1.4195645
26	0xbf97aa4a	-1.1848843
27	0xbfa7a08e	-1.3095872
28	0x3dd2dd9c	0.10296175
29	0x3ee4bf37	0.44677135
30	0xbfced0a1	-1.6157418
31	0x3fa24997	1.2678708
32	0x3f6d4da0	0.9269657
33	0x3f89bf89	1.0761577
34	0x3fa0258a	1.2511456
35	0x3f22119e	0.6330813
36	0x3f851498	1.039691
37	0xbfbdd234	-1.4829774
38	0x3f8f9d25	1.1219832
39	0xbeb6d4ce	-0.35709232
40	0x3f811fae	1.0087793
41	0xbf033f31	-0.512683
42	0xbdb3a696	-0.08772008
43	0xbf76b5e9	-0.9637132
44	0x3f7ad14b	0.97975606
45	0xbf923aa1	-1.1424142
46	0xbfaf0b2f	-1.3675288
47	0xbfd8a8b8	-1.6926489
48	0x3dfa627f	0.12225818
49	0x3f841af0	1.0320721
50	0x3f4e1b68	0.8051057
51	0x3fe276e2	1.769253
52	0x3f8a3ea8	1.0800371
53	0xbd7c0d56	-0.061536156
54	0x3e53c72d	0.20681448
55	0x3f53c223	0.82718104
56	0xbeb470fc	-0.3524245
57	0x3f3ef602	0.7459413
58	0x3f38e03f	0.7221717
59	0xbfaa1a2f	-1.3289241
60	0x3f6b7d9b	0.91988534
61	0xbf849b23	-1.0359844
62	0xbf7574df	-0.95881456
63	0xbf232cd3	-0.6374027
64	0x3f2f741c	0.68536544
65	0xbe79d9f3	-0.24399547
66	0x3f659b99	0.8969055
67	0x3ed1803e	0.40918154
68	0x3f2de457	0.67926544
69	0xbf065ebd	-0.5248831
70	0xbf52d8a5	-0.82361823
71	0xbeaf3751	-0.3422189
72	0xbf152d47	-0.5827221
73	0x3f0ca633	0.549411
74	0xbf7c573d	-0.98570615
75	0xbee018a3	-0.43768796
76	0x3f005ecc	0.5014465
77	0xbe57fe94	-0.21093208
78	0x3f8d2759	1.1027633
79	0x3f318793	0.69347495
80	0x3eaab52f	0.33341357
81	0x3f9d22d7	1.2276257
82	0xbf34d7aa	-0.7064158
83	0x3f320f2f	0.6955442
84	0xbf17ba9b	-0.5926911
85	0xbe8f031c	-0.2793206
86	0x3f3284b7	0.69733757
87	0x3f1f7bc8	0.6229825
88	0xbf65b867	-0.897345
89	0x3f73d187	0.9524159
90	0xbf4b82c2	-0.79496396
91	0xbf60ede2	-0.8786298
92	0x3d8d7967	0.06907921
93	0x3e99789e	0.29974836
94	0xbf8ac1ac	-1.0840354
95	0x3f59c3a2	0.85064137
96	0x3f1f3636	0.62192094
97	0x3f38d61b	0.722017
98	0x3f56e43b	0.83942
99	0x3ed97886	0.42474765
100	0x3f3292af	0.6975507
101	0xbf7eb5c3	-0.99496096
102	0x3f40b507	0.75276226
103	0xbe7554ac	-0.23958081
104	0x3f2d4382	0.67681134
105	0xbeb01cd1	-0.34396985
106	0xbd71101e	-0.05885326
107	0xbf2585fb	-0.6465756
108	0x3f284760	0.6573391
109	0xbf44375f	-0.7664699
110	0xbf6ae18c	-0.9175041
111	0xbf915c74	-1.135634
112	0x3da7fd0a	0.0820256
113	0x3f3143ae	0.69243896
114	0x3f0a4816	0.54016244
115	0x3f97f093	1.1870292
116	0x3f3980ae	0.72461975
117	0xbd291b6a	-0.04128591
118	0x3e0e161c	0.13875622
119	0x3f0e12ba	0.55497324
120	0xbe721fb3	-0.23644905
121	0x3f001ea8	0.5004678
122	0x3ef8130c	0.48452032
123	0xbf64401d	-0.8916033
124	0x3f1dfee4	0.6171706
125	0xbf31efb5	-0.6950639
126	0xbf24ae96	-0.64328897
127	0xbedaf48b	-0.42764696
128	0x3f906238	1.1279974
129	0xbecd9b5b	-0.4015759
130	0x3fbcf2b6	1.476157
131	0x3f2c66de	0.6734446
132	0x3f8f193e	1.1179578
133	0xbf5d2697	-0.8638701
134	0xbfad8249	-1.3555385
135	0xbf103030	-0.5632353
136	0xbf758531	-0.9590636
137	0x3f677c35	0.904239
138	0xbfcfa7cb	-1.6223081
139	0xbf38699c	-0.7203615
140	0x3f5346b0	0.82529736
141	0xbeb1bed5	-0.34715906
142	0x3fe850c4	1.8149648
143	0x3f921792	1.1413443
144	0x3f0c7a6f	0.5487432
145	0x40014f57	2.0204675
146	0xbf94d17a	-1.1626427
147	0x3f92872a	1.1447499
148	0xbf79b876	-0.9754709
149	0xbeeb5fca	-0.4597152
150	0x3f92e7e2	1.1477015
151	0x3f833ddd	1.0253254
152	0xbfbd0a6a	-1.4768803
153	0x3fc8a46d	1.5675179
154	0xbfa778f0	-1.3083782
155	0xbfb91918	-1.4460783
156	0x3de8d7d0	0.11369288
157	0x3efc9685	0.49333587
158	0xbfe45ec1	-1.7841417
159	0x3fb333a9	1.400014
160	0x3f83049d	1.0235783
161	0x3f981adc	1.1883197
162	0x3fb0d67c	1.3815455
163	0x3f32f5d9	0.69906384
164	0x3f92f360	1.1480522
165	0xbfd19ae9	-1.63754
166	0x3f9e94f9	1.2389213
167	0xbec9e304	-0.39431012
168	0x3f8e94e4	1.1139188
169	0xbf10ed0d	-0.5661171
170	0xbdc65fee	-0.09686266
171	0xbf883641	-1.0641557
172	0x3f8a7abd	1.0818707
173	0xbfa1783c	-1.2614818
174	0xbfc1499c	-1.5100589
175	0xbfef3d80	-1.8690643
176	0x3e0a3d91	0.13500048
177	0x3f91dfb3	1.1396393
178	0x3f6396a5	0.8890174
179	0x3ffa1149	1.9536525
180	0x3f98a73b	1.1926035
181	0xbd8b293a	-0.06794973
182	0x3e69d9b9	0.22836961
183	0x3f69d429	0.91339356
184	0xbec73f6c	-0.38915575
185	0x3f52dd20	0.8236866
186	0x3f4c2503	0.79743975
187	0xbfbbd4c4	-1.4674306
188	0x3f82046c	1.01576
189	0xbf926d43	-1.1439594
190	0xbf878501	-1.0587465
191	0xbf342e93	-0.70383567
192	0xbf561129	-0.83619934
193	0x3e986b49	0.29769352
194	0xbf8c11d9	-1.0942947
195	0xbeff9b85	-0.4992334
196	0xbf542969	-0.82875687
197	0x3f23f125	0.6403983
198	0x3f809fdc	1.0048785
199	0x3ed5c6fc	0.41753376
200	0x3f3601e6	0.71096647
201	0xbf2b9a60	-0.6703243
202	0x3f99f00e	1.2026384
203	0x3f08b51b	0.53401345
204	0xbf1c9f2d	-0.6118038
205	0x3e83c3da	0.2573536
206	0xbfac37f2	-1.3454573
207	0xbf589996	-0.84609354
208	0xbed046da	-0.40679055
209	0xbfbfb7e3	-1.4977993
210	0x3f5ca453	0.8618824
211	0xbf593f0b	-0.8486182
212	0x3f391f03	0.72312945
213	0x3eae7c69	0.34079292
214	0xbf59ce70	-0.85080624
215	0xbf429514	-0.76008725
216	0x3f8c236b	1.0948309
217	0xbf94bd20	-1.1620216
218	0x3f784c8d	0.9699181
219	0x3f893732	1.0719969
220	0xbdac9c0f	-0.08428203
221	0xbebb3f2d	-0.36571637
222	0x3fa94b36	1.3226078
223	0xbf84d83b	-1.0378488
224	0xbf424032	-0.75879204
225	0xbf6183c7	-0.880917
226	0xbf83179c	-1.024158
227	0xbf04aa69	-0.51822525
228	0xbf59df7b	-0.8510663
229	0x3f9b620f	1.21393
230	0xbf6b1e25	-0.9184287
231	0x3e95a94d	0.2923073
232	0xbf53652e	-0.8257626
233	0x3ed6deff	0.41967008
234	0x3d930ecc	0.07180557
235	0x3f49f390	0.7888727
236	0xbf4d5032	-0.80200493
237	0x3f6f6631	0.93515307
238	0x3f8f495e	1.1194265
239	0x3fb15a19	1.3855621
240	0xbdccf581	-0.10007764
241	0xbf5846c0	-0.84482956
242	0xbf28b6de	-0.65904033
243	0xbfb960db	-1.4482683
244	0xbf6253e5	-0.8840926
245	0x3d4e52e7	0.05037203
246	0xbe2d5b40	-0.1692934
247	0xbf2d5720	-0.6771107
248	0x3e93b47a	0.2884863
249	0xbf1c50ec	-0.61060977
250	0xbf1755c7	-0.5911526
251	0x3f8b3ddf	1.0878257
252	0xbf40c45d	-0.75299627
253	0x3f5918a3	0.8480322
254	0x3f48ecc4	0.78486276
255	0x3f05923d	0.52176267

value_N1.bias_epsilon f4 [32]
0	0xbf973389	-1.1812602
1	0xbf4ae369	-0.7925325
2	0xbfa6f5cf	-1.3043765
3	0x3f778a22	0.9669515
4	0x3f4a775d	0.79088384
5	0xbe91771c	-0.28411186
6	0xbf89a793	-1.0754265
7	0x3ea067fe	0.3132934
8	0x3f806c44	1.003304
9	0x3f9783e5	1.1837126
10	0x3ec96791	0.39336827
11	0xbf8db28e	-1.1070116
12	0xbf3d61ad	-0.73977166
13	0x3f9dd39e	1.2330205
14	0xbf640cc3	-0.8908197
15	0x3f0f443e	0.55963504
16	0xbf9739db	-1.1814531
17	0xbf613637	-0.8797335
18	0xbea1f564	-0.3163253
19	0x3fa90ddf	1.3207358
20	0xbf97685c	-1.1828723
21	0x3f573332	0.8406249
22	0x3f3604cf	0.7110109
23	0x3fdcaceb	1.724027
24	0x3f1fb552	0.6238605
25	0xbec81840	-0.39081
26	0xbf81a26e	-1.0127695
27	0xbfb98b79	-1.4495689
28	0x3edc90c0	0.43079185
29	0xbf3ba333	-0.732959
30	0x3efb455f	0.49076363
31	0x3e03880e	0.1284487

value_N2.weight_mu f4 [4, 32]
0	0xbe9d7b94	-0.30758345
1	0xbe8b6720	-0.27227116
2	0xbe99ff21	-0.3007746
3	0xbe010137	-0.1259812
4	0xbd2aaec6	-0.041670583
5	0xbe114e27	-0.14189969
6	0xbeba5f14	-0.36400664
7	0xbe4cca04	-0.19998938
8	0x3f2a65c0	0.6656151
9	0xbe79c46f	-0.2439134
10	0xbded867f	-0.11597919
11	0xbe2c42e9	-0.16822399
12	0xbef25f81	-0.4733849
13	0xbed9a4f6	-0.42508668
14	0xbdbc4f5e	-0.091948256
15	0xbe795930	-0.24350429
16	0xbd7dee6a	-0.061994947
17	0xbec9da77	-0.39424488
18	0xbea61e29	-0.32444885
19	0xbc592ad5	-0.013254841
20	0x3f475cd1	0.77876
21	0x3e9167fc	0.28399646
22	0xbe482211	-0.19544245
23	0xbec2d260	-0.38051128
24	0xbeac6465	-0.33670345
25	0x3ee255fe	0.44206232
26	0xbea0b626	-0.31388968
27	0x3f2a90c0	0.6662712
28	0xbe8a8e20	-0.27061558
29	0xbebfbdcc	-0.3744949
30	0xbed35860	-0.41278362
31	0x3eb861af	0.36012027
32	0xbe2b69c2	-0.16739562
33	0xbe9947c8	-0.29937577
34	0xbdf3238a	-0.11872013
35	0xbec4493f	-0.38337132
36	0xbd2472bf	-0.040148493
37	0xbed84b0f	-0.42244765
38	0xbddf1e2e	-0.10894428
39	0xbe721c92	-0.23643711
40	0x3f389461	0.7210141
41	0xbeba810b	-0.36426577
42	0xbf06eed6	-0.52708185
43	0xbdb885b1	-0.090098746
44	0xbe7fb4ce	-0.24971315
45	0xbeb66397	-0.35622856
46	0xbe8aacb6	-0.27084893
47	0xbe659004	-0.22418219
48	0xbeb1b052	-0.34704834
49	0xbdd98590	-0.10621178
50	0xbe788230	-0.24268413
51	0xbe4a980e	-0.19784567
52	0x3f6e7292	0.9314357
53	0x3f21692a	0.6305109
54	0xbe10c082	-0.14135936
55	0xbea248ff	-0.31696317
56	0xbecce8c4	-0.40021336
57	0x3ec6d8a6	0.38837165
58	0xbeae2c1a	-0.34018022
59	0x3f3308c5	0.69935256
60	0xbe6b52f5	-0.22980864
61	0xbeba7ebf	-0.36424825
62	0xbeeb4f35	-0.45958868
63	0x3e8bbf8c	0.27294576
64	0xbedeffc0	-0.43554497
65	0xbe7c650e	-0.24647924
66	0xbe91ed2c	-0.2850126
67	0xbec996f6	-0.39372987
68	0x3cb30e1e	0.021857318
69	0xbe954b9c	-0.29159248
70	0xbe8ddbd2	-0.27706772
71	0xbec977d4	-0.39349234
72	0x3f13f132	0.5778991
73	0xbe8a148b	-0.26968798
74	0xbe3c5549	-0.18391909
75	0xbe6d5c49	-0.23179735
76	0xbe4f816f	-0.20264219
77	0xbe0d6221	-0.13806964
78	0xbe8605a9	-0.26176193
79	0xbe95260a	-0.29130584
80	0xbe588736	-0.21145329
81	0xbeccfcae	-0.4003653
82	0xbe600fc5	-0.21881016
83	0xbeba7b88	-0.36422372
84	0x3f05ffc9	0.5234342
85	0x3f3a0193	0.7265865
86	0xbe34afb9	-0.17645158
87	0xbe9186e7	-0.28423235
88	0xbe94cb59	-0.29061392
89	0x3ed22eb6	0.41051263
90	0xbe8fd08c	-0.28088796
91	0x3eb9a9eb	0.3626245
92	0xbeb78412	-0.3584295
93	0xbe87fd6c	-0.26560533
94	0xbe1b1f7f	-0.15148734
95	0x3e850b79	0.25985315
96	0xbe81806e	-0.25293297
97	0xbe782c7c	-0.2423572
98	0xbeb00186	-0.34376162
99	0xbea23cb7	-0.31686947
100	0x3e214348	0.15748322
101	0xbe9c39f4	-0.30512965
102	0xbea3bafe	-0.319786
103	0xbe06d365	-0.13166578
104	0x3f2148b6	0.63001573
105	0xbea799b3	-0.3273445
106	0xbe8895d8	-0.26676822
107	0xbece7f9c	-0.40331733
108	0xbe665fd5	-0.22497495
109	0xbe9a3f41	-0.30126384
110	0xbeb2bf43	-0.34911546
111	0xbecb687a	-0.39728147
112	0xbe94ed0b	-0.290871
113	0xbe612a1c	-0.2198872
114	0xbed0649f	-0.40701768
115	0xbde3d63d	-0.11124847
116	0x3f26d7d0	0.65173054
117	0x3f046bc0	0.51726913
118	0xbed371d4	-0.4129778
119	0xbdbb57d2	-0.0914761
120	0xbe9133c5	-0.2835981
121	0x3effd79c	0.49969184
122	0xbe8d7dc8	-0.27635026
123	0x3f21707b	0.63062257
124	0xbe8c5fd5	-0.27416864
125	0xbe333f55	-0.17504628
126	0xbdfef923	-0.12449863
127	0x3f04b5f6	0.5184015

value_N2.weight_sigma f4 [4, 32]
0	0x3c1cdcfe	0.009574173
1	0x3c2d57ec	0.010580044
2	0xbbe5218d	-0.006992525
3	0x3c09ced6	0.00841113
4	0x3d66de34	0.056364253
5	0x399548c8	0.0002847372
6	0xbbc993ed	-0.0061516673
7	0x3bb6685f	0.005566641
8	0x3a876caa	0.0010332067
9	0xbc0aa57d	-0.008462307
10	0xbb076a53	-0.002066274
11	0xbc14830a	-0.009064445
12	0x3c252c3e	0.010081349
13	0x3c3da24b	0.011574338
14	0x3bf2336c	0.007391384
15	0xbb66e056	-0.003522893
16	0x3c524597	0.012833974
17	0x3ceb1fb2	0.028701637
18	0x3c26219f	0.010139852
19	0xbbda487d	-0.0066614733
20	0xbaf67c75	-0.0018805402
21	0x3ad828bd	0.0016491633
22	0xba843b10	-0.0010088403
23	0xbb90eba0	-0.00442262
24	0x3c582dfc	0.013194557
25	0x39b2f50c	0.0003413338
26	0xbaf718fc	-0.001885205
27	0x3b1c71f3	0.002387163
28	0xbbc85c44	-0.0061145145
29	0xb989955d	-0.0002624196
30	0x3c1386ae	0.009004278
31	0xbb930f9b	-0.0044879443
32	0xbabbad47	-0.0014318608
33	0xba7eb4fd	-0.00097163004
34	0xbba3c186	-0.004997435
35	0xbb8082c5	-0.003921839
36	0x3d489fa8	0.048980385
37	0x3b266b58	0.0025393572
38	0xba184f32	-0.0005810141
39	0x3920b595	0.00015326434
40	0x3b2c27e2	0.002626889
41	0x3b659886	0.0035033538
42	0xbaf96cb1	-0.0019029585
43	0xbaeaa772	-0.0017902686
44	0xbbf72300	-0.007542014
45	0x3b351db3	0.002763611
46	0x3b29f8f5	0.0025935743
47	0x3a1d4cc0	0.00060005113
48	0xbb3765fd	-0.0027984374
49	0x3a5cce84	0.0008423107
50	0xbb487bcf	-0.0030591374
51	0xb94fd38b	-0.00019819864
52	0x3b350fd0	0.0027627833
53	0xb9a56e06	-0.00031553226
54	0x3b000257	0.0019532645
55	0x3ab7c22a	0.0014019657
56	0x3b9fcedb	0.004876954
57	0xbab04d10	-0.0013450701
58	0xbb5b01be	-0.0033417786
59	0x3adf78cb	0.0017049549
60	0xb930734d	-0.00016827621
61	0x3a8c2f08	0.0010695169
62	0xbb256a10	-0.002524022
63	0xbb330353	-0.0027315214
64	0x3b62d475	0.0034611498
65	0x3b1a22fb	0.0023519385
66	0x3a0978ac	0.0005244117
67	0x3bab3e2b	0.005225917
68	0x3d84fc6c	0.06493458
69	0xbb753e82	-0.003742129
70	0xbae2707c	-0.0017275955
71	0xbba865e4	-0.0051390994
72	0x39b4135d	0.00034346702
73	0x3a27903a	0.0006392036
74	0x3b6798b1	0.0035338814
75	0x3b4c83db	0.0031206522
76	0x3b3b9e6a	0.0028628358
77	0xbad6f7c1	-0.0016400741
78	0x3bba7596	0.005690287
79	0xba1c9a71	-0.00059739413
80	0x3b0997c0	0.002099499
81	0x3bab9847	0.0052366587
82	0xba1d5e54	-0.00060031307
83	0xbb694d8f	-0.0035599207
84	0xba8126d3	-0.000985349
85	0xb971d711	-0.0002306367
86	0x3b0d3f6b	0.0021552693
87	0x3ba8c411	0.005150326
88	0x3b12549a	0.0022328258
89	0xb7e89ff6	-2.7731043e-05
90	0xbac1169a	-0.0014731467
91	0xba0d0ae1	-0.0005380344
92	0x3a672a12	0.00088182196
93	0x3adec461	0.0016995781
94	0xbbc58804	-0.006028177
95	0x3b96ba91	0.004599877
96	0xbc070b69	-0.0082424665
97	0xbbbf7468	-0.005842734
98	0xbc060760	-0.008180469
99	0x39c236a7	0.00037043283
100	0x3db677af	0.089095466
101	0x3b59d51f	0.0033238602
102	0xbb8a0db8	-0.004213061
103	0xbb5b2eab	-0.0033444564
104	0xbb65163d	-0.0034955882
105	0xbb8f9d8d	-0.004382795
106	0xbaf58f26	-0.0018734678
107	0x3beee59b	0.0072905547
108	0xbba34b0e	-0.0049833125
109	0x3baac7b8	0.0052117966
110	0x3b124ad2	0.0022322428
111	0xbb3fa7e1	-0.002924435
112	0x3b23c7ca	0.002499091
113	0xbb40ddac	-0.0029429002
114	0xb9095c87	-0.00013099807
115	0x3b488f41	0.0030602964
116	0xbb2bfb6c	-0.0026242388
117	0x3aa52409	0.001259924
118	0xba8fa56a	-0.0010959331
119	0xbbf5042d	-0.0074773044
120	0x3b31112e	0.0027018297
121	0xb9e878fa	-0.00044340623
122	0x3b1379a5	0.0022502926
123	0xbc198e65	-0.009372328
124	0xbbaea9ed	-0.0053303153
125	0x3b8d093c	0.0043040793
126	0xbbec1097	-0.007204126
127	0x3bd2000a	0.006408696

value_N2.bias_mu f4 [4]
0	0x3bc4e320	0.0060085207
1	0x3e8ae146	0.27124995
2	0x3e9cb4fe	0.30606836
3	0xbda2fb51	-0.07958091

value_N2.bias_sigma f4 [4]
0	0x3c31047e	0.010804294
1	0xbc858fd2	-0.01630393
2	0x3c163f03	0.009170297
3	0xbb62ed1e	-0.0034626196
