Lunar_Lander/Rainbow_Lunar/Checkpoints/checkpoint_lunar_agentDueling_noisy_PER_multi.pth (torch_old, 94278 bytes, 28 tensors)

fc1.weight f4 [128, 8]
0	0xbdb0b3f1	-0.08628071
1	0x3ef9b264	0.48768914
2	0xbebedf6e	-0.37279838
3	0xbe7484e8	-0.23878825
4	0xbf5744bb	-0.8408925
5	0x3e69eb17	0.22843586
6	0xbc4bdd22	-0.012442859
7	0x3e995e0d	0.29954568
8	0x3e892710	0.26787615
9	0xbea033d3	-0.3128954
10	0x3ec621e3	0.3869773
11	0xbf11336b	-0.5671908
12	0xbe58d0ba	-0.21173373
13	0xbf5a2652	-0.8521472
14	0xbe66dd5d	-0.22545381
15	0x3d49e2ca	0.04928855
16	0x3e80c64b	0.25151286
17	0xbe3a1fe6	-0.18176231
18	0xbdccb795	-0.09995953
19	0xbecad977	-0.39619038
20	0x3ee0e2f3	0.4392315
21	0x3f1cf108	0.61305285
22	0xbe38a42a	-0.18031374
23	0x3ebddeae	0.37083954
24	0x3e8b10ac	0.27161157
25	0x3e530fc7	0.20611487
26	0x3e99a000	0.30004883
27	0x3d87ed35	0.066370405
28	0xbee83134	-0.4535004
29	0xbea29781	-0.31756213
30	0x3e71bd1b	0.23607294
31	0x3f0055a9	0.5013071
32	0xbe917bcf	-0.2841477
33	0x3e47dfb5	0.19518931
34	0xbeaed628	-0.34147763
35	0xbe4b4b7a	-0.19853011
36	0xbe8c6cd5	-0.27426782
37	0x3eca9ed4	0.395743
38	0x3e713115	0.2355388
39	0x3e84e995	0.2595946
40	0x3e63a112	0.22229412
41	0xbe01a11d	-0.12659116
42	0xbd5e9bc0	-0.054347754
43	0xbdd17e42	-0.1022916
44	0xbd420d71	-0.0473761
45	0xbd19ff8c	-0.037597224
46	0x3ecac81a	0.3960579
47	0x3e761e68	0.24035037
48	0xbe5081f7	-0.20362078
49	0xbe32966d	-0.17440195
50	0x3ed04114	0.4067465
51	0x3fabe1d0	1.3428288
52	0x3e3bb0eb	0.18329208
53	0x3ed1cae5	0.4097511
54	0x3e95aee5	0.29234996
55	0xbe06ad5e	-0.13152072
56	0xbf2ee483	-0.6831743
57	0xbe081d6e	-0.13292477
58	0xbeb417a5	-0.3517429
59	0x3cb3aa87	0.0219319
60	0x3f5383ac	0.8262279
61	0x3e123705	0.14278801
62	0xbe9e0e93	-0.30870494
63	0x3e1ecb2e	0.15507194
64	0xbe013c03	-0.12620549
65	0x3d9331ad	0.07187209
66	0x3ec5d582	0.38639456
67	0xbe28fd1e	-0.16502807
68	0xbe9372bf	-0.28798482
69	0x3f546a35	0.8297456
70	0xbf14f90a	-0.58192503
71	0xbd469542	-0.048482187
72	0x3db279d1	0.08714641
73	0x3f1fd4cd	0.62434083
74	0x3eada2aa	0.33913165
75	0x3e91b807	0.28460714
76	0x3f4ae103	0.7924959
77	0xbe0477d8	-0.12936342
78	0xbe8e5c88	-0.2780497
79	0xbf03397d	-0.51259595
80	0xbf0b22a7	-0.5434975
81	0x3f8e78c9	1.1130611
82	0x3d89bb46	0.06725173
83	0xbea13026	-0.31482047
84	0xbf1903c1	-0.59771353
85	0x3d8af24d	0.067844965
86	0xbe5a2223	-0.21302085
87	0xbe003d5f	-0.12523411
88	0xbddd5917	-0.10808008
89	0xbe5df83e	-0.21676728
90	0xbea19553	-0.31559238
91	0x3d2eb457	0.042652454
92	0x3eb5294f	0.35383078
93	0x3f3855aa	0.72005713
94	0xbf28847a	-0.65827143
95	0xbe58b6ff	-0.21163557
96	0x3dfa7c54	0.12230745
97	0xbe326bb8	-0.17423904
98	0xbe88fbc6	-0.26754588
99	0xbeb269e4	-0.34846413
100	0x3ebeb942	0.37250715
101	0x3f3c062d	0.73446923
102	0xbec4b4b3	-0.38419113
103	0x3d9b64bb	0.07587572
104	0xbf895b85	-1.0731055
105	0x3e49106c	0.1963517
106	0x3c38c409	0.011277207
107	0xbd649e95	-0.055815298
108	0xbd975d48	-0.07390839
109	0x3d501863	0.050804507
110	0xbd904371	-0.070441134
111	0x3e159b77	0.14610086
112	0x3dbb884f	0.09156858
113	0x3f6ae26a	0.9175173
114	0x3d276848	0.040870935
115	0xbe9a9c4d	-0.30197373
116	0x3dd5f7ae	0.10447632
117	0x3ee10659	0.43950155
118	0x3da78b20	0.08180833
119	0xbe8a56e4	-0.27019417
120	0x3e86bce8	0.26316
121	0x3e8f6323	0.28005323
122	0xbee08197	-0.4384887
123	0x3df89a1f	0.12138771
124	0xbb6ad4d4	-0.0035832422
125	0xbf191641	-0.5979958
126	0x3ca1862e	0.019717302
127	0xbf0d8d8b	-0.552941
128	0x3e02c864	0.12771755
129	0x3e67b085	0.2262593
130	0xbe1eadda	-0.15496007
131	0x3e09bc56	0.1345075
132	0x3cda6a2d	0.026661957
133	0xbf0989d5	-0.5372594
134	0x3f06510f	0.52467436
135	0x3de0cca7	0.10976534
136	0xbe53f828	-0.20700133
137	0xc012b77d	-2.2924492
138	0xbf046b29	-0.51726013
139	0x3e80800f	0.250977
140	0x3f099977	0.53749794
141	0x3f5e5afb	0.86857575
142	0x3ed1fca7	0.4101307
143	0x3de31f7d	0.1108999
144	0x3dc63992	0.096789494
145	0x3e1818c6	0.148532
146	0x3e2823cb	0.16419904
147	0x3ec64b24	0.38729203
148	0xbd396480	-0.04526186
149	0xbed23783	-0.41057977
150	0xbea32ca4	-0.31869996
151	0xbf26fdee	-0.65231216
152	0x3ab3c0bb	0.0013714054
153	0x3fab03fe	1.3360593
154	0x3dc7f257	0.097630195
155	0xbf684228	-0.90725946
156	0x3e4033f4	0.18769819
157	0xbdb1f45d	-0.08689187
158	0xbe31e2fd	-0.17371745
159	0xbdc3b96b	-0.0955685
160	0xbebadf91	-0.36498693
161	0x3e377897	0.17917095
162	0xbf2b548b	-0.6692588
163	0xbeed461e	-0.46342558
164	0xbd35dcb2	-0.044399925
165	0xbdbd1071	-0.092316516
166	0xbe89cf9e	-0.26916212
167	0x3d72b5e1	0.059255484
168	0xbeada0b2	-0.33911663
169	0xbe711ba0	-0.23545694
170	0xbe9c735f	-0.3055677
171	0xbdf23b15	-0.11827675
172	0x3f9ac6a6	1.2091873
173	0xbc6c20e0	-0.014412135
174	0xbed6a0b0	-0.4191947
175	0x3ea99179	0.331188
176	0x3df5b70e	0.119978055
177	0xbd0f6f56	-0.035018288
178	0x3ed90ffd	0.4239501
179	0xbec88766	-0.391658
180	0xbe8eebf6	-0.279144
181	0xbdbc7a22	-0.092029825
182	0x3e932bcb	0.2874435
183	0x3d8f17da	0.06986971
184	0x3f039f06	0.51414526
185	0x3e277161	0.16351844
186	0x3e51707c	0.20453066
187	0xbe709f20	-0.23498201
188	0xbf80a9f8	-1.005187
189	0x3d88567f	0.06657123
190	0x3ec57fd1	0.3857408
191	0x3ef7ee27	0.48423883
192	0x3ef0b357	0.47011825
193	0x3e9ba62d	0.3040022
194	0xbd658afb	-0.056040745
195	0xbde4991f	-0.11162018
196	0x3e86c332	0.26320797
197	0x3c1d34ed	0.009595138
198	0xbe00497f	-0.12528037
199	0x3d3f3cdd	0.046688903
200	0x3d03b694	0.032156542
201	0x3f06ea36	0.5270113
202	0xbeb36618	-0.3503883
203	0xbeb67bd7	-0.35641357
204	0xbf53a24e	-0.8266953
205	0x3e279138	0.1636399
206	0xbddc159b	-0.107463084
207	0x3ea2e76e	0.31817192
208	0x3ef194f8	0.47183967
209	0x3d1c697d	0.03818654
210	0x3ebd2aef	0.36946818
211	0xbe7b8ea6	-0.24566135
212	0x3e9009e5	0.2813255
213	0x3be62d49	0.0070244414
214	0x3eb7fdad	0.35935727
215	0xbb4a366c	-0.0030855192
216	0xbeb539d6	-0.35395688
217	0x3dad941e	0.08475517
218	0xbdf4e4d8	-0.11957711
219	0xbe74b1c0	-0.23895931
220	0xbfb51deb	-1.4149755
221	0x3ea1fcee	0.31638283
222	0x3d71d644	0.05904223
223	0x3e8738af	0.26410434
224	0xbefcc7a5	-0.49371067
225	0x3e46d3af	0.19416688
226	0xbe9af3cb	-0.30264124
227	0x3e53aca9	0.20671333
228	0xbf67b44a	-0.90509474
229	0xba6d0cf0	-0.00090427604
230	0x3c7d0b57	0.015444598
231	0x3eba810e	0.36426586
232	0xbda30336	-0.07959597
233	0x3fa85221	1.3150064
234	0x3e473757	0.19454704
235	0xbf1f3d39	-0.62202793
236	0x3e64ed23	0.22356085
237	0xbd8a5d25	-0.06756047
238	0xbea53102	-0.32263952
239	0xbd0beec3	-0.034163248
240	0x3f4f8c67	0.8107361
241	0x3f366232	0.71243584
242	0x3e59fddf	0.2128825
243	0x3ec9e457	0.39432022
244	0xbd21911f	-0.03944504
245	0x3e12139d	0.14265294
246	0x3e429b0c	0.19004458
247	0xbefc372f	-0.49260852
248	0xbf0aadd4	-0.5417149
249	0x3dbcea0e	0.0922433
250	0xbdf011c8	-0.117221415
251	0x3f06dbf2	0.5267936
252	0x3ec525a8	0.38505292
253	0xbd21c0eb	-0.03949062
254	0xbee0a6c6	-0.43877238
255	0xbc83efbe	-0.016105529

fc1.bias f4 [128]
0	0x3e09295b	0.13394682
1	0xbec24e60	-0.3795042
2	0xbec7e329	-0.39040497
3	0x3d5465dd	0.051854957
4	0x3e2ef13e	0.17084214
5	0x3e539497	0.20662151
6	0x3f037ec3	0.513653
7	0x3e82d0a0	0.25549793
8	0xbd5ac49e	-0.053410165
9	0xbe3e8b76	-0.18607888
10	0x3e7c12b4	0.2461651
11	0xbdf437d8	-0.11924714
12	0xbe3fe940	-0.18741322
13	0x3dca75b3	0.098857306
14	0xbe565659	-0.20931377
15	0x3d726d84	0.059186473
16	0x3a2e5357	0.0006649992
17	0x3df1f8b0	0.118150115
18	0x3dae91a6	0.08523874
19	0x3e4bc465	0.19899137
20	0x3eae58ac	0.34052026
21	0x3e2b2073	0.16711597
22	0x3ea3c55e	0.31986517
23	0x3e18e6a3	0.14931731
24	0xbe9d665a	-0.3074215
25	0x3ed64ea7	0.41856882
26	0xbc21fada	-0.009886468
27	0x3e31cf08	0.17364132
28	0x3ee0e399	0.43923643
29	0x3f128bba	0.57244456
30	0xbe8a7fb0	-0.27050543
31	0x3e035004	0.12823492
32	0x3f0ca5bc	0.5494039
33	0x3e58271e	0.21108672
34	0x3ea88d9d	0.32920542
35	0x3e0a1a9e	0.13486716
36	0xbe855788	-0.26043344
37	0x3ed0918a	0.40736037
38	0x3eb71927	0.35761377
39	0x3e992ad2	0.29915482
40	0xbdf92458	-0.12165135
41	0xbe8d3ad0	-0.27583933
42	0x3e2bfce0	0.16795683
43	0xbe9a42c0	-0.3012905
44	0x3e8b3099	0.27185515
45	0x3f088b1e	0.53337276
46	0x3d874cb3	0.06606426
47	0x3e6c4a07	0.23075114
48	0x3edc5242	0.43031508
49	0x3cae59a4	0.021282978
50	0x3f0ecb34	0.55778813
51	0xbec13a64	-0.3773986
52	0xbe4d34ed	-0.20039721
53	0x3ea7daa5	0.32784
54	0x3f32aacc	0.69791865
55	0x3ed360a4	0.41284668
56	0x3ef0c508	0.47025323
57	0xbeb215ba	-0.347822
58	0xbce1801f	-0.027526913
59	0x3d041ce3	0.03225411
60	0x3ea907d8	0.33013797
61	0x3ee4d360	0.44692516
62	0x3e914f03	0.28380594
63	0x3d7a21f1	0.061067525
64	0x3d5fb541	0.054616217
65	0xbe7a708f	-0.24457
66	0xbd750b41	-0.059825186
67	0xbd277bb6	-0.040889464
68	0x3d739953	0.059472393
69	0xbdb61cc6	-0.08892207
70	0x3e9e4bb5	0.30917135
71	0xbde0943e	-0.10965775
72	0x3e6df40a	0.23237625
73	0xbdbc5a8f	-0.0919696
74	0xbd9e8a29	-0.07741196
75	0x3ea65b9d	0.3249177
76	0xbcb8a85d	-0.02254122
77	0x3aa4a371	0.0012560916
78	0x3e7965a9	0.24355187
79	0x3cfa2e54	0.03053967
80	0x3d65b5d8	0.056081623
81	0x3f190a50	0.5978136
82	0xbee90075	-0.4550816
83	0x3d35383f	0.044243094
84	0x3eae5261	0.34047225
85	0x3e5f1308	0.21784604
86	0xbe6fcde1	-0.2341838
87	0xbed385d4	-0.4131304
88	0x3d7bbe16	0.061460577
89	0x3eb030bf	0.3441219
90	0xbe328a59	-0.17435588
91	0xbdce00b8	-0.10058731
92	0xbe31ebee	-0.17375156
93	0x3d9fe31c	0.078069896
94	0xbe03a1ae	-0.12854645
95	0xbdccf2a0	-0.100072145
96	0x3c7623a1	0.015023143
97	0xbeb40ef5	-0.3516766
98	0x3dabd718	0.08390635
99	0xbe84bc32	-0.25924832
100	0xbe290b4c	-0.16508216
101	0xbcca6eb6	-0.024710994
102	0xbe3a3b96	-0.18186793
103	0xbd989135	-0.07449571
104	0x3e4e8ab0	0.20170093
105	0xbea0ab83	-0.31380853
106	0xbde9e38f	-0.114203565
107	0x3e4a4aa4	0.19755036
108	0x3eba6688	0.3640635
109	0x3ea56781	0.3230553
110	0x3e80c2b0	0.25148535
111	0x3dc57e2f	0.09643208
112	0x3d4d4f56	0.05012449
113	0x3e170cee	0.14751026
114	0x3dfbee74	0.12301341
115	0xbdb8cb9e	-0.09023212
116	0xbd2c85d1	-0.042119805
117	0x3ef9f8e2	0.48822695
118	0xbde03cdb	-0.10949107
119	0xbd105d3d	-0.03524517
120	0x3ee51455	0.44742075
121	0xbed084e2	-0.40726382
122	0x3e556a95	0.20841439
123	0xbd88ed87	-0.0668593
124	0x3eac2e43	0.33629045
125	0xbe797432	-0.24360731
126	0x3ee769a6	0.4519779
127	0xbe066c64	-0.13127285

fc2.weight f4 [64, 128]
0	0xbcf1e9ec	-0.029530488
1	0x3dde51f8	0.10855478
2	0x3ef2a4a7	0.47391245
3	0x3ccdfc6f	0.025144784
4	0x3c038728	0.008027829
5	0x3f155f30	0.5834837
6	0xbe1a4d6d	-0.15068598
7	0x3e528118	0.20557058
8	0xbd97eddc	-0.07418415
9	0xbd82e8e5	-0.06392077
10	0xbcb4824c	-0.022034787
11	0x3f2ad75b	0.66734856
12	0x3dfe3469	0.1241234
13	0x3e67a713	0.22622328
14	0x3d3e0f43	0.046401273
15	0xbd9681bd	-0.07348964
16	0xbde8d91b	-0.113695346
17	0xbdc6d989	-0.0970946
18	0x3d4c6d36	0.04990884
19	0x3e2ce046	0.16882429
20	0x3c8361f9	0.016037928
21	0x3cda3173	0.026634907
22	0xbb132c91	-0.0022456984
23	0xbe32623d	-0.17420287
24	0xbed03275	-0.40663496
25	0x3d126f0d	0.035750438
26	0x3e086f50	0.13323712
27	0xbe889c77	-0.26681873
28	0x3c42cb4d	0.011889291
29	0x3c87b145	0.01656402
30	0x3f054c2a	0.5206934
31	0x3e1ed76f	0.15511869
32	0xbccff514	-0.025385417
33	0xbe814836	-0.25250405
34	0x3e0b1bfa	0.13584891
35	0x3e9c06e7	0.30474016
36	0xbd1d7994	-0.038446024
37	0xbe34e9db	-0.17667334
38	0x3e87adc6	0.26499766
39	0xbd44c5ff	-0.048040386
40	0x3e66d788	0.22543156
41	0xbdfeafc9	-0.12435872
42	0x3cbd2d6e	0.023092952
43	0xbefbb9bc	-0.49165142
44	0xbde8a682	-0.11359884
45	0x3ddec1f8	0.1087684
46	0x3d196d57	0.03745779
47	0xbcb0052e	-0.021486845
48	0x3d7f35a7	0.062307026
49	0x3ef638aa	0.48090106
50	0x3dcb4adb	0.09926387
51	0x3f125907	0.57167095
52	0x3e653f26	0.2238737
53	0xbf11fa22	-0.570223
54	0x3ca11dba	0.019667495
55	0xbed7b792	-0.4213224
56	0xbecdc685	-0.4019052
57	0xbdaed6ac	-0.08537039
58	0x3d0f3fd6	0.034972988
59	0xbd584bbc	-0.0528066
60	0x3e2afc20	0.1669774
61	0xbd58d52b	-0.052937668
62	0xbf33f444	-0.70294595
63	0x3f2b796f	0.6698217
64	0xbc0f9ccb	-0.00876541
65	0x3ea3cc71	0.31991914
66	0x3e695f2e	0.22790214
67	0xbeec14ea	-0.46109706
68	0x3eb329d0	0.34992838
69	0x3e27f63e	0.16402528
70	0x3daf1df0	0.08550632
71	0x3e3a71ad	0.18207426
72	0x3c4a9bdd	0.012366262
73	0xbda0540d	-0.078285314
74	0xbe7d48e9	-0.24734844
75	0x3e24d68f	0.16097473
76	0x3ddb1de3	0.1069906
77	0x3e215d23	0.15758185
78	0x3ddcb2c3	0.107762836
79	0x3f23765a	0.63852465
80	0x3c059a97	0.008154533
81	0xbb52271b	-0.0032066766
82	0xbf14c73c	-0.5811651
83	0x3d4ce623	0.050024163
84	0xbcfe9bd1	-0.031080158
85	0x3ef0387c	0.46918094
86	0xbdf92aed	-0.121663906
87	0xbedba88a	-0.42902023
88	0x3e0945b4	0.13405496
89	0xbe73d072	-0.23809984
90	0x3e2fa2b4	0.1715191
91	0xbf184bba	-0.5949055
92	0x3e440f51	0.19146468
93	0x3e5881ec	0.21143311
94	0xbe8c6837	-0.2742326
95	0x3ebb93fd	0.36636344
96	0xbeeff9a8	-0.4687016
97	0xbf2eb79f	-0.68248934
98	0x3e1f856d	0.15578242
99	0xbe2ad89c	-0.16684192
100	0xbdcd1eb6	-0.10015623
101	0x3deabb18	0.114614666
102	0xbe7ae2d1	-0.24500586
103	0x3e8583d4	0.2607714
104	0x3dcf1bec	0.101127476
105	0xbea03e08	-0.31297326
106	0x3e458c9b	0.19291918
107	0xbefcce3b	-0.4937609
108	0x3c6b46de	0.014360158
109	0x3dea93fe	0.114540085
110	0x3e9c0956	0.30475873
111	0xbdcf9b68	-0.10137063
112	0x3e1c1a9a	0.15244523
113	0xbdb38554	-0.08765665
114	0xbee0e85d	-0.4392728
115	0x3f2c73e3	0.6736433
116	0x3d3f9050	0.046768486
117	0x3dbd1cb8	0.09233993
118	0xbe519018	-0.20465124
119	0x3f00a389	0.50249535
120	0xbdcbe9ea	-0.09956725
121	0xbf407653	-0.7518055
122	0xbd3856d2	-0.045004673
123	0x3e8eed25	0.27915302
124	0x3e6ec22f	0.23316263
125	0x3edd86c3	0.43266878
126	0x3cee3676	0.029078703
127	0xbe40c9e4	-0.18827015
128	0x3cdeda28	0.027203634
129	0xbdeb1fe2	-0.114806905
130	0x3f0b22dd	0.5435007
131	0x3dc9b003	0.09848025
132	0x3e210ba1	0.15727092
133	0x3ee01e49	0.43773106
134	0xbdcdc003	-0.10046389
135	0x3ea7839e	0.32717603
136	0x3ca750d3	0.020424282
137	0xbd83b085	-0.06430153
138	0x3e514897	0.20437847
139	0x3f26e889	0.6519857
140	0x3dfb241d	0.122627474
141	0x3ec6a770	0.3879962
142	0x3d53f95e	0.051751487
143	0xbe883a73	-0.26607093
144	0xb8c6ea4c	-9.485017e-05
145	0xbd42f47d	-0.047596443
146	0x3e64dffa	0.22351065
147	0x3d3d615f	0.04623544
148	0x3d9551d0	0.07290995
149	0x3d9e1324	0.077184945
150	0x3d507fdf	0.050903197
151	0xbe08e2a9	-0.13367714
152	0xbf553c24	-0.8329489
153	0x3d5978e5	0.05309381
154	0xbd2d9f55	-0.04238828
155	0xbde5578d	-0.111983396
156	0x3c8fcec0	0.01755464
157	0x3d0e3fa9	0.03472868
158	0x3f0058d3	0.50135535
159	0x3eb80a89	0.35945538
160	0x3ccf2d13	0.025290048
161	0xbe52988e	-0.20566007
162	0x3e8a7a78	0.2704656
163	0x3eab5e6b	0.33470473
164	0xbd97ab98	-0.07405776
165	0xbe9be360	-0.3044691
166	0x3e670c56	0.225633
167	0xbe0dc956	-0.13846335
168	0x3e84cdc9	0.25938252
169	0xbe12c85a	-0.1433424
170	0xbd900146	-0.07031493
171	0xbea5e2b7	-0.32399532
172	0xbe9233ee	-0.28555244
173	0x3e58e735	0.21181948
174	0x3e0a60f3	0.13513546
175	0xbdb99dbd	-0.09063289
176	0xbe0ac961	-0.13553382
177	0x3ecbc79f	0.39800736
178	0xbd0e3c04	-0.034725204
179	0x3ee67195	0.4500853
180	0x3ea6fef1	0.3261638
181	0xbf3f8af6	-0.7482141
182	0xbd9bbb9f	-0.07604145
183	0xbf13b065	-0.5769103
184	0xbe883d0c	-0.26609075
185	0x3cf7f23a	0.03026687
186	0x3d076d02	0.033062942
187	0x3d9250e3	0.07144334
188	0x3e04e0ce	0.12976381
189	0x3d22fba8	0.03979078
190	0xbedd47c6	-0.4321882
191	0x3f55316a	0.83278525
192	0xbced3f0e	-0.02896073
193	0x3e7af3ef	0.24507116
194	0xbe38d0c0	-0.18048382
195	0xbef9f312	-0.4881826
196	0x3db4042d	0.08789859
197	0x3e62fd8a	0.2216703
198	0x3e3b4fd5	0.18292172
199	0x3ca85a4c	0.02055087
200	0x3e0cb210	0.137398
201	0x3cb63502	0.022242073
202	0xbe1b250b	-0.1515085
203	0x3e5f8d9f	0.21831368
204	0x3e007663	0.12545161
205	0x3e457e79	0.19286527
206	0x3c49af19	0.012309813
207	0x3ee2ca88	0.44295144
208	0x3e763585	0.24043854
209	0x3db24c25	0.0870593
210	0xbef2cddf	-0.47422692
211	0x3d64c3d8	0.055850834
212	0xbdd562a5	-0.104192056
213	0x3e23bf1b	0.1599087
214	0xbddbf25c	-0.10739586
215	0xbeac7ef2	-0.33690602
216	0x3e7f3597	0.24922787
217	0xbdd0bf75	-0.101927675
218	0x3d7afdd6	0.061277233
219	0xbf00ea8c	-0.5035789
220	0x3e2e7a87	0.17038928
221	0x3e2f31c9	0.17108835
222	0xbdd43d2d	-0.10363231
223	0x3eb7a6ed	0.35869542
224	0xbf0315ab	-0.5120494
225	0xbf5da882	-0.8658525
226	0x3e6ce911	0.23135783
227	0xbe932ba7	-0.28744242
228	0x3d7146e3	0.058905493
229	0x3d9046e7	0.070447735
230	0xbe4350f0	-0.19073844
231	0x3e84d06a	0.25940257
232	0x3b8fd84d	0.0043897987
233	0x3bb51a58	0.005526822
234	0x3e4de8b2	0.20108297
235	0xbee5900f	-0.4483647
236	0xbd6f94c4	-0.058491483
237	0x3e5773f1	0.21040322
238	0x3ea3df11	0.32006124
239	0x3e3c9049	0.18414415
240	0x3e639f32	0.22228697
241	0xbe414f6e	-0.18877956
242	0xbeacaac5	-0.33724037
243	0x3ea36288	0.3191111
244	0x3d0c25bb	0.03421567
245	0xbe21175a	-0.15731564
246	0xbe2f0c0e	-0.17094442
247	0x3ec6cb1d	0.38826838
248	0x3cd36394	0.025804318
249	0xbf1bb5c6	-0.6082424
250	0xbe3a27d3	-0.18179254
251	0x3e895439	0.2682207
252	0x3d872e8b	0.06600674
253	0x3e5caacd	0.2154953
254	0x3dab9900	0.08378792
255	0xbec847d9	-0.39117315

fc2.bias f4 [64]
0	0x3e05f836	0.13082966
1	0xbdb7ce31	-0.08974875
2	0x3e17b211	0.1481402
3	0xbd6dad0b	-0.058026355
4	0x3db8882f	0.0901035
5	0x3e9fa249	0.311785
6	0x3c9b387c	0.018947832
7	0xbccf2cf7	-0.025289996
8	0x3e8ff95a	0.28119928
9	0x3dd88ca2	0.105736986
10	0x3e0ce55b	0.13759367
11	0x3dbf3af0	0.09337413
12	0x3e2ce18c	0.16882914
13	0x3d8c7496	0.068581745
14	0x3ca9d552	0.020731602
15	0x3f08e5cb	0.53475636
16	0x3e45efc5	0.19329746
17	0xbc097e25	-0.008391892
18	0x3d9817fb	0.07426449
19	0x3d6c33ca	0.057666577
20	0x3ef68e5b	0.48155484
21	0x3d4e7787	0.05040696
22	0x3d95e7f9	0.07319636
23	0x3c81656a	0.015795428
24	0xbbf58501	-0.007492662
25	0x3d849b9a	0.06474991
26	0xbce39d7d	-0.027785057
27	0x3e4437a5	0.19161852
28	0x3e32bf81	0.17455865
29	0x3e92d6e7	0.28679582
30	0x3c819a63	0.015820688
31	0x39745bc4	0.00023303839
32	0x3d224894	0.039619997
33	0x3e0b39ee	0.13596317
34	0x3d37f71e	0.044913404
35	0x3d4aa84c	0.049476907
36	0xbd4b255a	-0.049596168
37	0x3c8096b8	0.015696868
38	0x3c5639b0	0.013075277
39	0xbd2c3314	-0.0420409
40	0x3d264066	0.04058876
41	0xbc197710	-0.009366766
42	0xbcd75a93	-0.026288306
43	0x3d04aaf9	0.032389615
44	0xbd8f4479	-0.06995482
45	0x3d7d9b1a	0.061915495
46	0x3e88318e	0.26600307
47	0x3d8e261f	0.06940865
48	0x3d436d86	0.04771187
49	0x3d07ae8b	0.03312544
50	0x3ccb1302	0.024789337
51	0x3da17d0e	0.078851804
52	0x3c68303e	0.014171658
53	0x3daa0abb	0.08302828
54	0x3e915efa	0.28392774
55	0x3eba0303	0.36330423
56	0x3e537369	0.20649494
57	0x3dbfda37	0.09367793
58	0x3e8b3d87	0.2719538
59	0x3d996275	0.07489482
60	0x3de17677	0.110089235
61	0x3e10ae31	0.14128949
62	0x3e3aa46a	0.18226781
63	0x3df33543	0.11875393

value_N1.weight_mu f4 [32, 64]
0	0x3ed938d3	0.42426166
1	0x3ee614ab	0.44937643
2	0x3e5aecfd	0.21379466
3	0x3dc1d880	0.09465122
4	0xbfa4c75d	-1.2873341
5	0x3dfc113d	0.123079754
6	0x3eae7040	0.34070015
7	0xbf6cf5c2	-0.92562497
8	0x3ed235ee	0.4105677
9	0x3eababf1	0.33529618
10	0x3e40fdf3	0.18846874
11	0x3e5bd567	0.21468125
12	0x3e865d9a	0.26243287
13	0x3e34c501	0.17653276
14	0x3e5a9098	0.2134422
15	0xbf50720d	-0.8142403
16	0x3e4b4b84	0.19853026
17	0x3ec14369	0.37746742
18	0x3cfc9ff9	0.030838
19	0xbbc7897b	-0.006089387
20	0xbea60800	-0.3242798
21	0x3ec6e6d6	0.3884799
22	0x3e95387e	0.29144663
23	0xbf4047ba	-0.75109446
24	0x3e8ba870	0.27276945
25	0x3e8f64d4	0.28006613
26	0xbdaef9ee	-0.08543764
27	0x3f1d20ff	0.61378473
28	0x3e930d1c	0.2872094
29	0x3e23fed6	0.16015181
30	0x3eda1766	0.42595977
31	0x3e0f9904	0.14023215
32	0x3de1a960	0.11018634
33	0x3e1dc810	0.15408349
34	0x3d8cb7b4	0.06870976
35	0x3ed3bf07	0.4135668
36	0x3e9a5be3	0.3014823
37	0xbf9faf20	-1.2475319
38	0x3dcd9264	0.100376874
39	0x3cc2b5d8	0.02376835
40	0x3ea54b2a	0.32283908
41	0x3e84c854	0.25934088
42	0x3e74e69a	0.23916093
43	0x3eca0416	0.39456242
44	0xbdcab10d	-0.09897051
45	0x3ed7b1bb	0.42127785
46	0x3e68a0d6	0.22717604
47	0x3ecc7aff	0.3993759
48	0x3e807cd4	0.25095236
49	0xbd10575c	-0.035239562
50	0x3d05886e	0.032600813
51	0x3e424700	0.18972397
52	0x3eb03f28	0.34423184
53	0x3e9a688b	0.30157885
54	0xbe9979d1	-0.2997575
55	0x3e9ae736	0.30254525
56	0x3e3a1fc4	0.1817618
57	0x3eacbdb1	0.33738473
58	0x3e45a562	0.1930137
59	0x3ecd2672	0.40068394
60	0x3e554e98	0.20830762
61	0x3e92af49	0.28649357
62	0x3eb3ef08	0.35143304
63	0x3ef5a93e	0.47980684
64	0x3ebe69b5	0.37190023
65	0x3ed31d25	0.41233173
66	0x3ea6c908	0.3257525
67	0x3c5b98f1	0.013403163
68	0xbef0e841	-0.47052196
69	0x3e6fbfe1	0.2341304
70	0x3f1353f2	0.57549965
71	0xbf545022	-0.8293477
72	0xbd43888f	-0.047737654
73	0x3e95f650	0.29289484
74	0x3ecbfeb3	0.39842758
75	0x3ee81afd	0.4533309
76	0x3e615b97	0.22007595
77	0xbe2c59aa	-0.16831079
78	0xbd74ee4e	-0.059797578
79	0xbf64065c	-0.89072204
80	0x3ec8cd9c	0.39219368
81	0x3eb66a28	0.35627866
82	0xbd2a9925	-0.041649956
83	0xbde691ec	-0.11258301
84	0xbeedb4f9	-0.46427134
85	0x3ee0adb0	0.43882513
86	0x3e1ec768	0.15505755
87	0xbf1099bd	-0.56484586
88	0x3e805f3e	0.25072664
89	0x3ec060b1	0.3757377
90	0x3d18a3be	0.03726553
91	0x3f231318	0.6370101
92	0x3ea9c402	0.33157355
93	0x3eb75764	0.3580886
94	0x3ed90ba1	0.42391685
95	0x3d163c24	0.03667845
96	0xbd74728b	-0.05967955
97	0x3dd280ef	0.102784984
98	0x3a0e8162	0.00054361497
99	0x3ee45fe3	0.44604406
100	0x3ee909ac	0.45515192
101	0xbfaeab8d	-1.3646103
102	0x3d666ce4	0.05625619
103	0x3d9d58ea	0.07682975
104	0x3eb63172	0.355846
105	0x3e3c21b4	0.18372232
106	0x3ed9e086	0.4255411
107	0x3ed0dc38	0.40793014
108	0xbcae530a	-0.02127983
109	0x3ed358b5	0.41278616
110	0xbd5dd8cc	-0.05416183
111	0x3f002fdb	0.5007302
112	0x3eacd171	0.3375354
113	0x3c42c0fe	0.011886833
114	0xbcf7044d	-0.030153418
115	0x3ed06113	0.40699062
116	0x3ee1d1e7	0.44105455
117	0x3dccbf43	0.09997418
118	0xbeb9986e	-0.36249107
119	0x3e8b6e3f	0.2723255
120	0x3ee42331	0.445581
121	0x3e7545d2	0.23952416
122	0x3e0a0894	0.13479835
123	0x3ed38759	0.413142
124	0x3ec9fc26	0.39450186
125	0x3eb86cbc	0.36020458
126	0x3e56bab3	0.20969658
127	0x3f0a16c1	0.5394097
128	0x3e9e9ad5	0.30977502
129	0x3e78cca6	0.24296817
130	0x3e357b6c	0.17722863
131	0x3ccae525	0.024767468
132	0xbf7f89a1	-0.9981938
133	0x3e1f207b	0.15539734
134	0x3e80be41	0.25145152
135	0xbf410e65	-0.7541259
136	0x3d8d9d13	0.06914725
137	0x3e99a0d6	0.3000552
138	0x3e806bf6	0.25082368
139	0x3d9f077f	0.07765102
140	0x3ebb9359	0.36635855
141	0x3e193cf9	0.14964665
142	0x3dd9db31	0.106375106
143	0xbf6e95a3	-0.9319708
144	0x3dc7964f	0.09745466
145	0x3e9224c9	0.2854369
146	0xbbf70efe	-0.007539629
147	0x3d63ec6d	0.055645395
148	0xbee73993	-0.45161113
149	0x3e989d00	0.29807281
150	0x3e222976	0.15836129
151	0xbf23ac09	-0.6393438
152	0x3e4f1888	0.20224202
153	0x3e61b59d	0.22041936
154	0x3e28cd19	0.16484489
155	0x3ef7535c	0.48305786
156	0x3e283f2b	0.16430347
157	0x3ebdfed7	0.3710849
158	0x3e4d306b	0.20038001
159	0x3e60d808	0.2195741
160	0x3e10f1da	0.14154759
161	0x3cf56608	0.029955879
162	0x3da8377d	0.082137085
163	0x3ea91408	0.33023095
164	0x3eacf5d4	0.33781302
165	0xbfeaf047	-1.8354577
166	0x3c3850f8	0.011249773
167	0x3c9bbff8	0.019012436
168	0x3e9e1bfb	0.30880722
169	0x3e343c64	0.17601162
170	0x3e8ab8bb	0.27094063
171	0x3e282484	0.1642018
172	0xbd9d1d70	-0.076716304
173	0x3ec62397	0.38699028
174	0x3e623c97	0.22093426
175	0x3ef04da7	0.46934244
176	0x3e9e196a	0.30878764
177	0x3bdac186	0.006675902
178	0x3dbc8a4c	0.092060655
179	0x3e0a537f	0.13508414
180	0x3e30c94b	0.17264287
181	0x3e8c78ee	0.27436012
182	0xbed1f45a	-0.41006738
183	0x3e67607e	0.22595403
184	0x3e3b5a87	0.18296252
185	0x3e30890a	0.17239776
186	0x3dcd1b60	0.10014987
187	0x3e8199c1	0.25312617
188	0x3ddb6fe2	0.10714699
189	0x3e20dcc3	0.15709214
190	0x3e729a97	0.23691784
191	0x3f1e9161	0.6194058
192	0x3eda0795	0.4258391
193	0x3ece8ead	0.40343228
194	0x3e3e1cc7	0.18565665
195	0x3edf599c	0.43623054
196	0xbef1cc92	-0.47226387
197	0x3e5e1389	0.2168714
198	0x3edb6efc	0.42858112
199	0xbf4aa1bd	-0.79153043
200	0x3e33480a	0.1750795
201	0x3e54354b	0.20723455
202	0x3e52c954	0.20584613
203	0x3e6303a2	0.22169355
204	0xbdd40a06	-0.10353474
205	0x3e80062f	0.25004718
206	0x3eea94cc	0.45816648
207	0xbf76585c	-0.96228576
208	0x3e5bd59c	0.21468204
209	0x3e9cf08a	0.30652267
210	0xbd919d81	-0.071101196
211	0x3ed21f44	0.4103948
212	0xbefce4c2	-0.49393278
213	0x3ef42f1b	0.4769219
214	0x3ed7df6f	0.42162654
215	0xbf5e79f3	-0.8690483
216	0x3e66bf6b	0.22533958
217	0x3e0dd7e3	0.13851885
218	0x3e7e7268	0.2484833
219	0x3ea86695	0.32890764
220	0x3e92e580	0.2869072
221	0x3d354508	0.044255286
222	0x3edc05f1	0.42973283
223	0x3ec3102e	0.38098282
224	0x3e96fbe0	0.2948904
225	0x3ea53865	0.32269588
226	0x3eb4d17f	0.35316083
227	0x3e96eb06	0.29476184
228	0x3ef45306	0.47719592
229	0xbfa76c55	-1.3079935
230	0x3f0d9db7	0.5531878
231	0xbd7e3ca7	-0.06206956
232	0x3e7521a9	0.23938622
233	0xba66cb93	-0.00088041386
234	0x3ee88248	0.45411897
235	0x3eb4a2fa	0.3528059
236	0x3d38e6ed	0.045142103
237	0x3ec34547	0.38138792
238	0x3e8c18e3	0.27362737
239	0x3ea07f0e	0.31346935
240	0x3ef3f8d2	0.47650772
241	0xbe030a1d	-0.12796827
242	0x3df8a746	0.1214128
243	0x3e318da2	0.17339185
244	0x3f017240	0.50564957
245	0x3e96ae01	0.2942963
246	0xbeaadc0a	-0.33371
247	0x3e0a6737	0.13515936
248	0x3e1d7ab5	0.1537884
249	0x3ec929db	0.39289746
250	0x3e9a219f	0.30103776
251	0x3ea7b7a1	0.32757285
252	0x3eae50b6	0.34045953
253	0x3ebe330e	0.37148327
254	0x3df2f61f	0.1186335
255	0x3edd3b42	0.43209273

value_N1.weight_sigma f4 [32, 64]
0	0x3adac330	0.001669025
1	0xbbc0739f	-0.005873158
2	0x3c1adbf0	0.009451851
3	0xbc803bd0	-0.01565352
4	0xbbdac3cb	-0.0066761724
5	0x3b8db406	0.004324439
6	0xbce943d6	-0.02847473
7	0x3d04b184	0.032395855
8	0x3a958e43	0.0011410195
9	0x3a2702d1	0.0006370964
10	0xbbdb6c0b	-0.0066962293
11	0x3c11d345	0.008900468
12	0xbc441e6f	-0.011970147
13	0x3cb65e4e	0.022261765
14	0x3c28aa64	0.010294531
15	0xbb2bcbac	-0.0026213927
16	0x3af2771f	0.0018498636
17	0xbb09b1f3	-0.0021010607
18	0x3d4e6625	0.05039038
19	0xbb0e4d7d	-0.0021713667
20	0xbb2eaf41	-0.0026654752
21	0x3c38a7da	0.011270488
22	0xb9936f58	-0.00028120982
23	0x3cf2d80d	0.029644037
24	0xbab2de32	-0.0013646542
25	0x3b435a72	0.0029808548
26	0xbc236723	-0.00997332
27	0xbca81c9a	-0.02052145
28	0x3b91c653	0.004448691
29	0x3b3dc23a	0.002895488
30	0x3b808afc	0.003922818
31	0x3bdb4d8e	0.006692595
32	0xbbb64813	-0.005562791
33	0xbb654361	-0.0034982788
34	0xbbc5be61	-0.006034658
35	0xb9d2f4f2	-0.0004023682
36	0x3c877b89	0.016538398
37	0x3b97aa69	0.004628469
38	0xbbe61213	-0.0070211976
39	0x3d4ccccd	0.05
40	0x3c29f72c	0.010373872
41	0x3d37e262	0.04489363
42	0xbc52e423	-0.012871775
43	0xbbf620f4	-0.0075112525
44	0x3d5e9517	0.054341402
45	0x3d19b7f4	0.037528947
46	0x3b7f873d	0.003899052
47	0xbbb85e9f	-0.005626514
48	0xbb6e27c9	-0.0036339632
49	0x3d6983bc	0.057010397
50	0x3d4b1f04	0.049590126
51	0xbb5e73ae	-0.0033943462
52	0xbc08ecd6	-0.008357247
53	0xbbb2a6a8	-0.005451996
54	0xbaa48c36	-0.0012553993
55	0xb96f797c	-0.00022838073
56	0xbbc17b10	-0.005904563
57	0x3b9f97b2	0.0048703784
58	0x3c037c79	0.008025282
59	0x3c4c256a	0.012460092
60	0xbaee6fb9	-0.0018191255
61	0x3b65953f	0.0035031585
62	0xbabe8335	-0.0014534952
63	0x3c65ebd2	0.014033275
64	0xbc278986	-0.010225659
65	0xba9b31b0	-0.001184037
66	0xbc0e6036	-0.008689931
67	0x3d318d22	0.043347485
68	0x3ca6afa5	0.020347426
69	0xbc316a51	-0.01082857
70	0xbce7cb5b	-0.02829521
71	0x3cdc3475	0.026880482
72	0x3aab4d23	0.0013069253
73	0xbc5ec356	-0.013596376
74	0x3b762187	0.0037556605
75	0xbc91f44a	-0.017816681
76	0x3c0aa6c3	0.008462611
77	0xbc0d366e	-0.008618934
78	0x3c6e2536	0.014535239
79	0x3a485111	0.00076414744
80	0x3aa067e6	0.0012237995
81	0xbb9efb5b	-0.0048517413
82	0x3d4dbecd	0.05023079
83	0xbc628eaa	-0.013827959
84	0xbba6ff6e	-0.0050963676
85	0x3cb0d79b	0.021587184
86	0xba278b2d	-0.0006391283
87	0x3bdbcfe6	0.006708133
88	0xbccd1731	-0.025035473
89	0x3a2bd424	0.0006554744
90	0xbb9dca8a	-0.0048154043
91	0x3b508e94	0.0031823264
92	0xbb2d1d7f	-0.0026415286
93	0x3b352ab9	0.0027643873
94	0xbc028450	-0.007966116
95	0xbce34d50	-0.027746826
96	0x3c83dcb4	0.01609645
97	0x3ae74590	0.0017644633
98	0xbb0f6e17	-0.0021885687
99	0x3bde7789	0.006789152
100	0x3c9312f7	0.01795338
101	0x3bda6b80	0.006665647
102	0x3d863c1e	0.06554435
103	0x3d4ccccd	0.05
104	0x3c0f1503	0.008733037
105	0x3da5f198	0.08102721
106	0x3bf9e628	0.0076263137
107	0x3c842f23	0.016135758
108	0x3d51b68a	0.051199473
109	0xbc4e8018	-0.012603782
110	0xbbdf473c	-0.0068139117
111	0x3c36bf06	0.011153942
112	0xbbb3cf60	-0.0054873675
113	0x3d54b291	0.051928107
114	0x3d4ac5c3	0.049505007
115	0xbc082d1e	-0.008311538
116	0xbb5e0a47	-0.0033880637
117	0xbc4e432e	-0.012589259
118	0x3b25fa01	0.0025326016
119	0x3b93653a	0.004498151
120	0xbb684d78	-0.0035446566
121	0x3b97042b	0.004608651
122	0xbb9560ac	-0.0045586433
123	0x3c362372	0.011116849
124	0x3afbf9a9	0.0019224185
125	0x3b8ab384	0.0042328257
126	0xbc23f3c6	-0.010006851
127	0xbaa562d6	-0.0012617956
128	0xbc64643a	-0.0139399115
129	0xbc839a7e	-0.016064879
130	0xbc00c58f	-0.007859602
131	0xbaf8827b	-0.0018959785
132	0xbc1b0d69	-0.009463646
133	0xbb5b6b3b	-0.0033480662
134	0xbc8c56d8	-0.017131254
135	0x3d2e280f	0.04251867
136	0xb91735dc	-0.00014420546
137	0x3d0519b2	0.032495208
138	0xbc110b40	-0.00885278
139	0x3b534aa7	0.0032240541
140	0xbadb50c2	-0.0016732442
141	0xbcb44a63	-0.022008127
142	0xbc708776	-0.014680734
143	0xbb098045	-0.0020980996
144	0x3c02bfc3	0.00798029
145	0x3b33ebec	0.0027453853
146	0x3d4d620a	0.050142325
147	0x3d2675f4	0.040639833
148	0x3a712b7d	0.00091999007
149	0xbb6ccebe	-0.003613397
150	0xbb9befbc	-0.004758803
151	0x3c84f75d	0.016231233
152	0x3b0bc438	0.0021326672
153	0xbb0c9819	-0.0021452962
154	0x3c21665a	0.009851063
155	0x3d208ff1	0.039199773
156	0xbc271d7c	-0.010199901
157	0xbadf0056	-0.001701365
158	0xba91cb53	-0.0011123217
159	0x3c47ab49	0.012186834
160	0x39ffe149	0.0004880524
161	0x3be2bcc7	0.0069194767
162	0xba4647df	-0.000756381
163	0xbc3c1115	-0.011478682
164	0x3c951435	0.018198112
165	0x3c106680	0.0088135
166	0x3ca3ee37	0.02001105
167	0x3d4ccccd	0.05
168	0xbc328f06	-0.010898357
169	0x3d31b51a	0.043385603
170	0xba589bca	-0.00082629605
171	0xbb8a6f6e	-0.0042247092
172	0x3d51c0dd	0.05120932
173	0xbcbe8543	-0.023256904
174	0xbbdeda78	-0.006800946
175	0xbbc449f7	-0.0059902626
176	0x3c2c7cec	0.010527831
177	0x3d4abc49	0.04949597
178	0x3d495f90	0.0491634
179	0x3c11cfbe	0.008899627
180	0xbc165e2c	-0.009177726
181	0x3c07df18	0.008292936
182	0xbc04418d	-0.008072269
183	0x3bc379bd	0.00596544
184	0xbbb0457d	-0.0053793774
185	0x3b908cf9	0.0044113365
186	0xbbe17045	-0.0068798386
187	0x3c83c892	0.01608685
188	0xbb5428a6	-0.0032372861
189	0x3b21dfd6	0.0024700067
190	0xbc2b011c	-0.010437276
191	0x3c322a9b	0.010874416
192	0x3cb1d85f	0.02170962
193	0xbc681939	-0.01416617
194	0x3b5708ce	0.0032811644
195	0xbb212871	-0.0024590755
196	0x3a4a5159	0.000771781
197	0xbb100150	-0.0021973439
198	0xbb3ff28c	-0.0029288856
199	0x3c541ca5	0.0129462825
200	0xbbc6c13e	-0.0060655167
201	0xbb25fe85	-0.0025328707
202	0xbade9a16	-0.0016983177
203	0xb9cecd95	-0.00039444552
204	0xbc4f3576	-0.012647023
205	0x3c213fa3	0.009841832
206	0x3c0cf026	0.008602178
207	0xb78c6010	-1.6734033e-05
208	0x3b689d34	0.003549409
209	0xbc1a3863	-0.009412858
210	0x3d471904	0.04860784
211	0xbc5f8d6b	-0.0136445565
212	0x3a796570	0.00095137116
213	0xbbb7ca0e	-0.0056088036
214	0x3b21f478	0.0024712365
215	0x3b5a183f	0.0033278612
216	0xbb7e8c20	-0.0038840845
217	0x3c50c256	0.012741646
218	0x3c9ebc27	0.019376827
219	0xbc3bb42c	-0.011456531
220	0xbc46fb7e	-0.012144921
221	0x39379d58	0.00017510855
222	0xbb82ed2d	-0.0039955587
223	0xbc38e1bd	-0.011284289
224	0xbc1ef51f	-0.009701996
225	0x3ad02c3f	0.0015882327
226	0x3b01df13	0.00198168
227	0xbbb94111	-0.0056535085
228	0xbc240d4b	-0.010012935
229	0xbb36ea58	-0.0027910676
230	0x3c999b84	0.018750913
231	0x3d405a73	0.04696126
232	0x3c55cca3	0.0130492775
233	0x3d437ab1	0.04772443
234	0x3c1654da	0.009175504
235	0xbb8ee3af	-0.004360638
236	0x3d51ceb8	0.051222533
237	0xbcba9967	-0.022778226
238	0x3b06c3fc	0.0020563593
239	0xbc1d24fe	-0.009591339
240	0xbbe4b988	-0.006980125
241	0x3d4f48f6	0.05060669
242	0x3d48b7cd	0.04900341
243	0x3c0f9ef0	0.008765921
244	0xba550bcf	-0.0008127065
245	0x3b7ca1fc	0.0038548699
246	0xbbf1732c	-0.007368466
247	0xbb489c9d	-0.0030610927
248	0x3b824712	0.0039757574
249	0x3b8058ae	0.0039168214
250	0xbafd9c05	-0.0019348866
251	0xbb8f0b14	-0.0043653343
252	0xbabe31dd	-0.001451071
253	0xbba0d5b6	-0.004908289
254	0x3b24d1ca	0.0025149458
255	0x3aaf7301	0.0013385714

value_N1.bias_mu f4 [32]
0	0x3814fddc	3.5522375e-05
1	0x3d6bcbfb	0.057567578
2	0x3e0c494b	0.13699834
3	0x3d8520fd	0.06500433
4	0x3e81aef4	0.2532879
5	0x3e2fa8c7	0.17154227
6	0x3e6a2960	0.22867346
7	0x3cc088d9	0.023502754
8	0x3f0904a2	0.53522694
9	0xbd88f6bf	-0.06687688
10	0xbda3e2b9	-0.08002228
11	0x3e3e0714	0.18557388
12	0x3d63ebea	0.055644907
13	0x3dd87c44	0.10570577
14	0x3e30d671	0.17269303
15	0x3de684c5	0.112557925
16	0xbe6bed34	-0.23039705
17	0x3e6be6ac	0.23037213
18	0x3db21fef	0.08697497
19	0x3d76f510	0.060292304
20	0x3ed26bac	0.41097772
21	0x3edafd12	0.42771202
22	0x3d9b8e21	0.07595468
23	0x3e4eadfd	0.20183559
24	0xbd564fa8	-0.05232206
25	0x3edb3812	0.42816216
26	0xbdbeed96	-0.0932266
27	0x3dd7bd96	0.105342075
28	0x3d3c302d	0.04594438
29	0xbc44db38	-0.012015156
30	0x3c3fb1e9	0.011700132
31	0x3e791603	0.24324803

value_N1.bias_sigma f4 [32]
0	0x3c42b8a5	0.011884843
1	0x3c1cf8c6	0.009580797
2	0xb8e41454	-0.000108756736
3	0x3b2bc988	0.0026212651
4	0xbbc70d82	-0.0060746083
5	0x3a1408d0	0.0005647065
6	0xbbee50f6	-0.007272835
7	0x3b3bca92	0.0028654677
8	0xbc77a32d	-0.015114588
9	0x3c34ccf3	0.011035192
10	0x3c2e1c2e	0.010626836
11	0x3c06a761	0.008218617
12	0x3c725529	0.014790812
13	0xbba93aa1	-0.00516446
14	0x3adb3b55	0.0016726056
15	0x3b1fec46	0.0024402305
16	0xbc00cb6e	-0.007861001
17	0xbb39939a	-0.0028316737
18	0x3c90fe0e	0.017699268
19	0x3d183687	0.037161376
20	0x3b3edd56	0.0029123626
21	0xbb83ca91	-0.0040219505
22	0xbbe4d0ce	-0.0069828993
23	0x3b12b916	0.0022388152
24	0xba1bb225	-0.00059393264
25	0xbba6b80a	-0.005087857
26	0x3b970d1e	0.004609718
27	0x3b0dbd8d	0.0021627874
28	0x3c2862fa	0.010277504
29	0xba093af5	-0.00052349205
30	0xbbb37191	-0.0054761847
31	0x3bc1aedf	0.005910739

value_N1.weight_epsilon f4 [32, 64]
0	0xbdaf7d66	-0.0856884
1	0xbf1d7109	-0.615006
2	0xbf97d09b	-1.1860536
3	0xbf6d815e	-0.92775524
4	0x3ef8fffc	0.486328
5	0xbf7c589f	-0.98572725
6	0x3f2644c9	0.6494871
7	0xbf999d84	-1.2001195
8	0xbfc3fd0b	-1.5311598
9	0x3f8d34a6	1.1031692
10	0xbf999a3a	-1.2000191
11	0xbf5c0a10	-0.85952854
12	0x3f6b654c	0.9195144
13	0xbf95b831	-1.1696836
14	0x3f8bb45d	1.0914418
15	0x3f96231d	1.1729466
16	0xbf891c52	-1.0711768
17	0x3f9a097a	1.2034142
18	0x3f3b36a5	0.73130256
19	0x3f36d7d8	0.714231
20	0x3f3bd3c9	0.73370034
21	0xbf9f9fb3	-1.2470611
22	0xbfa26417	-1.2686795
23	0x3f6d6d6e	0.927451
24	0x3e245e53	0.16051607
25	0x3f96da85	1.1785437
26	0xbf3129ef	-0.6920461
27	0xbf9afc93	-1.210833
28	0xbf96f6ce	-1.1794069
29	0xbf0ecbdd	-0.5577982
30	0xbea85537	-0.32877514
31	0x3f48785c	0.78308654
32	0xbfa1ab09	-1.2630321
33	0xbf0ea25e	-0.557165
34	0x3f73b36d	0.95195657
35	0x3fa0522e	1.2525079
36	0xbf742435	-0.9536775
37	0x3f8f0ae6	1.1175201
38	0x3f63b9f4	0.88955617
39	0xbef2acd0	-0.4739747
40	0x3f3654ff	0.71223444
41	0xbf8afbab	-1.0858053
42	0xbded5f01	-0.11590386
43	0x3e14e360	0.14539862
44	0xbf412a2a	-0.7545496
45	0xbf14f4c1	-0.58185965
46	0x3ed6f0f6	0.41980714
47	0x3f95212f	1.1650752
48	0x3f313832	0.6922637
49	0xbeb0b2f3	-0.34511527
50	0x3f11ab75	0.5690225
51	0x3f0bd2f0	0.5461874
52	0x3f993616	1.1969631
53	0xbee51030	-0.44738913
54	0x3fbf315d	1.493694
55	0x3fac0782	1.3439791
56	0xbefbbc93	-0.49167308
57	0x3ef65ee5	0.48119274
58	0x3f37c2b9	0.717815
59	0x3f6cc876	0.9249338
60	0xbf968155	-1.1758219
61	0xbf10e0af	-0.5659284
62	0x3f84286d	1.0324837
63	0x3f005dd6	0.5014318
64	0x3d83d368	0.06436807
65	0x3eec894c	0.461985
66	0x3f64153a	0.8909489
67	0x3f32693e	0.69691837
68	0xbebb0bb3	-0.36532363
69	0x3f3d8f32	0.74046624
70	0xbef9cc4b	-0.48788676
71	0x3f66c9b1	0.90151507
72	0x3f933960	1.1501884
73	0xbf5424d8	-0.8286872
74	0x3f66c4c0	0.90143967
75	0x3f254a74	0.6456673
76	0xbf30d38c	-0.69072795
77	0x3f60ef56	0.878652
78	0xbf51e381	-0.8198777
79	0xbf618ff8	-0.88110304
80	0x3f4dfddc	0.80465484
81	0xbf676be3	-0.90399
82	0xbf0ca1e9	-0.54934555
83	0xbf09597b	-0.5365216
84	0xbf0d17f3	-0.5511467
85	0x3f6fd09e	0.936777
86	0x3f73f8e3	0.95301646
87	0xbf325a44	-0.69668984
88	0xbdf6f171	-0.1205777
89	0xbf62a384	-0.88530755
90	0x3f051552	0.5198566
91	0x3f68d91c	0.9095628
92	0x3f62ce03	0.885956
93	0x3ed688a2	0.41901118
94	0x3e7ce631	0.24697186
95	0xbf169739	-0.588245
96	0x3f72e2de	0.9487742
97	0x3ed64a4a	0.41853553
98	0xbf3710ab	-0.7150981
99	0xbf70dcc4	-0.9408686
100	0x3f376563	0.7163908
101	0xbf56e756	-0.8394674
102	0xbf2b10b5	-0.6682237
103	0x3eb64b66	0.356044
104	0xbf08f730	-0.5350218
105	0x3f50ce06	0.81564367
106	0x3db24f6e	0.08706556
107	0xbddfaf9a	-0.10922165
108	0x3f111a5b	0.5668084
109	0x3edfc9b6	0.4370858
110	0xbea17613	-0.31535396
111	0xbf600c77	-0.8751902
112	0xbf052008	-0.52002
113	0x3e84bbf0	0.25924635
114	0xbedad9c5	-0.4274427
115	0xbed2116f	-0.41028926
116	0xbf662e4c	-0.89914393
117	0x3eac11ca	0.33607322
118	0xbf8f9f28	-1.1220446
119	0xbf8139f0	-1.0095806
120	0x3ebd19f9	0.36933878
121	0xbeb91215	-0.36146608
122	0xbf0a09ea	-0.5392138
123	0xbf31de57	-0.6947989
124	0x3f621d86	0.883263
125	0x3ed9a921	0.42511848
126	0xbf468d01	-0.77558905
127	0xbec0dad2	-0.37666947
128	0xbd9abe01	-0.075557716
129	0xbf0ad3e5	-0.54229575
130	0xbf85ddc3	-1.0458301
131	0xbf516d02	-0.8180696
132	0x3edb8fbb	0.42883095
133	0xbf5e8317	-0.8691878
134	0x3f129c7c	0.57270026
135	0xbf87742f	-1.0582331
136	0xbfacd13d	-1.3501354
137	0x3f7905d0	0.97274494
138	0xbf877148	-1.0581446
139	0xbf420655	-0.7579091
140	0x3f4f90ca	0.81080306
141	0xbf8404c5	-1.0313956
142	0x3f76601b	0.96240395
143	0x3f84630c	1.0342727
144	0xbf71cd09	-0.94453484
145	0x3f87d361	1.0611383
146	0x3f25146d	0.6448429
147	0x3f2139e6	0.6297897
148	0x3f259efc	0.64695716
149	0xbf8cc082	-1.0996249
150	0xbf8f3126	-1.1186874
151	0x3f515b6e	0.81780136
152	0x3e10ef88	0.14153874
153	0x3f8504c5	1.039208
154	0xbf1c37e1	-0.61022764
155	0xbf88a9bc	-1.0676799
156	0xbf851db6	-1.0399692
157	0xbefbd3f4	-0.49185145
158	0xbe946e70	-0.28990507
159	0x3f30c4e9	0.6905046
160	0xbf8e8df9	-1.1137077
161	0xbefb8ac5	-0.4912931
162	0x3f56e38d	0.83940965
163	0x3f8d5de4	1.1044278
164	0xbf574700	-0.8409271
165	0x3f7c431e	0.9853991
166	0x3f48cd91	0.7843867
167	0xbed5fbfd	-0.41793814
168	0x3f20c685	0.62802917
169	0xbf751a64	-0.95743394
170	0xbdd14eb6	-0.10220091
171	0x3e03491c	0.12820858
172	0xbf2a53d2	-0.6653415
173	0xbf03586f	-0.51306814
174	0x3ebd8788	0.37017465
175	0x3f837f9d	1.027332
176	0x3f1c4474	0.6104195
177	0xbe9bcef5	-0.30431333
178	0x3f00729a	0.5017487
179	0x3ef69605	0.4816133
180	0x3f8718fb	1.0554498
181	0xbec9fb57	-0.3944957
182	0x3fa896b4	1.3170991
183	0x3f97b0da	1.1850846
184	0xbeddf97e	-0.4335441
185	0x3ed93e37	0.4243028
186	0x3f220902	0.63294995
187	0x3f50c9f6	0.8155817
188	0xbf84b621	-1.0368081
189	0xbeff7f9b	-0.49902043
190	0x3f69110b	0.9104163
191	0x3ee2615e	0.4421491
192	0xbd545105	-0.05183508
193	0xbebe7b13	-0.37203273
194	0xbf37ac5d	-0.7174738
195	0xbf0fac49	-0.5612226
196	0x3e96a05a	0.29419214
197	0xbf18a68d	-0.59629136
198	0x3ec92909	0.3928912
199	0xbf39da00	-0.72598267
200	0xbf6d1de3	-0.9262373
201	0x3f2ad677	0.667335
202	0xbf39d605	-0.7259219
203	0xbf051b7b	-0.51995057
204	0x3f0e6595	0.5562375
205	0xbf352363	-0.7075712
206	0x3f29058a	0.66024077
207	0x3f35a4be	0.709545
208	0xbf25e225	-0.64798194
209	0x3f3a5c9e	0.7279757
210	0x3ee28015	0.44238344
211	0x3edd3680	0.43205643
212	0x3ee33e32	0.4438339
213	0xbf411ef9	-0.75437886
214	0xbf447805	-0.76745635
215	0x3f0fa03a	0.5610386
216	0x3dc6dc7c	0.09710023
217	0x3f3682a4	0.7129309
218	0xbed6577c	-0.4186362
219	0xbf3b82ba	-0.7324635
220	0xbf36a4dc	-0.71345305
221	0xbeacc322	-0.33742625
222	0xbe4ba85b	-0.19888441
223	0x3ef289f7	0.47370884
224	0xbf439822	-0.7640401
225	0xbeac90ee	-0.33704323
226	0x3f136bbb	0.5758626
227	0x3f41f6e9	0.7576738
228	0xbf13aff5	-0.57690364
229	0x3f2d0f66	0.6760162
230	0x3f09c1e8	0.538115
231	0xbe92ccdf	-0.2867193
232	0x3edc9831	0.43084863
233	0xbf282616	-0.65683115
234	0xbd8f9780	-0.07011318
235	0x3db421e8	0.087955296
236	0xbee9b34f	-0.45644614
237	0xbeb436ef	-0.3519816
238	0x3e8205fe	0.25395197
239	0x3f346cb0	0.70478344
240	0x3ed668bd	0.41876784
241	0xbe55c787	-0.20876895
242	0x3eb03d18	0.3442161
243	0x3ea92a86	0.33040255
244	0x3f395cdd	0.72407323
245	0xbe8a90ef	-0.270637
246	0x3f675093	0.9035732
247	0x3f50213a	0.813007
248	0xbe984828	-0.2974255
249	0x3e95092e	0.29108566
250	0x3ede52ab	0.43422446
251	0x3f0f3c6e	0.55951583
252	0xbf3616bc	-0.7112844
253	0xbeaf47c4	-0.3423444
254	0x3f1fe42e	0.6245755
255	0x3e9b4dea	0.3033288

value_N1.bias_epsilon f4 [32]
0	0x3f8cecbe	1.1009748
1	0xbf53b8d0	-0.82703876
2	0x3f788700	0.97080994
3	0x3f2a7f78	0.6660075
4	0x3f95ae45	1.1693808
5	0x3f6c6ef0	0.9235678
6	0x3ff6758a	1.925462
7	0xbf8da9a6	-1.1067398
8	0x3fa40a52	1.281565
9	0xbfb54c8f	-1.4163989
10	0xbf9d5593	-1.229174
11	0x3fa0e3d7	1.2569531
12	0xbf058789	-0.52159935
13	0x3fdafd4c	1.710855
14	0xbeb0f8ee	-0.34564918
15	0x3f46f047	0.77710384
16	0x3fbfbee6	1.4980133
17	0xbede4874	-0.43414652
18	0x3eade96e	0.33967155
19	0xbedfaf66	-0.43688506
20	0x3f228a85	0.63492614
21	0xbf93343b	-1.1500314
22	0xbf09a0ca	-0.5376097
23	0x3f0203f1	0.50787264
24	0xbe84f5db	-0.25968823
25	0xbf3b9f72	-0.7329017
26	0x3f90a8ff	1.1301574
27	0xbfccd8e8	-1.6003695
28	0x3f8d819d	1.105518
29	0xbf6380b2	-0.8886825
30	0x3f8dbb38	1.107276
31	0xbebbf9f3	-0.36714134

value_N2.weight_mu f4 [4, 32]
0	0xbf0f2553	-0.5591633
1	0xbf0ad72f	-0.54234594
2	0xbf449d2e	-0.7680234
3	0xbd466cd0	-0.048443615
4	0x3f0a134a	0.5393568
5	0xbd92d8ee	-0.07170282
6	0xbf342762	-0.70372593
7	0xbd4474cb	-0.047962945
8	0x3f77b3e5	0.9675887
9	0xbed18f90	-0.40929842
10	0xbf5f6189	-0.872582
11	0xbef995ea	-0.48747188
12	0xbf87616e	-1.0576608
13	0xbf361329	-0.71122986
14	0xbc1847e4	-0.009294484
15	0xbf00af59	-0.5026756
16	0xbf20e906	-0.62855566
17	0xbeabad63	-0.3353072
18	0xbf3bc1fa	-0.7334286
19	0xbe3c8630	-0.18410563
20	0x3f5dee50	0.8669176
21	0xbe5dbf7e	-0.2165508
22	0xbeffb935	-0.4994599
23	0xbf2b501d	-0.6691912
24	0xbf1b2b57	-0.60613006
25	0x3f80a6e8	1.0050936
26	0xbe9ecaa0	-0.31013966
27	0xbdb8a845	-0.0901647
28	0xbed317d6	-0.41229123
29	0xbf062099	-0.5239349
30	0xbf75f275	-0.96073085
31	0x3f74fa7a	0.95694697
32	0xbeb6c612	-0.3569799
33	0xbea7320a	-0.32655364
34	0xbeb24fbf	-0.34826466
35	0xbf1aca52	-0.60464966
36	0x3ef3f272	0.4764591
37	0xbf3edde4	-0.7455733
38	0xbeca75dc	-0.39543045
39	0xbf21e28d	-0.63236314
40	0x3f2ba1a2	0.6704351
41	0xbf01e2ef	-0.507369
42	0xbda8317e	-0.08212565
43	0xbeb4930b	-0.35268435
44	0xbe955e4a	-0.291735
45	0xbeec6ecf	-0.4617829
46	0xbeffa656	-0.49931592
47	0xbec29970	-0.3800769
48	0xbe8a5c71	-0.27023652
49	0xbe6e207f	-0.23254584
50	0xbebd3ac8	-0.3695891
51	0x3e2218df	0.158298
52	0x3f811ce2	1.0086939
53	0x3e862be7	0.2620537
54	0xbec7a2ba	-0.38991338
55	0xbeab54f3	-0.3346325
56	0xbefb0ae9	-0.4903176
57	0x3f7d11a5	0.9885505
58	0xbeef7765	-0.46770778
59	0x3fe26187	1.7686013
60	0xbea78b1b	-0.32723317
61	0xbed7a91c	-0.42121208
62	0xbebd421b	-0.36964497
63	0x3f29cee9	0.66331345
64	0xbf0fbf15	-0.56150943
65	0xbeb1f9d0	-0.34760904
66	0xbeadde0c	-0.3395847
67	0xbf0a2e67	-0.53977054
68	0x3eca2699	0.39482573
69	0xbec7a967	-0.3899643
70	0xbebf567f	-0.3737068
71	0xbf13ba8a	-0.5770651
72	0x3f1a334f	0.6023454
73	0xbec80e3a	-0.39073354
74	0xbe8a0391	-0.26955846
75	0xbedab62d	-0.42717114
76	0xbecabd48	-0.39597535
77	0xbead6d0c	-0.3387226
78	0xbec70db1	-0.38877633
79	0xbed371f1	-0.41297868
80	0x3d1575cd	0.036489297
81	0xbf01eea5	-0.5075477
82	0xbeae0354	-0.33986914
83	0x3d29acc8	0.041424543
84	0x3f59a4b9	0.8501697
85	0x3f1a3df0	0.6025076
86	0xbe9b868c	-0.3037609
87	0xbe947c8d	-0.29001275
88	0xbed75bcd	-0.42062226
89	0x3f22cf78	0.6359782
90	0xbec104df	-0.3769903
91	0x3f7bbfaf	0.9833936
92	0xbeeff685	-0.46867767
93	0xbebcee20	-0.36900425
94	0xbf0823d2	-0.5317966
95	0x3f06f3f0	0.5271597
96	0xbe50d02a	-0.20391908
97	0xbe7b5f8e	-0.2454817
98	0xbea00731	-0.31255487
99	0xbeea4fc2	-0.45763975
100	0x3f1df565	0.6170257
101	0xbf1ee352	-0.62065613
102	0xbec59f0e	-0.38597912
103	0xbeccbb9f	-0.39986894
104	0x3f71b646	0.9441875
105	0xbec07d58	-0.3759563
106	0xbf03cc72	-0.51483834
107	0xbef81ff8	-0.4846189
108	0xbe38b0a4	-0.18036133
109	0xbebb5eef	-0.36595866
110	0xbf5454ea	-0.8294207
111	0xbedd8765	-0.4326736
112	0x3d88ef37	0.066862516
113	0xbe9be7fc	-0.30450428
114	0xbee9393d	-0.45551482
115	0x3e6cb796	0.23116907
116	0x3f149ec9	0.58054787
117	0x3ec0b396	0.37637013
118	0xbeeb43bc	-0.45950115
119	0xbef4156c	-0.47672594
120	0xbe989af8	-0.29805732
121	0x3f51092a	0.8165461
122	0xbeb81eea	-0.35961086
123	0x3fb4e619	1.413272
124	0xbea2ef26	-0.3182308
125	0xbe99cf4c	-0.30040967
126	0xbead31fa	-0.33827192
127	0x3f4714bb	0.7776601

value_N2.weight_sigma f4 [4, 32]
0	0x3c16ba5e	0.009199707
1	0xbbbcec17	-0.005765449
2	0x3c9d6748	0.019214287
3	0x3c3af522	0.011410983
4	0xbbcc755d	-0.0062395767
5	0xbbc43908	-0.005988244
6	0x3ccc5a53	0.024945414
7	0xba8a98fc	-0.0010574157
8	0xbbd608a1	-0.0065317904
9	0xbc0cbf79	-0.0085905725
10	0x3c929c57	0.017896814
11	0xbb3f96cc	-0.002923417
12	0xbbb35f6d	-0.005474022
13	0x3c8d143c	0.017221563
14	0xbb3ee14b	-0.0029125984
15	0xba877690	-0.0010335017
16	0xbc242f0a	-0.010020981
17	0xbcb95ff3	-0.02262876
18	0x3b824528	0.003975529
19	0x3d4d105b	0.050064426
20	0x3b1e650b	0.0024169113
21	0x3c204e7d	0.009784338
22	0x3b89ad79	0.0042015878
23	0xbb11b23a	-0.0022231475
24	0x3c063b6b	0.008192877
25	0x3aa22c9a	0.0012372911
26	0xbc4949a8	-0.012285627
27	0xbc67f3ef	-0.014157279
28	0x398bd9bc	0.0002667437
29	0x3c1cc33f	0.009568035
30	0xbced4769	-0.028964715
31	0x3bf7f92c	0.0075675454
32	0xbb77bd1d	-0.003780193
33	0x3a384510	0.0007029334
34	0xbba37103	-0.0049878373
35	0xb8a876ce	-8.032993e-05
36	0x3abb725d	0.0014301051
37	0xb8442d57	-4.6772268e-05
38	0xba207478	-0.0006120871
39	0xbaef806a	-0.0018272523
40	0xb9c9170d	-0.00038354882
41	0x3afb2150	0.0019159708
42	0xbbf2e932	-0.007413053
43	0x3910270a	0.00013747453
44	0x3a475d77	0.0007605175
45	0xb9546f9b	-0.00020259472
46	0xbb439869	-0.0029845482
47	0xb8c9884b	-9.6098134e-05
48	0xbaf37843	-0.001857527
49	0x3b5420b1	0.0032368118
50	0x3a7dec0e	0.0009686359
51	0x3d622cf5	0.055218656
52	0x3b1f060c	0.0024265079
53	0x3ab1f303	0.0013576451
54	0x3b2d74c7	0.002646731
55	0x3b595b47	0.0033165978
56	0xbb335cf4	-0.0027368637
57	0x3934a9e0	0.00017229421
58	0xbab4367f	-0.0013749151
59	0xba2e7ffc	-0.00066566444
60	0x3a9c1bbb	0.001191012
61	0x3aa6546b	0.0012689953
62	0xbaa8805a	-0.0012855635
63	0x3ac52d2f	0.0015043373
64	0xba6c72f1	-0.0009019813
65	0x39fe4244	0.00048496027
66	0xbb00426f	-0.0019570848
67	0xba35570c	-0.0006917573
68	0xbad313f5	-0.001610397
69	0xb93840fe	-0.00017571819
70	0xba87c116	-0.0010357227
71	0xbb8fd522	-0.004389421
72	0x3a92d2f6	0.0011201787
73	0xb9018e3f	-0.0001235539
74	0x3b68cdbc	0.0035523018
75	0xba63cd30	-0.0008689938
76	0xb987d5e8	-0.0002590858
77	0xba0fc4a5	-0.00054843194
78	0x3abc9530	0.0014387723
79	0x3ac6200c	0.0015115752
80	0xbc559ee3	-0.01303837
81	0xbae280e2	-0.0017280842
82	0x3b68f80d	0.003554824
83	0xbd0f32ba	-0.034960486
84	0x3a108de8	0.000551431
85	0xb8ebb42e	-0.00011239234
86	0xbaf8eb33	-0.0018990993
87	0x3bb06c9f	0.0053840424
88	0xbab812eb	-0.0014043724
89	0x3951a1da	0.00019992088
90	0xb836ee28	-4.361398e-05
91	0x3b255c04	0.0025231848
92	0x3a066178	0.00051262183
93	0xb9e49496	-0.00043598254
94	0xbad594ca	-0.0016294953
95	0xba002340	-0.0004888065
96	0x3aee4a3e	0.0018180085
97	0x3a6242df	0.00086311804
98	0xba404562	-0.00073345576
99	0xbb97ef56	-0.0046366854
100	0xba56d19c	-0.00081946864
101	0xba8f9869	-0.0010955456
102	0x3b8d5f4b	0.0043143383
103	0xb9dbed57	-0.00041947767
104	0xbb0c254d	-0.0021384538
105	0xbaec5465	-0.0018030523
106	0x3a79c9d0	0.00095286686
107	0xbaafba06	-0.001340688
108	0xbb246c12	-0.002508883
109	0x3a527b78	0.00080292625
110	0x39794baf	0.00023774685
111	0x3b24945f	0.002511285
112	0x3bfdf84c	0.0077505466
113	0xbb4c3128	-0.003115723
114	0xbaf8503f	-0.0018944814
115	0x3d9b2c1b	0.07576772
116	0xbadff551	-0.001708666
117	0x3acc2611	0.001557531
118	0xbae84089	-0.0017719428
119	0x3c1ec651	0.009690837
120	0xba7a46d1	-0.00095472956
121	0x39dd773a	0.00042241235
122	0xba61f7bd	-0.0008619985
123	0x3b155f51	0.0022792409
124	0xbb28d6dd	-0.0025762834
125	0x3a8f4bbe	0.0010932607
126	0xbb21d8bb	-0.0024695832
127	0x3af5bb76	0.0018747884

value_N2.bias_mu f4 [4]
0	0x3e3e2495	0.18568642
1	0x3ee61ec9	0.44945362
2	0x3eb1afae	0.34704345
3	0xbe26c6c2	-0.16286758

value_N2.bias_sigma f4 [4]
0	0x3b2298f1	0.0024810398
1	0xbbd86d1f	-0.006604805
2	0xbbebf7f9	-0.0072011915
3	0xbc8907ee	-0.016727414
