Lunar_Lander/Lander_Gifs/Checkpoints/checkpoint_Rainbow_Dueling_PER_1000.pth (torch_old, 37914 bytes, 11 tensors)

fc1.weight f4 [64, 8]
00000000: 45ae 81bd ff2f af3d 79c7 babe efba 75be
00000010: e347 943d 049e 1e3e 7348 e83d fb62 b23e
00000020: 9c3f 833d 36fa 2f3d 9c6c f4bc dc3d 52bd
00000030: bb99 f8be f27e c7be 04ab b6be 8897 943e
00000040: fba9 bc3d 3f66 67bc c359 b7be ecbe 7cbe
00000050: fcfc bd3e 0317 ba3e 7c78 fb3c b1c2 b73e
00000060: a4cd 553d 57f6 b8be 13a0 e43e 560e 98be
00000070: 35f6 c8be 0383 25be 94ef d8bd ea6b 9e3e
00000080: fa5a aebe d515 16bf 456f 9abe ca8b cebe
00000090: 1ece 06be dced 713e 2d5c 3e3e 0503 4b3e
000000a0: 1f4c 913d bb6c 14bf b537 023e 78ef bfbe
000000b0: 4862 c2be 297e 81be ddf7 843e 78e5 743e
000000c0: 4184 6d3a cf4e 50bb eae1 903e d020 6a3e
000000d0: 7242 1b3e 26b6 a53d 9052 903e 3404 95be
000000e0: 0013 f73c ec03 16bf cffc 6fbe c320 9abe
000000f0: 6eb5 853e f4c1 3d3e 9aa1 dbbd 3e27 053e
00000100: c5e9 693e 954c 9abd 3698 fa3a eb99 163d
00000110: 6a83 b73e 6d73 f43e 4957 59be 6d54 9fbe
00000120: ec2e 233e 95b8 8e3e 7f78 b83e 712b 8e3e
00000130: ed79 54be e0c8 e1be d053 24be 786b 4dbe
00000140: 6abe 7fbe a769 973e fa99 a13e 99f4 07bf
00000150: 09fe cc3c 7c0d 7bbe 2bfb 573e 593a bcbb
00000160: f576 6d3e c582 423d df0e b63d 5716 bb3d
00000170: 4c89 c63e 54ae 353e 2c10 b4be 284c 86be
00000180: 155e 4b3e 4b4e 813e f512 9ebe 967a d5be
00000190: 41b0 003f 1f24 803e 8843 dd3c 86e0 98bd
000001a0: 2664 d8be 38b8 aabe c522 90be 8799 aebe
000001b0: 9e92 8a3d a822 453d d5ab 833d 72e9 6c3e
000001c0: 6b30 5ebe b81f 9e3e 39e6 583e 5052 02bf
000001d0: ed68 94bd 52b0 573c 43d2 1b3e 5cd5 833c
000001e0: d81f 823e 2f26 3c3d eb2f 39bd 4d4f e73d
000001f0: 84da 08bf cba9 b1be 86b7 95be 769d 4bbe
00000200: 6f23 8bbd 7e34 1cbf 8980 6b3b ba86 d0bd
00000210: 6a71 b1be 2824 8cbd a115 973e 5135 2ebd
00000220: 7dbe 48bd 44c5 7b3d 91d8 6f3c 4bd1 c93d
00000230: 7029 f03e 4eaa d53e 5e38 e63e 8372 45be
00000240: cec5 c5be 449c 9ebe 22f6 2a3e 5c91 7bbd
00000250: 0b90 afbe ea18 b0be 9076 b4be df6c 5fbe
00000260: d41d e3bd 03f0 08bc ae78 193e 1cbe 25bf
00000270: c292 303e 9792 80be 0fef d03d 6a42 bbbd
00000280: 4f9f 0dbe 9056 cfbe 6073 adbe 1667 d1be
00000290: acbb 3d39 c420 17bd a399 10bd e5a1 353e
000002a0: 4374 a9be a1d0 b2be bf46 ba3e 6b71 b7be
000002b0: 241a 943e 7f52 3b3b a394 a9be fa16 643e
000002c0: c519 303d 90b9 e8be 847f ae3e 37d2 cebe
000002d0: 8042 2dbd 6d6a ecbd 5c01 983e 86b9 343e
000002e0: a052 9c3e 5363 34be a5ed bc3c adc0 85bd
000002f0: 7e2f e0be 0126 d13d 1bb3 b43e 14d8 863e
00000300: ca0a d1be b832 b2be 5236 a9be 803f 51be
00000310: aa2c 13be ecad 953d d8cc 19bd b8f9 22bd
00000320: 9cc7 943c 1454 1e3e 29b0 b1be 2a10 acbe
00000330: 34f4 903d 0c09 b63e 6ae9 21bb 9965 e13e
00000340: 374a 7a3e be8d 8ebe a772 a83d 6486 2ebe
00000350: bf0d 61bd c3a2 e6bd 2f33 0f3d ca9b ed3d
00000360: 91c6 98be 022f 27bf 0b98 6a3e 3708 adbe
00000370: e83d d73d b9e0 b23e f18d 003e 756c 2d3d
00000380: c6ec e6be a4b3 a93d 35d8 99be 3b2c e4bd
00000390: 514a cebd 52d4 d1bd 77dc 303e 8e0d ab3e
000003a0: 4386 8d3d dc88 813d 6f31 553e f8c1 04bf
000003b0: f348 483d 67e5 8cbe 0cca 323e 5b46 823e
000003c0: a194 313e 7a6f 2a3e 5e05 efbd 7103 39bc
000003d0: 2fee c93d 7bda cbbe 14e4 023f f31d 91be
000003e0: 762f 49be 7e9d ecbd 8a01 89be 91a0 6f3d
000003f0: cd3f aa3e f0a0 02be 936d 07be 80c1 85be
-0.063320674 0.085540764 -0.3648031 -0.23997091 0.07240274 0.15489966 0.113419436 0.3484114
0.06408617 0.04296323 -0.029836945 -0.051328525 -0.48554787 -0.3896404 -0.3567735 0.2902186
0.09212109 -0.014123498 -0.3581067 -0.24682206 0.37107074 0.36345682 0.0306971 0.35890725
0.052198067 -0.36125442 0.44653377 -0.29698437 -0.3925034 -0.16163258 -0.10592571 0.30941707
-0.34053785 -0.58627063 -0.30163017 -0.40341026 -0.13164565 0.23625892 0.1858985 0.1982537
0.07094597 -0.5797841 0.12716563 -0.37487388 -0.37965608 -0.25291565 0.25970355 0.2391566
0.000906054 -0.0031785255 0.2829736 0.2286408 0.15162066 0.08091383 0.2818799 -0.2910477
0.030160427 -0.58599734 -0.23436283 -0.3010312 0.26114982 0.18531018 -0.107241824 0.13003251
0.22843082 -0.07534138 0.0019118849 0.03676788 0.35842448 0.47744313 -0.21224703 -0.311191
0.15935868 0.278752 0.3602943 0.27767518 -0.20749636 -0.44098568 -0.16047597 -0.20060527
-0.24974981 0.29572794 0.31562787 -0.531076 0.025023477 -0.24516863 0.21091907 -0.0057442603
0.2318991 0.047487993 0.08889555 0.0913512 0.38776624 0.17742282 -0.35168588 -0.26229978
0.19860108 0.25255045 -0.30873838 -0.41695088 0.5026894 0.25027558 0.02700974 -0.074646994
-0.42263907 -0.33343673 -0.28151527 -0.34101507 0.06766246 0.048128754 0.06429259 0.23135927
-0.21698157 0.30883574 0.21181573 -0.5090685 -0.072465755 0.013164597 0.15216927 0.016092949
0.2541492 0.045934852 -0.045211714 0.11294422 -0.5345843 -0.34699854 -0.2924158 -0.19884285
-0.06793868 -0.61017597 0.0035934767 -0.10181947 -0.3465684 -0.06842834 0.2950869 -0.042531315
-0.04900979 0.061467424 0.014639036 0.098543726 0.46906614 0.41731495 0.4496488 -0.19281964
-0.38627476 -0.30978596 0.16695455 -0.061417922 -0.34289584 -0.34394008 -0.35246706 -0.21818875
-0.11089674 -0.0083580045 0.14987442 -0.6474321 0.17243484 -0.2511184 0.10201847 -0.09143527
-0.13830303 -0.4049573 -0.33877087 -0.4089896 0.00018094358 -0.036896482 -0.03530277 0.17737539
-0.33096513 -0.34924796 0.363821 -0.3582872 0.28926194 0.0028583107 -0.33121213 0.2227439
0.042993326 -0.45454073 0.34081662 -0.40394756 -0.042299747 -0.115437366 0.29688537 0.17648897
0.30531788 -0.17616014 0.023062536 -0.065308906 -0.43786234 0.10212327 0.35292897 0.2633673
-0.40828544 -0.3480432 -0.33049256 -0.2043438 -0.14372507 0.073085636 -0.03754887 -0.03978893
0.018161587 0.15461761 -0.34704712 -0.33606082 0.07077828 0.35553777 -0.0024705776 0.44022825
0.24442373 -0.27842516 0.08224993 -0.17043453 -0.05494475 -0.11261513 0.03496092 0.1160198
-0.29838994 -0.65306103 0.22909562 -0.3379533 0.105098546 0.34937075 0.12554146 0.04233976
-0.4510252 0.08286217 -0.30047765 -0.11141249 -0.100727685 -0.10245575 0.172716 0.3340878
0.06910374 0.06324932 0.20819639 -0.5185847 0.048897695 -0.2751877 0.17459887 0.25444302
0.17341854 0.16644087 -0.116709456 -0.011292324 0.09859883 -0.39815125 0.5112927 -0.28343162
-0.19647011 -0.11553477 -0.26758987 0.058502737 0.332518 -0.12756705 -0.13225393 -0.2612419

fc1.bias f4 [64]
00000000: 4ab5 9bbc 5354 87bd 568e 543e 155b 163e
00000010: 44b0 22bd 071f fc3d e4dc cf3e e421 1f3e
00000020: a08e fe3d 19c4 6dbd 4e79 723e c350 a5bd
00000030: 7f47 e63c 8f19 e5bc e6cd 183f 3fe4 c9bc
00000040: a825 823e 1c43 68bc 70cb fc3e 67cb 213f
00000050: f8b3 a3bd 01a0 30bd 1463 b1bd 92d8 333d
00000060: 91ea 32bc 55b2 cbbd d29f e83c 226a 133e
00000070: 7dd6 b0bd c710 873e 9231 9abd 3dd0 e1bd
00000080: 82fa 743d a18f de3e 5e3c 16be c43d 273e
00000090: 4dc5 02bc 5f67 d43e 97be abbe 3128 7bbe
000000a0: e829 d13e f5b6 efbc 9302 4c3e 7127 c23d
000000b0: 6d9a b1bc d51d 0d3e 6caf df3e 3749 183e
000000c0: 77d6 59be 477c 6fbd 1b77 333d 7fb6 633e
000000d0: 3d2d 1cbd d198 033f ba38 9b3d f5ce 6abd
000000e0: e413 ed3e 7bde 983e 8d48 c63e cede a03e
000000f0: fbd9 153e d3cf 1d3d 75e8 763e 1805 d33e
-0.019007344 -0.066078804 0.20757422 0.14683183 -0.03971888 0.123106055 0.40598214 0.15540272
0.12429547 -0.05804834 0.23679087 -0.08072045 0.028110264 -0.027966289 0.59689176 -0.024644969
0.25419354 -0.014176156 0.4937396 0.6320099 -0.07993311 -0.04312134 -0.08661476 0.04390771
-0.010920183 -0.099461235 0.02839652 0.14395955 -0.086346604 0.26379988 -0.07528986 -0.110260464
0.059809215 0.43468955 -0.14671466 0.16332155 -0.0079816105 0.41485116 -0.33543846 -0.2452705
0.40852284 -0.029262045 0.19922857 0.09480179 -0.021680081 0.13780911 0.43688524 0.14871679
-0.21273218 -0.05846813 0.04381476 0.22237585 -0.03812908 0.51405054 0.07579179 -0.057326276
0.46304238 0.2985724 0.38727227 0.31419986 0.14633934 0.038528275 0.24112113 0.41214824

fc2.weight f4 [64, 64]
00000000: f237 143c e589 9a3c 9129 0a3e ca2d 5e3e
00000010: 23c2 433d ef4a 0a3c 981a c83d b107 073e
00000020: 9908 d83d 05e2 0bbc 72bc 203d 72f3 f43d
00000030: c71c 283e 77f0 203e 2972 823d 8b41 9f3c
00000040: 4607 7b3d 39b9 953e 4ae2 133e 9ea4 fa3d
00000050: df9e 1fbd e533 353e 732d 653e dad3 6e3e
00000060: 4b72 9abd 5a64 96bc 6464 203d d9e2 443e
00000070: e57c 123d ee86 10bd b49a 803c b50c 193e
00000080: 563f 8a3c 2a02 e53d 40ff ba3d a6c0 66bd
00000090: d9ce b13e dbae e23d 309d 353d b1b2 633e
000000a0: 32d5 4a3e 47b5 8d3d c764 373e 6ac4 e8bd
000000b0: e3c2 af3d 224b 993e 93d1 973e 2967 283b
000000c0: 30f5 a83d 9b88 e7bc baf8 343e 7d62 263c
000000d0: edce 8bbd d833 fa3d bc69 0b3e 689d dcbd
000000e0: a476 413e 5c26 c43d 45d0 da3d 9e41 793d
000000f0: 3962 363d 2667 30bd 8ca4 2a3d a89d 903e
00000100: 00c7 8abd 543b 0d3e 6081 8b3d b29b b13d
00000110: aace ce3b 0bd2 643e f9b6 da3d 859d 4c3e
00000120: 09a3 493c a806 0d3d 4dad f93c 484a e13c
00000130: bba7 da3d 311c c4bc aaef b7bd dd69 643d
00000140: 0924 433e 84af 8e3e b147 2e3c ff12 8d3d
00000150: 264c 3f3d bdc5 1e3d 073f 3f3e c649 b1bb
00000160: 1943 963d 4873 e03d 995b d23d a8c7 333e
00000170: 19c5 b23c b78c ba3d 0efe 59be cbec 1a3e
00000180: 804c 043d 3fb7 e23d e618 133e d167 df3d
00000190: 9e91 3c3e 710c 173e ca4f af3d 41aa ad3d
000001a0: bde1 453e 2440 2abd 4621 353d e32a 92be
000001b0: 5370 fa3d a470 873e 0c68 663e faca 90bb
000001c0: 73df ad3d 1ffa 913d a6df c93d ee9a 04be
000001d0: 5001 033e 4e46 6f3e 96aa 753d cb86 82be
000001e0: 751f 673e 4800 03be 17ca 743d 26c3 b43d
000001f0: 2c0c e93c f0cf d53d 729b 38bc 34bb 6d3e
00000200: db1b 99bd 47f6 193e 799e 4c3d cf6b 533e
00000210: 089b 1d3d 74d3 453e 94a4 3a3e d1f0 3a3d
00000220: 5170 413c 5218 acbc c455 eb3d 64a1 4d3d
00000230: fd93 2e3c 5aa0 c83d e633 083e c76a 853e
00000240: 524d 8c3e 0aed b43d 53df be3d 88c6 0abd
00000250: eed1 543c d123 ef3d a14d 5d3e 005d 8f3b
00000260: 36bd f63d e46f 97bd e6b8 d33d 0605 383e
00000270: b84c 1e3d f7e6 cb3c 257b 1cbe 08ee 973e
00000280: de73 133d ecb5 b0bc 70b6 113e 5d4a 86bd
00000290: 4b54 d13d 87da 2e3e ccf7 ca3d 53e3 a23d
000002a0: 7544 223e 230f 203e 9541 363e 19f3 65be
000002b0: 2e87 903d bd20 193e 9c6f 013e 66c3 043e
000002c0: 96af 7c3e abad 323e 8cb9 b63d 7eb4 16bd
000002d0: 4381 493c fb19 5a3e 571a 9e3b b89b 61be
000002e0: a4b6 2b3e 026d 9c3d a41d 45bd 25c1 533e
000002f0: 5728 193e 6977 27bc 3960 d83d 6313 a73e
00000300: 2a8f a3bd 53ec fb3d 8e75 c23d b5c2 65bc
00000310: 72d1 1e3e a511 383e 915a 8b3e 062b c53c
00000320: 9703 813e 234c 2c3d 8c7d b73d 49c8 08bd
00000330: cd38 94bd 4c0c 083e 631b 393d 3592 383e
00000340: fdee de3d 8cc7 0b3e a04a 6c3d 538c c4bd
00000350: 0e77 a03d fccf e33d 565a d53d e706 163e
00000360: 0353 103e 3b4e 053d 75f0 bc3d 7676 973c
00000370: 19e5 64bc 9ecc b7bd c329 a3bd fe0e 3e3e
00000380: b827 e13d 6463 563d 55fb 4d3e ff2a 40bd
00000390: a255 6c3e 8d6b 8b3e 0690 fe3d 13e5 773d
000003a0: e9ad 0e3e 001f 923d 17fb f83c 1126 5ebe
000003b0: b0fb 283e 4fd7 c93d 022a 883e 62ed 3c3e
000003c0: b508 8c3d ed2a 353e 3c4a ac3d 9c43 d83c
000003d0: ec96 443e cd6d 8c3d a1ca 063e 5ef7 42be
000003e0: 87d3 0b3e a69e fabc 6f6d 413d a7b7 da3c
000003f0: 180e 013e c6b4 b73d d520 5f3e 2c2e 4e3e
0.0090465415 0.018864581 0.13492419 0.21697155 0.047792565 0.008440717 0.09770697 0.13186528
0.10548515 -0.008537774 0.039242215 0.11960496 0.16417228 0.1571673 0.063694306 0.019440433
0.061286233 0.29242876 0.14441791 0.122384295 -0.03896987 0.17695577 0.22380619 0.23323002
-0.07541331 -0.018358398 0.03915824 0.1922716 0.03576364 -0.03528493 0.015698768 0.14946254
0.016875904 0.111820534 0.09130716 -0.056336068 0.34728125 0.11068507 0.04433936 0.22236134
0.1980789 0.069193415 0.17909537 -0.11365588 0.085820936 0.29940134 0.2965208 0.0025696254
0.08249891 -0.02826338 0.17673007 0.010155317 -0.06826577 0.1221692 0.13614553 -0.1077221
0.18892914 0.09577629 0.106842555 0.060853593 0.044527266 -0.04306712 0.04166083 0.28245282
-0.067762375 0.13792163 0.06811786 0.08672275 0.0063112574 0.2234575 0.106794305 0.19981964
0.012306937 0.034430176 0.030478144 0.02750124 0.10676523 -0.023939224 -0.08981259 0.05576502
0.19056715 0.27868283 0.01063721 0.06888389 0.04670348 0.038762797 0.18676387 -0.005410406
0.073370166 0.10959488 0.10271377 0.17556632 0.0218225 0.091088705 -0.2128832 0.15129392
0.03229952 0.11070108 0.14364967 0.10908473 0.18414924 0.1475084 0.085601404 0.08479739
0.19324394 -0.041565076 0.044221185 -0.28548345 0.122284554 0.26453125 0.22500628 -0.004418728
0.08489885 0.07127785 0.09857111 -0.12949726 0.1279347 0.23366663 0.059977137 -0.25493464
0.22570594 -0.12793076 0.05976304 0.08826284 0.028448187 0.104400516 -0.01126753 0.23215944
-0.07476016 0.15035354 0.04995582 0.20646594 0.038477927 0.19318944 0.18226844 0.045639817
0.0118065635 -0.02100769 0.11490968 0.050202742 0.0106554 0.0979621 0.13301048 0.26058027
0.2740274 0.08834274 0.093199395 -0.03388074 0.012989504 0.11676753 0.21611644 0.0043751
0.12047808 -0.07394388 0.10338001 0.17970666 0.038647383 0.024890406 -0.15281351 0.2967379
0.03599917 -0.021571122 0.1422975 -0.065571524 0.10221156 0.17075549 0.09910545 0.07953515
0.15846427 0.15630774 0.17798455 -0.22456016 0.070570335 0.14953895 0.12640232 0.12965164
0.24676356 0.17449062 0.08922109 -0.036793225 0.012298885 0.21298973 0.0048249173 -0.22032058
0.1676889 0.07637979 -0.04812397 0.20679148 0.14956795 -0.010221341 0.10565228 0.32631978
-0.07986291 0.12300935 0.09495078 -0.014023473 0.15509585 0.17975481 0.27217534 0.024068367
0.2519805 0.042064797 0.08959493 -0.03339413 -0.072373964 0.13285941 0.045192134 0.18024524
0.10885427 0.1365034 0.057688355 -0.09597077 0.07835208 0.11123654 0.10417621 0.1465107
0.14094166 0.03254531 0.09225551 0.018489104 -0.013970637 -0.089745745 -0.0796695 0.18560407
0.10993904 0.05234088 0.20115407 -0.046916004 0.23079541 0.27230492 0.12429814 0.060521197
0.13933529 0.07134819 0.030393166 -0.21694209 0.16502261 0.0985552 0.2659455 0.1844993
0.06837598 0.17692156 0.084125966 0.026399426 0.19198197 0.0685688 0.13163234 -0.19039676
0.1365491 -0.030593228 0.047223505 0.0266989 0.12603033 0.08970027 0.21789868 0.201348

fc2.bias f4 [64]
00000000: da82 3d3e 2697 3fbd ada3 093c 4a69 433e
00000010: db9e 303e 0daf 8f3d 0101 de3d b0e4 c73d
00000020: 5a2a c83d f0c7 aebd 4b89 823d 2974 f1bd
00000030: 9218 2bbd d2e1 5e3e 16b3 113d fdfa 843e
00000040: 7a4a 983d 5ae6 a2bd a9fc 7c3d 962d 243e
00000050: e8ce 103e 6582 933d 20ed 9f3d 2c6a 113d
00000060: 1783 e93d 3dbe ffbd 073a 493d 770a 83be
00000070: bff0 093e 7d31 d93b 92c4 8b3e 76e3 383e
00000080: 84e0 1dbe cfef 8e3e 918e 343e 04d4 d8bd
00000090: dd14 b73d 0e1f 493e 8e40 cd3c 9c88 373d
000000a0: cfa6 503e 2e60 653c c28a 153e 3b5d a43d
000000b0: 4f03 87bd e87b c83d 5eba 2aba ee53 f63d
000000c0: 9292 bc3d 8d60 5f3d 546d 893e 1688 983d
000000d0: 7201 8f3e 8957 3e3e 2c40 003e 9c84 5b3d
000000e0: de16 b33d 8a4c 133e be5d ba3d bd44 ec3d
000000f0: ca17 5ebd 2e97 b3bc 85be 8a3d 1b37 8a3e
0.18506947 -0.046775006 0.00840084 0.19083133 0.17248099 0.0701581 0.10840035 0.097604156
0.09773703 -0.08534229 0.06373843 -0.11789734 -0.04177148 0.21765831 0.03557118 0.2597274
0.0743608 -0.07954092 0.061764393 0.16033015 0.14141428 0.07202605 0.078089 0.035501644
0.114019565 -0.12487457 0.049127605 -0.25593922 0.13470744 0.006628214 0.2729841 0.1805552
-0.15417677 0.27917334 0.1763251 -0.10587314 0.08939526 0.19640753 0.025055196 0.044808015
0.20376132 0.013999982 0.14603713 0.08025595 -0.06592428 0.09789258 -0.0006512756 0.12027727
0.092076436 0.054535437 0.26841223 0.07447831 0.2793079 0.1858808 0.1252448 0.053593263
0.08744596 0.14384666 0.09099911 0.11536548 -0.054221906 -0.021922674 0.0677462 0.26995167

fc3_1.weight f4 [32, 64]
00000000: 6ba1 0e3e 2b1e 4d3e c827 c33d 8a5f 003e
00000010: c44f eb3d 15eb de3d 94b0 753e 694a 843e
00000020: ed45 533c 4c0a 1d3d 024e fa3d 1b6c 99bd
00000030: 8daf 0c3e 1196 043e 533e c53d c552 2f3e
00000040: b79d 683e ae58 86be 8fc1 483e 38cf 293e
00000050: 8732 c33d 1580 663e 6df3 7f3e 7f49 e23d
00000060: 8805 333e 6a55 e13d a87b 803e bd7a b1be
00000070: e214 ab3d f047 c63c 4633 563e c14c 743e
00000080: 1c84 b9be e9dd 303e 812f 283e 6840 dcbd
00000090: c3ed 3f3e 5cd3 623e 4843 1b3e 2d95 473e
000000a0: 3d36 343e 6308 773e 4c90 8a3e 2410 18bf
000000b0: b283 b0bd ccf3 05bd 9642 503e f5cc f6be
000000c0: 939d 8a3d d795 543e 4af2 19bf c7c5 323e
000000d0: d3f7 12bf adcf 383e 13b0 4d3e b899 683d
000000e0: 16fd b43d 28cd 2f3e d9c3 383e a2c9 2ebf
000000f0: 6c96 ac3d 4b12 313e f9f8 873e 3c50 673d
00000100: fb83 8a3e dde8 483e becb 4e3e 27c7 ed3d
00000110: 147c e93c 594d 073e 52f0 313e aa44 043e
00000120: 3cf4 623e 3ed9 a3bd 65ee c23d 19b6 41bd
00000130: 1f57 8e3e 862a d53d 13da 933e a27e 5b3e
00000140: 211b 0d3e 4361 3fbe faa7 8d3e 8bc7 c23d
00000150: 6ebf 033e 83c1 923e 0042 5d3e 597e 833d
00000160: ef85 ff3d 3e89 a23d e044 603e f93f 80be
00000170: 70ad 893d 82e6 703d 2d78 da3d 5f7e 413e
00000180: fbd8 b3be dd37 f43c 5fcd cf3d cc87 ff3d
00000190: e38b 373d 2f22 863d 21f6 6f3e d995 9e3e
000001a0: 13fe f13c 2ab0 173d 5f6d fc3d cace 02bf
000001b0: d113 63be 601a 2f3c 556b 713e 98e2 febe
000001c0: cef4 153e ceaa 963d 1231 27bf 4c6d 883e
000001d0: 40fd 16bf 9d2b 883e 88fb 183e 3ae3 66bc
000001e0: 97d8 103e e01d 833e 850c 163e d6ef 4cbf
000001f0: d2b6 173e 69d0 573e 808e a23e 7943 d13d
00000200: d4e3 debd 547f bcbd 286c c9bd 9463 4e3d
00000210: 78b4 bc3d 886a 173d f488 303d 6cc7 a63d
00000220: 4c08 af3d aadd 983d b827 8f3d c08a 0a3d
00000230: 4423 843d 86a8 afbd 7eb2 a5bd d8b2 093d
00000240: 685b 9f3c 240e e1bd de7e babd 98cb cbbd
00000250: 4452 cb3d 565f a73d e6be 86bd 8880 9a3c
00000260: 0887 ebbc 2a8c de3d 3cde e7bd 26c3 babd
00000270: fe22 d5bd 8afc 943d 44f1 7fbd e479 983d
00000280: 9812 2d3d 0443 7abd 84ed 09bd 9032 4fbd
00000290: 98e1 613d 1854 4dbd c8c1 2d3d 004f 123c
000002a0: 7871 ccbd b6ec a0bd f280 b1bd 8624 863d
000002b0: b0e1 dd3c c0fa 4dbb d66e 98bd 8ea5 fdbd
000002c0: 9830 35bd 7ced c3bd 48a2 febd a229 f4bd
000002d0: c037 a7bd 36de f8bd 849a 1f3d 8c93 3f3d
000002e0: e85e 4e3d c0d8 febd ce4c 9e3d 88a4 c73c
000002f0: 12e7 823d e8ac fbbc b0de 753d 54cb f2bd
00000300: e94b 2d3d 5a5c e03d f150 603d 3200 e6bd
00000310: 2fb6 febc d20b 59bc bbe7 993d 95be 2bbd
00000320: 5047 933c f0bc 33bd 19fb 60bc 8012 23bb
00000330: c0f0 6ebd 2688 b6bd 748f dc3d b8b6 d53d
00000340: e16d 273b 7da1 043e ecca d83d 2cef 9bbd
00000350: d1ee 50bd a4c9 0bbe 0de1 393d c410 16bc
00000360: e4d9 6cbc 70aa b73d 794a 3dbd 9eea 98bc
00000370: 0ea9 e5bd ad66 5ebd 9e0a f93d 845a 7abd
00000380: a0d3 ffbc 9f61 6c3d 4e41 c5bd a461 9bbd
00000390: 554b c43d 7a97 36bd 0749 7dbd 8b59 00bc
000003a0: 968b 8ebc b3b6 ff3c c12e 533d a851 14be
000003b0: 1fec f13d 9064 f3bd 8cc0 c33a 6ee4 9bbd
000003c0: 9bfc 35bd fcf1 fc3d 0c13 4cbe ec03 f83b
000003d0: 3a6b a83d 19b6 e83d 9267 c8bd 8de5 8b3c
000003e0: cb97 033e c62f 07be 2811 053d c0c0 aabd
000003f0: 978a f03c 3280 e1bd a10e 903d e690 e0bc
0.13928764 0.2003104 0.09529072 0.12536445 0.114898235 0.10884682 0.2399314 0.2583802
0.01289509 0.038339898 0.1222191 -0.074913226 0.13738842 0.12947871 0.09631028 0.17121418
0.22716413 -0.26239532 0.19605087 0.16582954 0.09531122 0.22509797 0.24995203 0.110491745
0.17482579 0.110026196 0.25094342 -0.34663954 0.083535925 0.024204224 0.20917997 0.23857404
-0.36233604 0.17272152 0.16424371 -0.10754472 0.18743043 0.2215094 0.15162385 0.194905
0.17598815 0.24124293 0.27063215 -0.5939963 -0.08618869 -0.032703206 0.203379 -0.48203245
0.06768336 0.20760284 -0.6013533 0.17458259 -0.574094 0.18047972 0.20086698 0.056787223
0.08837335 0.17168105 0.1804346 -0.6827642 0.08427128 0.17292134 0.2655714 0.056473
0.27053818 0.1962008 0.20194909 0.11610251 0.028501548 0.132131 0.17376831 0.12916818
0.2216348 -0.0800042 0.095181264 -0.047292802 0.27800843 0.10408501 0.28877315 0.21435025
0.1377988 -0.18689446 0.27667218 0.09510716 0.12865993 0.28663263 0.21607208 0.06420583
0.12476718 0.07936333 0.21901274 -0.25048807 0.06722534 0.05881358 0.10667453 0.18895863
-0.3512648 0.029811794 0.10146593 0.12477073 0.04481114 0.06549489 0.23433734 0.309737
0.029540097 0.037033238 0.123255484 -0.51096785 -0.22175528 0.010687441 0.235761 -0.49782252
0.14644167 0.07356797 -0.6530925 0.26645887 -0.5898018 0.26595774 0.14939702 -0.014092261
0.14145122 0.2560873 0.14653213 -0.8005346 0.14815834 0.21075596 0.31749344 0.102179475
-0.108832985 -0.092039734 -0.09835082 0.050387934 0.09214109 0.03696683 0.04309936 0.081435055
0.085465044 0.07464154 0.069899976 0.03382373 0.06452039 -0.08577065 -0.08090685 0.033617824
0.019452766 -0.10989025 -0.09106229 -0.09950942 0.099278 0.08172481 -0.0657938 0.018860117
-0.028750911 0.10866578 -0.11321685 -0.09119253 -0.10407065 0.072747305 -0.06248595 0.07445124
0.04225406 -0.061099067 -0.03367378 -0.05058533 0.055146784 -0.050129026 0.042421132 0.008929968
-0.0998258 -0.07857649 -0.086671725 0.06549935 0.027085155 -0.0031429976 -0.07443015 -0.12385093
-0.044235796 -0.09566781 -0.124332964 -0.11922003 -0.0816493 -0.121517584 0.038965717 0.04677157
0.05038348 -0.124436855 0.07729493 0.024370447 0.063917294 -0.030722097 0.060026824 -0.11855188
0.04230872 0.10955115 0.05476469 -0.11230506 -0.031092731 -0.013247447 0.07514902 -0.0419298
0.01797834 -0.043881357 -0.013731741 -0.0024882853 -0.058335066 -0.08912687 0.10769549 0.104352415
0.002554767 0.12952228 0.10585579 -0.07613978 -0.051009003 -0.13651139 0.04538064 -0.009159271
-0.014456246 0.08968055 -0.0462136 -0.018666562 -0.11213885 -0.054297138 0.12160228 -0.06112148
-0.03122884 0.057710286 -0.096315965 -0.07586983 0.09584681 -0.044578053 -0.061837222 -0.007833849
-0.017400544 0.031215047 0.05155826 -0.14484274 0.11812615 -0.11884415 0.0014934703 -0.07611929
-0.044430356 0.12350842 -0.19929141 0.007568827 0.08223577 0.11362857 -0.097853795 0.017077232
0.12850873 -0.13201818 0.032487065 -0.083375454 0.02936296 -0.110107794 0.0703404 -0.027412843

fc3_1.bias f4 [32]
00000000: 6623 2c3e 2080 643e c818 b2bc f84d 02be
00000010: b3da 243e 17ea bdbc c250 adbd fb56 013e
00000020: 02d9 463e 08d3 de3e 11f6 c63e 6854 d43d
00000030: 885c 323d 4c9a 153e ee5a b83e d613 9f3d
00000040: d4d5 803e c3ce 053e 1d14 c13e cc10 d43e
00000050: b768 de3d fd77 713e a080 04bd 5d60 b63e
00000060: 73bb f33d 1f0a 103d 21c4 e33d fa80 373e
00000070: 2ca5 743e dcec ec3c 231e 683d 30ea 523e
0.16810378 0.22314501 -0.021740332 -0.12725055 0.16099052 -0.023182912 -0.08462669 0.12630837
0.1941872 0.4352038 0.3885961 0.10367662 0.043545276 0.14609641 0.36006874 0.07767455
0.25163138 0.13067155 0.37710658 0.41419065 0.108598165 0.23580928 -0.03234923 0.35620394
0.119009875 0.035165902 0.11121393 0.17920294 0.23891133 0.028921537 0.056669366 0.20597148

fc4_1.weight f4 [1, 32]
00000000: 09fd 90be cce8 44be 0a8d fcbd 1ebf ce3c
00000010: fb19 24bf 2cb6 943c 3b3c 633d d2f0 553f
00000020: b155 aebe f5a0 a93f f199 a23f 8681 b4be
00000030: 0380 0d3e bb06 b3be 939b 9c3f c1ce 54be
00000040: 2f8e 57be c4f4 8fbe 759d a63f f8a7 933f
00000050: 786b 52be 5155 4fbe 0934 033e 4152 a23f
00000060: 978f 9cbe c875 b7be 3ed5 a5be 8606 9bbe
00000070: 6c55 b4be 64f0 82be fc42 85be 86d9 44be
-0.2831805 -0.1922943 -0.123315886 0.025237616 -0.64102143 0.018153273 0.055477362 0.8357059
-0.34049752 1.3252245 1.2703229 -0.3525507 0.13818364 -0.34966072 1.2234977 -0.20781995
-0.21050332 -0.2811643 1.3016802 1.1535635 -0.20548809 -0.2024739 0.12812819 1.2681352
-0.305783 -0.35832047 -0.32389253 -0.30278414 -0.35221422 -0.25574028 -0.26027668 -0.19223604

fc3_2.weight f4 [32, 64]
00000000: 0609 943d 9c67 adbd db6f c4bd 4b4b 4cbd
00000010: fbeb d0bd 5ca6 523b e421 c2bd a079 ebbb
00000020: d021 8cbc e23d c6bd 7ccb a0bd d8cc 5f3d
00000030: 2cf8 27bd 194a fcbd bb3a bc3d 27eb 6abd
00000040: aa90 2a3c 40de cd3d d2be 723d 89cb dbbd
00000050: 3658 ce3d 28af 03bd 192e cb3c e4b1 4e3d
00000060: f159 8a3c 24fa ae3d f1d8 67bd cc40 be3d
00000070: acbb a23d 17b0 01be c9ba 5cbd a902 ce3d
00000080: 8402 bebd eac5 0cbe c118 8b3d c46a 343d
00000090: d3ac d53b b527 be3d 5e0e 99bb ea43 e33d
000000a0: 5fd9 c3bd dbc4 ffbd 16f4 03bd facf e03d
000000b0: 18e1 dabd e43a 533d 481a 033d 5ccd 58bd
000000c0: c1b0 ddbd f0bc b73c 5bfb 5c3c e5d7 a3bc
000000d0: 4998 4d3c 96fe 8b3d 6354 dcbd 0a4b ddbd
000000e0: ad10 16bd 705e 93bc a977 5cbd 7a08 3b3c
000000f0: 5a73 c4bd 9504 f03d 60da 58bd 319f a1bd
00000100: 3884 0cbd 374f e4bd 31cc f7bd 2c74 d53c
00000110: 035d 3abd 3ac8 a2bd 9ecb 413d bc08 b03d
00000120: ef96 313c d823 7fbd d9fc 603d a452 30bd
00000130: 6c32 91bd 5191 0cbd dc0d 2fbd 40ce dd3d
00000140: 8b00 0ebd 807f e6bd e89a 3cbd 7551 0b3d
00000150: 163c 2b3d 65bb b8bd 5053 cbbd 5eae 2bbd
00000160: e274 c3bb f0ac d2bd 037c 393d 5935 dabc
00000170: c9ea 873d 5c2d d33c 9292 01bd 1197 c4bc
00000180: df60 103d 72ef a0bd a9b0 34bd a852 6a3d
00000190: c240 fbbd 17c3 0dbd 82e2 653c 4ac3 97bd
000001a0: 9534 413d c559 4e3d 53fe f9bc bdbe 2dbd
000001b0: afca 6a3d e0be e63b e473 ccbd fd0b 8d3d
000001c0: 086c e73d 6d70 c23d 83b6 93bd 5562 d43d
000001d0: 5948 72bd 51fe cebd a848 9c3d e487 b4bd
000001e0: ffde d23d 3ae4 ed3d 8023 c4bd b5eb a43d
000001f0: 2746 f7bc a45d 37bd 06b2 4e3c 12e5 0d3d
00000200: b36d 55bd 2071 0a3e 6cff 593d 524b 90bd
00000210: 2bf5 3b3d 80b7 49bd ce25 133e 53b9 46bd
00000220: 9f34 843d c417 0f3d 3bcf 083e 7661 833c
00000230: fdc9 ff3d 8e8c adbc cccc 8a3c d23c aebc
00000240: 1e7b e4bc ab14 febd 4dff 843d fb92 86bd
00000250: d784 833d e2c8 113e a792 cd3d e69f 523e
00000260: 30bf d5bc d762 e2bd ff2b 9bbd 8534 cebd
00000270: f23e e43d a96c b53d 64ff 843d 8e66 8c3c
00000280: 3b7a 0dbe 5d93 333e 37cd b43d d08d 773c
00000290: 4083 13be 7799 673d fc23 e53b 41f1 f5bd
000002a0: cd78 6d3c 6ae7 98bd 20fc c5bb 5de9 a5bd
000002b0: 76eb 2b3e 709c a13d 5e8a dcbc 44ad 0b3d
000002c0: 3e82 0fbd 892b a4bd ebfe b8bb ca12 153d
000002d0: 060b 813e 1d06 06bb 6288 073e 6ea5 a9be
000002e0: f6d5 943d 0890 87bd f4ca 44bd f087 ac3e
000002f0: 655b d93c b4dd 9fbc 1b09 48be 4079 243e
00000300: b0c2 493d 628f 5e3d bd1a 9a3d e2e1 923d
00000310: cb17 97bc afe3 9f3d 72f7 ad3d 3819 d83c
00000320: 6c43 c5bd f4db b23d 98e1 88bd aa51 da3d
00000330: 7226 94bd 9f28 35bc a500 62bd d870 99bd
00000340: 4257 2abd befd a43d 20b4 3b3d 2c59 70bc
00000350: baa7 d2bd 031f 87bd 44e4 863d a42b 6fbd
00000360: 2271 cdbd e668 8cbd 3f82 4ebd 4481 72bd
00000370: 467a 873d a92c 08bc 232a e93d eab5 e1bd
00000380: b689 80bd 7146 533d 20a6 953d b83f 52bd
00000390: 4bb1 3c3d a853 83bd 7254 a9bd 1ba8 8f3d
000003a0: e9d0 3abc c8f7 c8bd 91b7 8eba 96fc e83d
000003b0: 847e f63c e8ec ccbc 91ed b1bc e891 98bd
000003c0: 230d 8b3d 2df0 54bb 34e7 80bd df47 273a
000003d0: df99 1b3d 2071 ad3b 2c0b 0fbc 28a6 f0bd
000003e0: d91a 28bc 04cb 23bd 2bb7 0fbc 55a7 8fbd
000003f0: 002e 413d 906f 9dbd 1072 25bd 374c 64bd
0.072282836 -0.084670275 -0.09591647 -0.049876492 -0.1020126 0.0032142615 -0.094791204 -0.0071861297
-0.017105967 -0.09679772 -0.078513116 0.054638714 -0.04100816 -0.123188205 0.091908894 -0.057353165
0.010410467 0.100521564 0.05926401 -0.107321806 0.10075419 -0.032149464 0.024802255 0.05046262
0.01688859 0.08543804 -0.056603376 0.09289703 0.07945952 -0.12664829 -0.05388907 0.10059101
-0.092778236 -0.13747373 0.06791831 0.044047132 0.0065208464 0.09284917 -0.004670902 0.11096938
-0.095629446 -0.12488719 -0.0322152 0.109771684 -0.106874645 0.051569834 0.032007486 -0.05293022
-0.10824729 0.02242896 0.013487662 -0.020000407 0.012548515 0.06835668 -0.10758283 -0.10805328
-0.036636997 -0.017989367 -0.053825054 0.011415595 -0.09592314 0.11719624 -0.052942634 -0.078916915
-0.03430578 -0.111479215 -0.12099493 0.026056372 -0.04549886 -0.079483464 0.047313325 0.08595416
0.010839208 -0.062290043 0.054928634 -0.043047562 -0.07089695 -0.034318272 -0.042737827 0.10830355
-0.034668487 -0.112547874 -0.046046168 0.03401323 0.04180535 -0.09020118 -0.09928 -0.041914336
-0.0059648613 -0.102868915 0.045284282 -0.026636766 0.066365786 0.025778465 -0.03163392 -0.023997815
0.035248633 -0.078581706 -0.04411379 0.057207733 -0.12268211 -0.03460988 0.014031054 -0.07410295
0.047169287 0.05037858 -0.030516779 -0.04241823 0.0573222 0.007041797 -0.09983042 0.06887052
0.11299902 0.094941 -0.07212546 0.10370318 -0.059151027 -0.10107101 0.076310456 -0.088149816
0.102964394 0.116157964 -0.095770836 0.0805277 -0.030184818 -0.044767037 0.012615686 0.034642287
-0.05210657 0.13519716 0.053222105 -0.07045616 0.045888107 -0.049247265 0.1436989 -0.048516583
0.06455349 0.034934774 0.13360302 0.016037684 0.12489698 -0.021185186 0.016943358 -0.021269236
-0.027890738 -0.12406286 0.06494007 -0.06571003 0.064218216 0.14236787 0.10037737 0.20568809
-0.026092142 -0.110540085 -0.07576751 -0.10068611 0.11144818 0.08858616 0.064940244 0.017138746
-0.13816158 0.17536683 0.08828204 0.015109494 -0.14405537 0.05654284 0.006992815 -0.12008906
0.014494133 -0.07466014 -0.0060420185 -0.08101151 0.1678904 0.07891166 -0.026921447 0.034100786
-0.035036318 -0.08016116 -0.005645623 0.03639487 0.25203723 -0.002045042 0.1323562 -0.33134025
0.07267372 -0.06619269 -0.048045114 0.33697462 0.026532838 -0.019514896 -0.19534723 0.16061878
0.049257934 0.05433596 0.07524631 0.0717199 -0.018443963 0.07807099 0.08494462 0.026379213
-0.09632 0.08733359 -0.066836536 0.106601074 -0.07233895 -0.011057048 -0.055176396 -0.07492226
-0.04158712 0.0805621 0.045826077 -0.014669698 -0.102858976 -0.06597712 0.06586507 -0.05839123
-0.10031344 -0.06855945 -0.05041718 -0.05920531 0.06615119 -0.008311429 0.1138499 -0.110210255
-0.06276266 0.05158085 0.073070765 -0.0513303 0.046067517 -0.064124405 -0.0826806 0.070144854
-0.011402347 -0.098128855 -0.0010888447 0.11376302 0.030089624 -0.02501531 -0.021719726 -0.074497044
0.06789615 -0.0032491789 -0.062940985 0.0006381254 0.03798854 0.0052930266 -0.008730691 -0.11750442
-0.010260307 -0.039988533 -0.008771698 -0.07014338 0.04716301 -0.076872945 -0.04039198 -0.055736747

fc3_2.bias f4 [32]
00000000: 6aae 013d 51fe e7bd 84a2 e2bc 67ec a4bc
00000010: be15 f23d b28e 223e eb2b c23d 0dac a63c
00000020: aede c5bd 33f4 8e3e d2ee 7d3e fbd8 03be
00000030: c7d8 ddbd 18ad a1bd e6a6 1e3e 19b8 103e
00000040: 2e8d 103e b479 1e3d 9499 263e 4c1f b33d
00000050: 1578 1ebe a9a6 963e 0fa6 153e 6564 bdbc
00000060: fe54 963d 100f c8bc 43b1 0e3d 94eb 6cbd
00000070: e504 26bd df3a a5bc 24fe 663d f959 013e
0.031660475 -0.11327804 -0.027665384 -0.020132257 0.11820553 0.15874746 0.09481033 0.020345712
-0.096616134 0.27920684 0.24798134 -0.1287574 -0.108323626 -0.07894343 0.15493354 0.14132728
0.14116356 0.038690284 0.16269523 0.08746204 -0.15475495 0.29424027 0.14614128 -0.02311916
0.0734043 -0.024421245 0.03483702 -0.057841852 -0.04053201 -0.020169673 0.05639471 0.12631978

fc4_2.weight f4 [4, 32]
00000000: 280c fdbb 040b 893d 9e6a 27be 3ce7 e9bd
00000010: 595c e4bd eebd 5f3e faa1 17be 2322 cd3d
00000020: cb11 113e 5a55 93bc e42a 9e3c 8ba7 113e
00000030: ec54 27be a48d 34be 23b9 52be f38f d73c
00000040: 2f41 37bd 9473 9abd cb22 243e 9ce5 bc3d
00000050: 22fd c13d a62d 8e3e d95a 3bbe 344d 3cbd
00000060: 59b2 693d 98dc 683d 7a8a 53bd 28f9 013e
00000070: 988f 65be acfa d5bd 032c 38be 2d51 983c
00000080: cb7d 06be 94b4 ff3d 1570 25be 6eb2 5d3d
00000090: f2ea 6f3e 0116 463e 6989 d03d bc6c 623e
000000a0: 3071 96bd d738 0c3e 892d 2cbc b96c ffbd
000000b0: 6bb2 5e3e 3d4c 08be 6f3a f33d 3225 963d
000000c0: 561a 263e 581b 62bc 5139 b93d 84b6 fd3d
000000d0: 78f6 9ebe ef07 e33c 5943 b03c 8420 96be
000000e0: 0fdb 0dbe b0da 813c c039 813e 9db6 b7be
000000f0: f01b 86bc d8f6 cb3d d24e 08be 760f 07bd
00000100: b408 aebd f9d7 0b3d 510c c5bd 04bc 0d3e
00000110: c6f9 63be 54a6 fb3c d7c8 fdbd 90fa 8c3d
00000120: 3349 7f3d c2e9 62be 4f18 2bbe ec8d ed3b
00000130: b59e bebc c427 b7bd 0c3a bc3e 7270 00be
00000140: 75da 0ebe 7866 813e 8b85 e3bd 053f 703d
00000150: a517 f23d 2b8f 62be 2025 713e 38a4 bc3e
00000160: 493f f73c 3927 1d3e a4cf 6a3d d572 a03e
00000170: b171 673e bcfa b23d 5f74 313d 8ce8 0aba
00000180: e6a6 d53d c73d 9b3c 090e 163e 8f1b 81bd
00000190: 14a9 d2bc a761 e13d 9feb 0c3d aaca 8ebe
000001a0: e2fa d53d b308 843c 1772 b63d 25c0 f6bc
000001b0: 9664 293d f48f 2ebd d528 ca3c 66a3 2cbe
000001c0: d495 23be b109 d4bd 1d9f 6b3d 1bf5 ed3d
000001d0: 45ad 453e 7908 003e 0133 acbe 5717 dcbd
000001e0: 797e 3d3d 30de 67bd 704e 46be 006c 513d
000001f0: ff9b 643e bf3f a03d abca 063e 78f1 c03e
-0.0077223964 0.06691554 -0.16349265 -0.114210576 -0.111504264 0.21849796 -0.14807883 0.10016277
0.14166944 -0.017985035 0.019307561 0.14224069 -0.16340989 -0.17632157 -0.20578437 0.026313758
-0.0447399 -0.07541576 0.16028897 0.09223482 0.094721094 0.27769202 -0.18296374 -0.045972064
0.05705485 0.056851 -0.051645733 0.12692702 -0.22418058 -0.104482025 -0.17985539 0.018593395
-0.13133924 0.124856144 -0.16156037 0.054125242 0.23429468 0.19344331 0.10182459 0.22111791
-0.073458076 0.13693558 -0.010508903 -0.12471909 0.21747749 -0.13310333 0.1187638 0.07331313
0.16220984 -0.013800465 0.09044135 0.12388328 -0.31047416 0.027713744 0.021516489 -0.29321682
-0.13853095 0.015851349 0.25239372 -0.3588151 -0.016370744 0.09959191 -0.13311318 -0.03297373
-0.08497754 0.034141514 -0.0962149 0.13841254 -0.2226325 0.03071896 -0.12391823 0.068837285
0.062325668 -0.22159484 -0.16708492 0.0072495844 -0.023269037 -0.089431316 0.36763036 -0.12542894
-0.13950522 0.2527349 -0.11109456 0.05865385 0.11820916 -0.22124927 0.23549318 0.3684404
0.030181544 0.15346994 0.057326928 0.3133761 0.22601964 0.0873923 0.04332387 -0.00052989344
0.10432224 0.018950356 0.14653791 -0.063040845 -0.025715388 0.11004954 0.034404393 -0.27888995
0.10448243 0.01611743 0.0890848 -0.030120919 0.04135569 -0.042617753 0.024677673 -0.16859207
-0.15975124 -0.10353411 0.05752479 0.11619016 0.19304378 0.12503232 -0.33632663 -0.10746639
0.04626319 -0.05660838 -0.19365859 0.051128387 0.22325133 0.078246586 0.13163249 0.37684226

fc4_2.bias f4 [4]
00000000: fdad 4d39 4ab8 503e bb1a 54bd 8de0 253e
0.00019615139 0.203828 -0.051783305 0.1619894
