Lander_Gifs/Checkpoints_for_report/checkpoint_Rainbow_Dueling_PER_4000.pth (torch_old, 37914 bytes, 11 tensors)

fc1.weight f4 [64, 8]
00000000: ee3a 8f3c 50b4 403e 6285 8cbe 5945 21bf
00000010: bf7c b73d ac7a d73c 54b9 3a3e a763 843e
00000020: 572c 213c 05cb 723e dd5b 1d3e 8a5d 8ebc
00000030: 67cf 0bbd 3df4 9ebe 6ac3 22bf 4292 873e
00000040: 3586 bf3e 5dbf 4c3d 90cd b8bd 2730 e4be
00000050: 77f1 0e3f 980f 9d3e 1fd8 f53d 0169 8f3e
00000060: a34a 893e 7757 3fbd df2b 183f 46b4 61bf
00000070: c285 0bbe edb8 8cbe 817e aabe e468 c03e
00000080: 94c5 fcbd 1d36 65bf 591f 06bf a7d1 62bf
00000090: cb95 983d 9d43 9e3e 7330 463e b1e0 fa3d
000000a0: 4ef2 f43e ff5e 6bbe a4d8 9a3e e26a e6be
000000b0: 44a8 d8be 2abe 87be 54c3 513e d931 273e
000000c0: 20ec e33b 2aae 57be 8ef9 a03e 1e27 013f
000000d0: 0844 8dbd f78e 473d 6fa5 9b3e 3ed1 a0be
000000e0: bede a53d 8c0b 8fbd d14b 80bd 7dd7 d7be
000000f0: a6ed 0d3f 0aa3 523d c4b8 ffbc a733 433d
00000100: dbdd aebb 1dd9 39be 4237 dcbb beb5 2cbd
00000110: 9b62 65bc bc48 ce3e 036e 433d 5b41 0bbf
00000120: 90b2 dd3d 363b 813e 604e f63e f022 a03e
00000130: b80e fbbe 1905 eabe 44ac fbbb 560e 0dbf
00000140: 2f5d d8be cd09 0f3f 936e 963e c263 55bf
00000150: 8f5f b5bc 4313 2ebe ce4d aebc e86c 48be
00000160: 45a6 bb3c e7c4 b4be 05e0 143f 7802 b9be
00000170: 5b9e 98be 4a12 333f 2d2c dabd 2b9d e0be
00000180: f983 5a3e 2f4c 773f f183 a2be 6d73 81bf
00000190: cffe 323e 699d 7b3e 9ef0 283d d906 ab3b
000001a0: 35a8 12bf e417 e0bd c1d7 c9be 1cc0 88be
000001b0: afda 13be a52c 2c3d 20d0 2b3d 6ea8 943e
000001c0: 9eb4 91be 52ab 6c3f b91a 853e 84b0 4fbf
000001d0: c864 22bf 3a11 bdbb 126f b93d 3fea 8ebe
000001e0: 1d79 1b3f 3904 c43c ebb7 c2bd 26fd 6fbd
000001f0: a532 fe3e 96a1 1bbe 574c c9be 73ca fdbe
00000200: a800 80bd 2724 2ebe ab10 243b cf6e 02be
00000210: 1c90 19bf c54b e0bd e431 903e c9f0 febb
00000220: 7fd2 543e dbc1 fe3d 06e5 fb3d 1823 a5bd
00000230: ddc5 3b3e 01b0 1b3f f130 b73e 04fe 37be
00000240: b105 99be 88b3 febe bab8 383e e10e b7bd
00000250: 952b 1bbf 13c5 36bf a573 6dbe 8903 ccbd
00000260: b3d3 debd ff77 c33d 3503 a43e 620d 53bf
00000270: d8c9 223e 2afd 88be d4f4 293d 761a 84be
00000280: 8214 b13d a916 eabe c45f 20be c60c 27bf
00000290: e7ec e43e 3750 2f3e bbc7 803d d142 09be
000002a0: 20da 36bf 3bea bb3c 4c8b 573e 7afe 5cbd
000002b0: 0129 bc3e b7cc 993e 90d3 4dbf 8b62 0fbd
000002c0: 56b0 773e 649e 56be b9da 823e c51c 59bf
000002d0: 51e1 35be c684 f5bd 2442 443e 7cb4 d93d
000002e0: 2dfd 813d e0e9 5cbe 0677 acbe d3ed 4bbf
000002f0: 1e96 3dbf 2e2f 1d3c 849e 723e 21a7 533e
00000300: 6253 38bf 74a6 9d3d dc03 bebe 439c 82be
00000310: 2672 aebd 3377 ce3d ee28 4fbe 57d5 05be
00000320: c8e2 c8bd ea91 5b3e 3cf3 4e3e ec2d f9bc
00000330: e72b 373e 7481 833f f26d 5b3d 0612 8d3e
00000340: 5f5f 003f ba85 08be f12f c23d 411f 0abf
00000350: a8e5 76be 8b1e 2c3d d39e f63c a90a 233d
00000360: bcdd a3be 96a0 41bf f21c ea3e 735f f0be
00000370: e529 a73e f330 b43e 1327 383e 2dc9 e73c
00000380: 660d 2fbf 1b20 bf3e c420 29bf 2270 b6bb
00000390: f8bb aabe 909d 253d fb58 03bc 4c16 663e
000003a0: dfab 0d3e 01ef 913e c07f d03e 197e 2bbf
000003b0: 9b6a 613e fe02 f5bd 7ea1 843d fd7d 193e
000003c0: eb93 e43c 587c aebc e17d 9b3e 1ac5 563d
000003d0: 808f 223f 803f fbbe f03d 0a3f 49d3 74be
000003e0: ba8d 8abe 573c 6b3d e768 d1be 548a 373e
000003f0: 1357 b73e 12a9 273e 916e 9dbc d57e c6bd
0.017484155 0.18818784 -0.27445513 -0.6299644 0.0895934 0.026303612 0.1823476 0.2585728
0.009837232 0.23710258 0.15367074 -0.017378587 -0.03413334 -0.31045714 -0.6357943 0.26478773
0.3740708 0.049987186 -0.09023583 -0.44567987 0.55837196 0.3067596 0.120041125 0.280098
0.26814756 -0.046714272 0.5944194 -0.881657 -0.13625243 -0.27484837 -0.3329964 0.37580025
-0.123423725 -0.89535695 -0.5239158 -0.88601154 0.07450446 0.3091096 0.1935442 0.12249888
0.47841114 -0.22985457 0.3024341 -0.4500342 -0.42315876 -0.2651227 0.20484668 0.16327609
0.0069556385 -0.21062532 0.31440395 0.50450313 -0.068977416 0.048720326 0.30399653 -0.3140964
0.08099125 -0.06984624 -0.06264461 -0.42156592 0.5544075 0.051425017 -0.031216033 0.04765668
-0.005336506 -0.18149228 -0.0067204544 -0.04216551 -0.01400056 0.40289867 0.047712337 -0.543966
0.10825074 0.25240487 0.4810667 0.31276655 -0.49034667 -0.45707014 -0.007680448 -0.551
-0.42258593 0.5587433 0.29381236 -0.83355343 -0.022140292 -0.16999535 -0.021277335 -0.19572794
0.022906432 -0.35306475 0.58154327 -0.36134696 -0.29808316 0.6994978 -0.10652957 -0.4386991
0.21339406 0.9660062 -0.31741288 -1.011335 0.17480014 0.24571766 0.041245095 0.005219322
-0.57287914 -0.10942057 -0.3942242 -0.26709068 -0.1443889 0.042034764 0.04194653 0.29034752
-0.28458112 0.92448914 0.2599695 -0.81128716 -0.6343503 -0.005769876 0.09054388 -0.2791309
0.6073168 0.023927795 -0.09507736 -0.05859103 0.49648014 -0.15198359 -0.39316055 -0.4956852
-0.06250125 -0.17005979 0.002503435 -0.12737583 -0.5998552 -0.10951952 0.28163064 -0.0077801687
0.20783423 0.12439319 0.12299542 -0.08063334 0.18337198 0.60815436 0.35779527 -0.17967993
-0.29887155 -0.49746346 0.18039218 -0.08938385 -0.60613376 -0.7139446 -0.23188646 -0.09961612
-0.10880222 0.09544372 0.32033697 -0.82442296 0.1589731 -0.2675565 0.041493252 -0.25801438
0.0864649 -0.45720413 -0.15661532 -0.65253866 0.44711992 0.17120443 0.062880956 -0.13404395
-0.7142658 0.022938838 0.21049231 -0.053953625 0.36750033 0.30038998 -0.80400944 -0.035006087
0.2418836 -0.20958859 0.25557497 -0.84809524 -0.17761733 -0.11988215 0.19165856 0.10630128
0.063471176 -0.21573591 -0.33684558 -0.79659766 -0.74057186 0.009593768 0.23693281 0.20669223
-0.7200223 0.07697764 -0.3711232 -0.25509843 -0.08517866 0.10081329 -0.20230457 -0.13069664
-0.0980888 0.2144238 0.20209974 -0.030417405 0.17887841 1.0273881 0.05357165 0.27552813
0.50145525 -0.13332263 0.094818 -0.5395394 -0.24111044 0.042021316 0.03010503 0.03980509
-0.32005107 -0.7563566 0.4572521 -0.46947822 0.3264915 0.35193595 0.17983656 0.02829417
-0.6837982 0.37329182 -0.6606562 -0.0055675665 -0.33346534 0.040433466 -0.00801682 0.22469443
0.13835095 0.28502658 0.40722466 -0.66989285 0.22013323 -0.11963461 0.06476115 0.14989467
0.027902564 -0.021299526 0.30369475 0.052434064 0.63500214 -0.49071884 0.5400076 -0.23908724
-0.27061254 0.05743059 -0.40900347 0.17923862 0.3580862 0.16373089 -0.019217761 -0.0969216

fc1.bias f4 [64]
00000000: 5479 6cbe 3562 36be 296e 2f3e 067c be3c
00000010: 9c84 e13c 8a86 12bd 0d77 153f d26f 913e
00000020: 6ae4 5e3e b375 773d 9f30 423e 3e4f 7f3b
00000030: c9f3 db3d 5bec f9bc d068 f63e 1c64 abbd
00000040: ddb4 a73e 4ce9 56be 705b 233f ea38 2d3f
00000050: 8a53 b4be f9ac 913d fa6d 83be d50b e03c
00000060: 376e 5bbd fd6b 49be 5712 59bd 24a3 983e
00000070: 7153 74be 4bd3 3f3e 2bb7 833d 56bd 6cbe
00000080: 8885 283c 91d9 213f a6a7 babe ef7a b43e
00000090: 420f e93d 2f85 bb3e 97be abbe 472e dfbe
000000a0: bdc6 923e e4c4 27be 18b0 083d 55cf 323a
000000b0: d150 1a3e 92c0 703e f9a8 ee3e 7c59 913e
000000c0: e110 5ebe f4c7 3b3e cd23 db3d a2af c63d
000000d0: edae 42bd 6c27 d43e 5708 1dbd 8382 653e
000000e0: 9a4b 473f f250 a43e 75b0 7d3e 4ff5 803e
000000f0: ec74 233d 22a3 0dbe fad9 5f3e c5c5 d93e
-0.23093158 -0.178109 0.17131867 0.023252498 0.027529053 -0.035772838 0.5838478 0.28405625
0.2176682 0.06041498 0.1896386 0.0038957144 0.10739858 -0.03050821 0.4812684 -0.08368704
0.32755175 -0.20987433 0.638114 0.6766497 -0.35219985 0.0711307 -0.25669843 0.027349392
-0.053571906 -0.196701 -0.052996006 0.29811966 -0.23859955 0.18732946 0.06431421 -0.23119101
0.010285743 0.63222605 -0.3645603 0.3525004 0.11379863 0.3662505 -0.33543846 -0.43589994
0.2866725 -0.16383702 0.03337106 0.0006821056 0.15069892 0.2351096 0.4661329 0.28388584
-0.21686126 0.18337995 0.10700188 0.09701468 -0.047530103 0.41436327 -0.03833803 0.22413068
0.77849734 0.32093006 0.24774344 0.25187156 0.039906427 -0.13831761 0.21860495 0.425337

fc2.weight f4 [64, 64]
00000000: 0d0a 823c ea60 703e 3f78 62bd cb68 133f
00000010: f733 bb3e a21c 373e 582d 7dbe 80ac a3bc
00000020: 3ae9 293e 32a2 b1be 6d55 48bd 5504 d3be
00000030: c98e d2bd 0266 a93e b5a6 11bc 623b f7bd
00000040: c138 1d3e bfb4 4e3e 01c5 7b3e 5c52 8ebd
00000050: 1c87 4c3f af14 35be 493d 393f 30a5 003f
00000060: 982f bb3e 6b85 8d3c 00a4 113f ce0a 5a3e
00000070: 44c5 0d3f 1926 27be 1c5f 0abe cd4e 1a3f
00000080: d9b2 f83c 386f 7dbe 8b31 213f 44f9 acbd
00000090: 09a7 9a3e 86e8 16bd 309d 353d 8059 db3e
000000a0: 31e0 11be 16d0 a33e f98c 423e 7fc5 13be
000000b0: 451e bf3e 70d8 a13e 1714 d63e 9cb0 8ebe
000000c0: 0174 213f 05c5 483d 623e 88bd e713 a7be
000000d0: 6dcd 0ebe 7800 b33d 77ef 1c3f 69e2 b33e
000000e0: 5f45 6bbe b9bd 8d3e 2344 283e 1963 f23e
000000f0: 0881 4abc 06aa 913e 193f 233a c14d 9dbd
00000100: f485 6fbd 8410 b13d 314a ba3c 7293 913d
00000110: 88a2 c4bd 366c 383e e40c 153c 2661 013e
00000120: 864d f1bd e8e5 903c ff6c fb3d 8e9b 873c
00000130: e6a6 573e 60a2 3d3d ca35 c7bc 2838 abbb
00000140: 8db7 ac3d 15d1 213e 97b6 d6bd 5758 f43c
00000150: 96cb f83e eb69 dd3c 8535 b73e 21ba 35be
00000160: 971b e33e 35cf 6e3e bfbc a63e 11e2 023b
00000170: fef5 4f3e bd44 ed3d 5f9d d4be cf57 9e3e
00000180: 1c60 e5bb 0eba 273d ce4a d83e 6221 b9bd
00000190: 4596 c73e 257b 063d ca4f af3d 8238 4e3f
000001a0: e14b 773d b698 263e 6004 32be f2d6 b3be
000001b0: b614 5e3e 8250 93bc aa27 8bbc e4cb 69bd
000001c0: d620 113e 287d 5fbe 985f cabc 4e40 a9be
000001d0: 5193 f03d a072 313e bb9f 5a3e 955c 00bf
000001e0: dca4 443d 6672 88bd 1c7d 843d 651a d33d
000001f0: aca4 7fbd 947c 173e 2c79 59be e3af c13d
00000200: 4298 f03d 0906 f43d f876 763d d923 6d3e
00000210: c4e3 70bc fd96 953e dba7 2f3d a430 4fbc
00000220: 69d7 83bd 2e9c 3a3d a47d 2d3e 2f9d 903d
00000230: f78c 8b3e b31c e63d 2ef0 1f3e 6da7 dd3e
00000240: 2132 4b3e 4a5f 0fbc ea28 c7bc c9c1 abbd
00000250: 1536 1f3f eb84 ba3d aafb 0e3f 414b f7bd
00000260: ee85 cf3e a54d 163d 2139 df3e 46e7 99bd
00000270: 0127 513e 7fda 053d 8503 a7be 07be 0b3f
00000280: 4e66 0dbd 53cd bdbd 75b5 fe3e 773d 87be
00000290: 2c98 5e3e 2b3c 3a3e ccf7 ca3d 97f8 2f3f
000002a0: 2258 75bc f9f3 aa3e 04bb 4e3d c302 acbe
000002b0: 1237 4d3e 3fb2 10be 6615 81bd ce63 b43d
000002c0: 4bd6 273e d1ba 4abe c235 95bd 6b9e f6bd
000002d0: bbc7 33bd dd36 663e e10e 4e3e ac25 bdbe
000002e0: 2fb2 76bd c9cf 4c3e 5fba 06bb b272 a43e
000002f0: 2220 6b3b dfa9 c23d 3f8b e7bc 447b 843e
00000300: 16ee 71bd b335 4b3d d9d1 6d3d a549 cbbd
00000310: 39a0 8e3d b962 293d f9ae 083d 6963 13be
00000320: 8fbe 8f3e cd6f 4ebe 8f99 773d 443d c23c
00000330: 17d4 fd3c 2c25 a63d b80c 2ebe fefd 903e
00000340: 8d7a 11be c5ec 4f3e 54fe 70be 2840 b1be
00000350: 8ad1 013f baa6 123e a6a1 c63e 189c fabd
00000360: 584f ec3e 0a5a 8c3e c2c2 aa3e b3f1 e2bd
00000370: 95a9 193e f32c 58be 2b91 2ebe 6ea5 093f
00000380: 56cc 283c b9eb 05be b28f 083f 9fa2 8abe
00000390: 3499 c13e 768e 89bd 0690 fe3d 3ef1 353f
000003a0: 7fda 013d 5d34 a93e df09 62be 02e8 42be
000003b0: dc6f b63e bd77 91bd c6f9 05be 8049 173e
000003c0: eec0 f0bd b1fe 003e b435 7abd 1b83 98be
000003d0: 34dd 40bc fc29 19be 955b b03d 4d84 bfbe
000003e0: 7682 1bbe 35fb 94be c00c b8bd b230 06be
000003f0: a263 26bd 1615 3c3d ba74 ad3d e010 743c
0.015873933 0.2347447 -0.055290457 0.57581776 0.36563084 0.17882016 -0.24724329 -0.019979715
0.16592875 -0.34694058 -0.048909593 -0.41214243 -0.1028114 0.33085638 -0.008889844 -0.12071873
0.15353681 0.20186137 0.2458687 -0.069493026 0.7989366 -0.17683671 0.7235914 0.50252056
0.3655975 0.017275533 0.5689087 0.21293184 0.5537913 -0.16323127 -0.13512844 0.6027649
0.030358719 -0.24749458 0.6296622 -0.08445981 0.30205563 -0.036842845 0.04433936 0.4284172
-0.14245678 0.31994694 0.1899909 -0.14430808 0.3732778 0.3161044 0.41812202 -0.27869117
0.6306763 0.049016017 -0.066525236 -0.32632372 -0.13945551 0.08740324 0.61302894 0.35133675
-0.22975682 0.2768381 0.16432242 0.4734123 -0.012359865 0.2845003 0.0006227359 -0.07680846
-0.058477357 0.08645728 0.022740455 0.07108201 -0.09601313 0.18010029 0.009097312 0.12634715
-0.117823645 0.017687753 0.12276649 0.016553666 0.2105976 0.04629743 -0.02431764 -0.0052252
0.08433447 0.15802415 -0.10484045 0.02982728 0.48592824 0.027028045 0.3578302 -0.17746784
0.44356987 0.2332123 0.32565877 0.0019971172 0.20308682 0.115853764 -0.41526315 0.30926368
-0.0069999825 0.04094892 0.4224457 -0.090395704 0.38981834 0.032832284 0.085601404 0.80554974
0.0603751 0.16269192 -0.17384481 -0.35124928 0.21687588 -0.017982725 -0.016986687 -0.05707921
0.14172682 -0.21825087 -0.024703786 -0.33056873 0.117468484 0.17328882 0.21349995 -0.5014127
0.048008785 -0.06662445 0.06469175 0.10307769 -0.062412903 0.14793617 -0.2123763 0.09457376
0.11747791 0.119152136 0.06017205 0.23158206 -0.014702741 0.29216757 0.04288469 -0.012645874
-0.064375706 0.0455591 0.1694246 0.070612304 0.27255985 0.11235943 0.15618965 0.43291798
0.19843341 -0.008750746 -0.024311502 -0.08386571 0.621919 0.09107383 0.5585276 -0.120749004
0.40531868 0.03669514 0.43598273 -0.07514815 0.20425035 0.032679077 -0.32619873 0.54586834
-0.034521393 -0.09267678 0.49747816 -0.2641408 0.21737736 0.18187015 0.09910545 0.68738693
-0.014974626 0.3338926 0.05047132 -0.33595857 0.20040539 -0.14130495 -0.063029096 0.08808099
0.1639034 -0.19797827 -0.07285644 -0.120419346 -0.04389165 0.22481866 0.20122863 -0.36942804
-0.060228523 0.20001139 -0.0020557863 0.32118756 0.0035877307 0.095050566 -0.02826464 0.25875294
-0.059064947 0.04961176 0.058061454 -0.09926156 0.06964154 0.041353915 0.033369992 -0.1439339
0.28075072 -0.20159836 0.06044918 0.023710854 0.030984921 0.08112559 -0.1699704 0.2831878
-0.14206906 0.20305164 -0.23534518 -0.3461926 0.50710356 0.14321414 0.38795203 -0.12236804
0.46154284 0.27412444 0.33351713 -0.11081257 0.15006097 -0.21110897 -0.17047565 0.5376805
0.010302624 -0.13078202 0.5334426 -0.27077195 0.37812197 -0.067166254 0.12429814 0.7107123
0.031702515 0.33047763 -0.22074078 -0.19033816 0.35632217 -0.071029164 -0.13083562 0.14774132
-0.117555484 0.12597157 -0.06108637 -0.29787526 -0.011771489 -0.14957422 0.08611218 -0.37405625
-0.15186486 -0.29097906 -0.08986807 -0.13104513 -0.04062236 0.045918547 0.084695294 0.014896601

fc2.bias f4 [64]
00000000: ba8a 19be 216c 21be 61e6 0ebe 4c8f c6bd
00000010: 0a51 5a3e 52f8 3a3a d94b 5ebc 5f34 c23c
00000020: b744 6e3e 08ee 8bbd 58ee 12bd 437c 03be
00000030: df83 03be a1af e93d d6bd 91bd 97a2 06be
00000040: cd23 2cbd 4bd3 dd3a 9e4c cabb 680d 843d
00000050: 3294 9fbd a6cb f2bc 8f89 31be a5ec 953e
00000060: 1fea a3bd 941f 03be 2db0 cabd d253 f7be
00000070: 8a1e 0f3d f532 32be 300a 2d3d 8396 ff3b
00000080: f2df 2dbe 456c 5b3e 9b0c 083e 81d4 e5bd
00000090: 8073 cebd 7acb 0fbe d8b0 97be e16e 01bd
000000a0: 688e 9abd 5502 06be 8101 2dbd 3226 063d
000000b0: 11f0 32bd e87b c83d a875 213c 308b c03e
000000c0: 9cde ea3c 9ff6 dabd dd4e 513e 87a7 bfbd
000000d0: 01fd bf3e 575f 83bb d935 b1bd 6673 8c3e
000000e0: 3127 15be a293 753d eb30 cabd bf36 823d
000000f0: a185 c4bd 66cd 26be f10e e33c 7e7a 4b3e
-0.14994326 -0.15763904 -0.1395507 -0.096953005 0.21319976 0.00071323395 -0.013567888 0.023706613
0.232684 -0.0683251 -0.035871834 -0.12840371 -0.12843274 0.11410452 -0.071162865 -0.1314796
-0.04202633 0.0016923932 -0.0061736843 0.064478695 -0.07791938 -0.029638123 -0.1733763 0.29282108
-0.080036394 -0.12805015 -0.09896884 -0.48306137 0.034941234 -0.17402251 0.042246044 0.007799925
-0.1697996 0.2142802 0.13286059 -0.112221725 -0.100806236 -0.14042464 -0.2962711 -0.031599883
-0.07546693 -0.13086827 -0.042237762 0.03275127 -0.043685976 0.09789258 0.009854712 0.37606192
0.028670602 -0.106915705 0.2044024 -0.09358125 0.37497714 -0.004009168 -0.08652849 0.27431792
-0.14565732 0.059955247 -0.098726116 0.06358098 -0.095958 -0.16289291 0.027717086 0.19870946

fc3_1.weight f4 [32, 64]
00000000: ede6 6b3e 8007 963e 8a58 ad3e c10f df3e
00000010: fd72 e03d 6dc5 283d 67a8 6e3e e946 863e
00000020: d093 403f 2280 6fbf b828 5e3e 88df 05be
00000030: f3ab cd3d 9a65 293e 08e9 083e 39c3 353d
00000040: fb3b 833e 09b8 23bf 4e17 083e 7175 1b3e
00000050: 7a5a 1f3e 9657 6e3e 5229 d53e 45f9 f03e
00000060: dd03 803e 9ed6 e73d c8f4 993e 4430 acbf
00000070: 0b68 043e 1d1e 7e3e e0cb b83e 250a 983e
00000080: 9f90 25bf 4556 273e fb13 493e 1a41 dcbd
00000090: a878 cb3e 8025 a23e 03bc 073f aa43 233e
000000a0: 10bc be3e 2e3f c23e eaa2 9b3e 9d89 69bf
000000b0: 580c 91bd ccf3 05bd 1e1f b83d 9390 64bf
000000c0: 8c65 5f3c 601f 7a3e 01f0 9dbf 1f87 7b3e
000000d0: c849 61bf 7103 9b3e 1610 7c3e 546f 81be
000000e0: cede 153f 78e8 883e 4040 943e 39c2 86bf
000000f0: 153d 9a3e e8a7 ac3e 8ea0 333e 271c 0b3d
00000100: 7f45 b43e e974 a73e a7da f73e abff db3e
00000110: 4e6e 2c3d acd7 b43d 2cb0 183e d351 0e3e
00000120: 096c de3e 52dc 80bf 3493 2a3e dcff d1bd
00000130: ee8d 733e 806b 3a3e df6a ab3e 2061 aa3d
00000140: ded9 363e 5972 06bf 3c38 5d3e 9281 a03d
00000150: 325e 543e bd68 8c3e 54b4 ae3e 46be f33e
00000160: a01c 443e 560a a93d 9cb1 853e 7494 9fbf
00000170: de16 c63d 6b62 7c3e 5242 913e 6cb9 9b3e
00000180: c2af 30bf 3e0f 1b3d c278 363e 8587 ff3d
00000190: c363 8e3e efc3 273e cb1b 273f a77c 9e3e
000001a0: 61a7 863e 1a7b 1a3e 3f4e 543e ff7f 91bf
000001b0: 033f dabe 601a 2f3c 54f5 3d3e 44be 60bf
000001c0: 16d0 b23d 9d65 f23d e897 ecbf 057c bc3e
000001d0: f7b4 aabf a64f a73e e0f2 3f3e 6956 97be
000001e0: 4449 333f 33fc b33e 680e 993e 4d93 dbbf
000001f0: 6e55 c03e 87cc c13e e821 6e3e a6e0 ce3d
00000200: d4e3 debd 547f bcbd 286c c9bd 9463 4e3d
00000210: 78b4 bc3d 886a 173d f488 303d 6cc7 a63d
00000220: 4c08 af3d aadd 983d b827 8f3d c08a 0a3d
00000230: 4423 843d 86a8 afbd 7eb2 a5bd d8b2 093d
00000240: 685b 9f3c 240e e1bd de7e babd 98cb cbbd
00000250: 4452 cb3d 565f a73d e6be 86bd 8880 9a3c
00000260: 0887 ebbc 2a8c de3d 3cde e7bd 26c3 babd
00000270: fe22 d5bd 8afc 943d 44f1 7fbd e479 983d
00000280: 9812 2d3d 0443 7abd 84ed 09bd 9032 4fbd
00000290: 98e1 613d 1854 4dbd c8c1 2d3d 004f 123c
000002a0: 7871 ccbd b6ec a0bd f280 b1bd 8624 863d
000002b0: b0e1 dd3c c0fa 4dbb d66e 98bd 8ea5 fdbd
000002c0: 9830 35bd 7ced c3bd 48a2 febd a229 f4bd
000002d0: c037 a7bd 36de f8bd 849a 1f3d 8c93 3f3d
000002e0: e85e 4e3d c0d8 febd ce4c 9e3d 88a4 c73c
000002f0: 12e7 823d e8ac fbbc b0de 753d 54cb f2bd
00000300: f560 ca3c f490 e93d d18e 123d ae17 fcbd
00000310: 50b4 3abd b30a f3bc 2a65 943d ef49 2bbd
00000320: f70f 8f3c 22de 12bd d7ae 0fbc 8012 23bb
00000330: 7eb0 34bd 077e 06be 40a1 d53d c3d8 b63d
00000340: a178 e93a 5df2 2c3e 651c d83d f4ac bdbd
00000350: 55e0 b0bd 4a0e 70be 2c22 4d3d 1db7 433c
00000360: 8041 fbbc 262a b13d 23b7 64bd 88ff 2f3e
00000370: 5456 2fbe b63e 1fbd acb8 d83d f0cb bbbd
00000380: 611c d5bc 3103 fc3c c180 00be a461 9bbd
00000390: 8bfb af3d 178a 8bbd 160f 84bd c011 c9bc
000003a0: f08b 2bbd 2af5 2b3d 0910 e23c 0e1a 51be
000003b0: e8ab 013e 9064 f3bd 92e6 20be 1190 b4bd
000003c0: a753 38bd 1aef 003e 14d5 83be 1072 3ebc
000003d0: 4733 a13d 2a59 a03d d5fa cfbd cc7b adbc
000003e0: 67d8 023e 7dfc 4ebe 4963 953c 61a9 b0bd
000003f0: 3dd3 a63c ba8a 07be d73c 6b3d 8af7 75bd
0.2303731 0.29302597 0.33856612 0.43566707 0.10959432 0.041203905 0.23306428 0.26225975
0.75225544 -0.9355489 0.2169522 -0.13073552 0.10042562 0.16542664 0.13370144 0.044375632
0.256317 -0.6395269 0.1329014 0.15181519 0.15561858 0.23275599 0.41633087 0.47065178
0.25002947 0.11320232 0.30069566 -1.345223 0.12930314 0.24816175 0.36093044 0.2969524
-0.646738 0.16341503 0.19636528 -0.10754605 0.3974049 0.31669235 0.5302126 0.1594378
0.37252855 0.37938827 0.3039773 -0.91225606 -0.070824325 -0.032703206 0.0899031 -0.892831
0.0136350505 0.24426031 -1.2338868 0.24563263 -0.88003206 0.30276063 0.24615511 -0.2528025
0.585431 0.2673986 0.2895527 -1.0528022 0.30124727 0.33721852 0.17541716 0.033962395
0.3520927 0.32706383 0.48409006 0.42968497 0.042097382 0.08830199 0.14910954 0.13898401
0.434418 -1.0067236 0.16657716 -0.102538794 0.2378461 0.1820507 0.33479974 0.083193064
0.17856547 -0.5251823 0.21603483 0.078372136 0.20739058 0.2742366 0.34121954 0.47606105
0.19151545 0.082539245 0.26112068 -1.2467179 0.0967233 0.24646918 0.2837091 0.30414903
-0.69018185 0.037856333 0.17819503 0.1247702 0.27810487 0.16383336 0.65276784 0.30954477
0.26299575 0.15086022 0.20732974 -1.1367186 -0.426262 0.010687441 0.18550617 -0.8779032
0.087310955 0.118357874 -1.8483858 0.3681337 -1.3336476 0.32677954 0.18744993 -0.29558113
0.7003367 0.3515335 0.29893804 -1.7154328 0.37565178 0.37851354 0.23255122 0.10101442
-0.108832985 -0.092039734 -0.09835082 0.050387934 0.09214109 0.03696683 0.04309936 0.081435055
0.085465044 0.07464154 0.069899976 0.03382373 0.06452039 -0.08577065 -0.08090685 0.033617824
0.019452766 -0.10989025 -0.09106229 -0.09950942 0.099278 0.08172481 -0.0657938 0.018860117
-0.028750911 0.10866578 -0.11321685 -0.09119253 -0.10407065 0.072747305 -0.06248595 0.07445124
0.04225406 -0.061099067 -0.03367378 -0.05058533 0.055146784 -0.050129026 0.042421132 0.008929968
-0.0998258 -0.07857649 -0.086671725 0.06549935 0.027085155 -0.0031429976 -0.07443015 -0.12385093
-0.044235796 -0.09566781 -0.124332964 -0.11922003 -0.0816493 -0.121517584 0.038965717 0.04677157
0.05038348 -0.124436855 0.07729493 0.024370447 0.063917294 -0.030722097 0.060026824 -0.11855188
0.024704436 0.11404601 0.03578073 -0.12309204 -0.045582116 -0.029668188 0.07245858 -0.041818555
0.017463667 -0.035856374 -0.008769712 -0.0024882853 -0.04411363 -0.13134013 0.104311466 0.08928063
0.001781244 0.16889329 0.10552291 -0.09261504 -0.08636538 -0.23442951 0.050081417 0.011945513
-0.030670881 0.08650617 -0.055838715 0.17187321 -0.17122775 -0.038878165 0.10582098 -0.09169757
-0.026014509 0.03076324 -0.12549116 -0.07586983 0.085929 -0.06813448 -0.0644819 -0.024544597
-0.0418815 0.041981854 0.027595537 -0.20420095 0.12663233 -0.11884415 -0.15712956 -0.08816541
-0.045001652 0.1259121 -0.25748503 -0.011623874 0.078711085 0.07829507 -0.10155264 -0.021177195
0.12777863 -0.20213504 0.01823582 -0.086260565 0.020364398 -0.13236514 0.05743107 -0.060050525

fc3_1.bias f4 [32]
00000000: b0dc a2bb fc7c 933d c818 b2bc a24b 9cbe
00000010: 3a87 7abd b109 723e 44f3 733e eb2b a03e
00000020: f03c ab3c 7439 423f 6d72 d33e 20fe cfbd
00000030: d880 873e 7ef9 f9ba 1601 b83e 080f 9abd
00000040: 9783 433d 385a 2fbd 1183 353f 07cf df3e
00000050: 5b84 c9bd 8b85 5f3d a080 04bd 864b c03e
00000060: 9870 6dbc e087 f4bd 2bf8 17bd 3ed8 d8bd
00000070: 4c0a 3b3d c8b2 55be 5332 c1bd d268 04bd
-0.0049701557 0.07201573 -0.021740332 -0.30526453 -0.06116412 0.2363651 0.23823267 0.31283507
0.02090308 0.75868917 0.41298237 -0.10155892 0.26465487 -0.0019071547 0.35938329 -0.07522398
0.047732916 -0.04281065 0.70903116 0.43712637 -0.09839698 0.054570716 -0.03234923 0.3755762
-0.0144921765 -0.119399786 -0.037101906 -0.1058812 0.045664117 -0.20868981 -0.09433427 -0.032326527

fc4_1.weight f4 [1, 32]
00000000: ca6f 0ebf 7c69 13bf 0a8d fcbd b7b2 0e3e
00000010: 867a c1bf 8157 813f 24f4 3a3f 5f55 0740
00000020: b7f6 2dbf 1738 0840 cdef 0940 ac42 2bbf
00000030: 64a1 433f 9891 30bf 8406 0c40 b6b1 10bf
00000040: 1b80 07bf 6568 1bbf 92ed 0140 8427 0340
00000050: d16a fdbe 37e5 fabe 0934 033e 8df2 0340
00000060: cdd3 20bf 439e 2dbf fd13 23bf 7f61 61bf
00000070: a3cf 3fbf 8df9 05bf fbb8 10bf 8fd4 e9be
-0.55639327 -0.5758283 -0.123315886 0.13935362 -1.5115516 1.0104829 0.7302878 2.1145856
-0.6795458 2.1284235 2.1552613 -0.6689861 0.7641814 -0.6897216 2.1878977 -0.56521165
-0.5292985 -0.6070617 2.0301251 2.0492868 -0.49495557 -0.49003002 0.12812819 2.0616791
-0.6282318 -0.67819613 -0.63702375 -0.8803939 -0.74926203 -0.5233391 -0.5653226 -0.45669982

fc3_2.weight f4 [32, 64]
00000000: 0609 943d 9c67 adbd db6f c4bd 4b4b 4cbd
00000010: fbeb d0bd 5ca6 523b e421 c2bd a079 ebbb
00000020: d021 8cbc e23d c6bd 7ccb a0bd d8cc 5f3d
00000030: 2cf8 27bd 194a fcbd bb3a bc3d 27eb 6abd
00000040: aa90 2a3c 40de cd3d d2be 723d 89cb dbbd
00000050: 3658 ce3d 28af 03bd 192e cb3c e4b1 4e3d
00000060: f159 8a3c 24fa ae3d f1d8 67bd cc40 be3d
00000070: acbb a23d 17b0 01be c9ba 5cbd a902 ce3d
00000080: 8402 bebd eac5 0cbe c118 8b3d c46a 343d
00000090: d3ac d53b b527 be3d 5e0e 99bb ea43 e33d
000000a0: 5fd9 c3bd dbc4 ffbd 16f4 03bd facf e03d
000000b0: 18e1 dabd e43a 533d 481a 033d 5ccd 58bd
000000c0: c1b0 ddbd f0bc b73c 5bfb 5c3c e5d7 a3bc
000000d0: 4998 4d3c 96fe 8b3d 6354 dcbd 0a4b ddbd
000000e0: ad10 16bd 705e 93bc a977 5cbd 7a08 3b3c
000000f0: 5a73 c4bd 9504 f03d 60da 58bd 319f a1bd
00000100: 0b14 7fbe 2c41 ba3d 5df9 05be 8bba 9fbe
00000110: 0c9a e13d 37ea 7abd 049c 693e 55a6 693e
00000120: eebf 8a3e 3979 213f 2492 083e 6ef5 2ebe
00000130: f0fa e3bc a59f 5f3d cf6b 0b3e e2d9 e4bd
00000140: 5154 1c3e f452 1abe e280 1f3e 83f3 d93d
00000150: 4240 04be 0fc5 02be 3a72 8fbe 3027 b63d
00000160: 3299 ef3c f0ac d2bd 7bc9 fc3d ee41 b7bd
00000170: 3a69 053c 2e3f 4fbc 3dff 43bd 593d 063d
00000180: ce57 21be 46e9 4a3d 1fb1 073e a852 6a3d
00000190: a770 733d 5734 a6be e4ed 4bbe 61d7 88bd
000001a0: 8a48 913d 17a0 2c3d b0e1 94be 9132 293e
000001b0: 5f5f 94bc e0be e63b dd93 903c 94db 883e
000001c0: 91ad 913e c28a 293e fa5a 5abe 242a db3d
000001d0: b8ba 433e b159 02be f81c 4a3e 0f8e 10bf
000001e0: 6f31 183e 7e2f 033e e3ca 13be bf67 a63e
000001f0: 3aea 693e 3a0f 61bd cca4 403e a7a8 263e
00000200: 642c 7b3d 28cc 223e 16c6 2c3d 7c41 9cbe
00000210: 4cde 6d3c 2c4f ddbd 2548 503e 60a0 b7bd
00000220: 32a3 0bbf 3277 723c 7333 71bd c186 e6bb
00000230: 8a26 483e 8090 7abe 9587 33be f800 323e
00000240: 34f1 9fbd 458b ddbe b99e 6c3d 4221 bbbc
00000250: 057f 9ebd 7004 a23e 88bc 063e 1d08 903d
00000260: 4938 e63d 14e2 dbbd c8ae c1bd 4afc 83be
00000270: 2a40 943e 5e32 d7bd 94a1 b23d e2c2 8b3d
00000280: bc3b debe 2375 173e 7f6a 11be a75d 783c
00000290: c872 9bbe d2f1 f23d 6b4c 0cbe b927 90be
000002a0: 7458 af3b 77e1 aabe 5d48 84bc d85d b93e
000002b0: 2f98 ea3e 709c a13d ed26 cf3d 5f47 ca3d
000002c0: 58dd d23c 34e3 31be a168 3d3e 5ef2 e5bd
000002d0: 1afa c73e bc33 2d3e 0bba 2f3e a020 73bf
000002e0: a78c e93c c322 dfbd 7f8d 03be 2c41 663f
000002f0: e006 d7bc e7dd c6bb 5cd2 49be 3ef1 4c3e
00000300: 7712 633e 1e00 a03e 46d3 023e 7d7a 123e
00000310: fa4d bcbd 24c7 843e f74f 4f3d 238d 8b3d
00000320: fd21 a9bf 8f1e 16bf 26c4 74be 4e17 953e
00000330: 9eeb 8d3d 3570 25be 513d 663d e1fa 4d3d
00000340: 3955 88bd 40ac c63e 74a9 3e3e 7530 4bbd
00000350: e76c 9fbd 66e4 2aba c8b6 e73d 8c99 45be
00000360: ed8e 06be e668 8cbd c4e4 5dbd 211c a63e
00000370: d881 1b3e cb5e 683c 253e 593d 214f 0e3d
00000380: 3793 99bd 93b3 0d3c ff71 c63d b83f 52bd
00000390: 39b9 ba3d 9f6d 173d 9481 ab3d 103d b53e
000003a0: 3071 f03b 4d23 a5bd 7514 613e 4b58 b1bd
000003b0: f84a 5bbd e8ec ccbc cd3d a13e 403b 70be
000003c0: 6ad3 873e e700 263e ac9e 15bf dd57 22be
000003d0: 344f 173e ae22 18be 5957 0bbe 6da6 34bd
000003e0: 0398 a73d 5fc4 8dbd cfad 54bd de7a febe
000003f0: 7c8c 393e d5c0 983d ae9b d33d be8e 6dbc
0.072282836 -0.084670275 -0.09591647 -0.049876492 -0.1020126 0.0032142615 -0.094791204 -0.0071861297
-0.017105967 -0.09679772 -0.078513116 0.054638714 -0.04100816 -0.123188205 0.091908894 -0.057353165
0.010410467 0.100521564 0.05926401 -0.107321806 0.10075419 -0.032149464 0.024802255 0.05046262
0.01688859 0.08543804 -0.056603376 0.09289703 0.07945952 -0.12664829 -0.05388907 0.10059101
-0.092778236 -0.13747373 0.06791831 0.044047132 0.0065208464 0.09284917 -0.004670902 0.11096938
-0.095629446 -0.12488719 -0.0322152 0.109771684 -0.106874645 0.051569834 0.032007486 -0.05293022
-0.10824729 0.02242896 0.013487662 -0.020000407 0.012548515 0.06835668 -0.10758283 -0.10805328
-0.036636997 -0.017989367 -0.053825054 0.011415595 -0.09592314 0.11719624 -0.052942634 -0.078916915
-0.2490999 0.09094462 -0.13083406 -0.31197008 0.1101571 -0.06125852 0.22813421 0.22817357
0.27099556 0.63075596 0.13336998 -0.17085811 -0.027829617 0.05459561 0.13615344 -0.1117437
0.15266539 -0.15070707 0.15576509 0.10642149 -0.12915137 -0.12770484 -0.28016835 0.08894193
0.029247854 -0.102868915 0.12343117 -0.08948122 0.008142764 -0.012649341 -0.047850836 0.03277335
-0.15756151 0.049538873 0.1325116 0.057207733 0.059433606 -0.32461807 -0.19914967 -0.06681705
0.07093914 0.04214486 -0.29078436 0.16523196 -0.018111883 0.007041797 0.017648632 0.26730025
0.28452733 0.16556838 -0.21323767 0.10701397 0.19114196 -0.12729527 0.19737613 -0.56466764
0.14862607 0.12811086 -0.14432864 0.32501027 0.22843257 -0.05494616 0.18812865 0.16275273
0.06132163 0.15898192 0.042181097 -0.3051871 0.014518332 -0.108061165 0.20340021 -0.08966136
-0.5454589 0.014798926 -0.058886956 -0.007035107 0.19545951 -0.24469185 -0.17532189 0.17383182
-0.07809678 -0.43270317 0.057768557 -0.022843007 -0.07739071 0.3164401 0.13157856 0.070327975
0.11241204 -0.1073648 -0.09457165 -0.2577842 0.28955203 -0.10507654 0.08722225 0.0682428
-0.4340495 0.14790778 -0.14200781 0.015159047 -0.3036101 0.1186253 -0.13701026 -0.28155306
0.0053511206 -0.3337514 -0.016147787 0.3620441 0.45819232 0.07891166 0.101148464 0.09876894
0.02574031 -0.17371827 0.18496944 -0.112278685 0.39058 0.16914266 0.17160814 -0.94971657
0.028509451 -0.10895302 -0.12846945 0.89943194 -0.026248395 -0.0060689333 -0.19709152 0.20013902
0.22175013 0.3125009 0.12775907 0.14304538 -0.0919456 0.25933182 0.05061337 0.06814029
-1.3213497 -0.5864038 -0.2390295 0.29119343 0.06929706 -0.16156085 0.05621082 0.050288085
-0.0665688 0.3880329 0.18619329 -0.04960676 -0.07784443 -0.00065190194 0.1131416 -0.19296855
-0.1314046 -0.06855945 -0.054173246 0.32443336 0.1518625 0.014182757 0.05303778 0.034743432
-0.07498782 0.008648771 0.09689712 -0.0513303 0.0911736 0.036969777 0.083743244 0.3539815
0.0073377118 -0.08063374 0.2198046 -0.08659419 -0.053538293 -0.02501531 0.31492463 -0.23460102
0.26528484 0.16211282 -0.5844524 -0.1585383 0.14776307 -0.14856979 -0.13607539 -0.04410403
0.08183291 -0.069222204 -0.05192357 -0.49703115 0.18119997 0.07458655 0.10332428 -0.014499364

fc3_2.bias f4 [32]
00000000: 6aae 013d aaf1 c93d f1f1 9e3d 902f b3bd
00000010: 6320 c3bd b649 a03e be0f 0b3d 7c6c 393d
00000020: cfbe 223e 3a26 0c3e e1b9 573e f1a6 12bd
00000030: 80f5 edbd 7b2e a8bd 3b34 343e 441d e13c
00000040: 1cbf 5cbc f85f 353e 26b3 8f3d a77c 6b3d
00000050: 7106 89bd 4e66 533e c264 8e3e cb9b ca3d
00000060: 0348 8d3d 9ebb 013d 0b27 18bd c953 b63d
00000070: 408d 803d 2693 0abe 9a44 163c 982c 6b3e
0.031660475 0.09860547 0.077609904 -0.08749306 -0.09527662 0.31306237 0.03395056 0.045269474
0.158931 0.13686457 0.21067001 -0.03580374 -0.11619091 -0.082119904 0.1759805 0.027479775
-0.013473298 0.1771239 0.07016592 0.057491925 -0.06690682 0.20644495 0.27811247 0.098929964
0.06898501 0.031673066 -0.03714661 0.089026995 0.06276941 -0.13532695 0.009171629 0.2296623

fc4_2.weight f4 [4, 32]
00000000: 280c fdbb 0fec 063f 3cb8 4abf 74bc 38bf
00000010: 71d5 55be 7434 0b3f 51e6 a8be 875e db3d
00000020: 6031 873e 7716 a03d f393 1cbd 6632 a63e
00000030: c94b 29be 0d4d 31be 71b2 24bf 478c 043e
00000040: 2066 be3d b41e 96bd ace8 573e 9719 db3d
00000050: 2f1a a93e edd7 ca3e 3f03 25be 0366 a6bd
00000060: 1c02 873d 5ccf 44be d684 70bd cfd5 043e
00000070: 09e6 e6be 3ee5 f9be a984 c6be 45e9 8f3c
00000080: cb7d 06be ace5 1f3f b46f 2dbf 92cf 87bf
00000090: 26ad 183f 6a4e 793f d7ed f4bd 232e 8f3f
000000a0: c234 f3be 207a 273e acf0 58be 3d6f 833e
000000b0: 76a3 5d3e a60b 05be 06ab 893d dc0c 8a3e
000000c0: a72a 8a3e 344a 52be 7090 3d3e d28e e63d
000000d0: 903f 1abf 72fa 083d bd20 a1bd 5d91 c6be
000000e0: 3677 0abe 2543 78be 905c 9e3e 5707 debe
000000f0: 8a28 6fbf 4722 5c3d 1151 10bf b4c3 b8bd
00000100: b408 aebd f48b 51bf c72f dc3e 4468 ab3f
00000110: c732 fdbe 17b9 cabf a283 97bd 66b5 efbd
00000120: 421b 103e 4ddd 8cbe 4918 43be cd5d 1bbf
00000130: f65b adbc 21a9 bdbd 68cb 433f e360 6bbe
00000140: 1f0c 62be b3d5 133f 20a3 86be 4ab6 b33d
00000150: 5d6f bf3c 055a a6be 0eb4 c53e 00e7 013f
00000160: 2f2f 093d 3737 5a3f d4fd 273e 3d2e bd3e
00000170: 14e6 213f 0002 693e 673d 883e 040a c5be
00000180: e6a6 d53d 6fd9 8e3e 25ee b13e a47f 6fbe
00000190: 1e85 d2bd f810 fb3e 4821 413f 08ec 65bf
000001a0: 6b4f 283e 7ed3 843c c7aa c13e 13d6 a93e
000001b0: 0735 dc3c 998d 21bd 4ce2 35bd fb84 94be
000001c0: 490d 97be c751 abbe 40e1 233e c95e f73d
000001d0: 7dd8 fc3e 6f95 493e af18 d6be 5e3f ebbd
000001e0: 21d8 1c3d 0945 dcbe f58a d0be f2bf d53d
000001f0: 48c9 173f 6d7c cf3e b023 123f 27c2 593f
-0.0077223964 0.52703947 -0.7918737 -0.72162557 -0.20882203 0.5437691 -0.32988217 0.10711389
0.26404858 0.07816785 -0.038227033 0.32460326 -0.16532816 -0.17314549 -0.6433478 0.12944137
0.092968225 -0.07330075 0.21084851 0.1069824 0.3302779 0.39617863 -0.1611452 -0.08124926
0.06592199 -0.19219726 -0.058720432 0.12972187 -0.45097378 -0.4880771 -0.38773087 0.017567286
-0.13133924 0.62459826 -0.6774857 -1.061022 0.59639204 0.97385275 -0.11959427 1.1185955
-0.4750119 0.1635518 -0.21185559 0.25670806 0.21644387 -0.12992725 0.06722073 0.26962936
0.26985666 -0.20536119 0.1851213 0.112577096 -0.6025324 0.03344197 -0.078675725 -0.38782778
-0.13522038 -0.24244364 0.30929995 -0.43364975 -0.9342123 0.053743627 -0.563737 -0.090217024
-0.08497754 -0.81854177 0.430052 1.3391194 -0.49452803 -1.5837735 -0.07398154 -0.11704521
0.14072898 -0.2751259 -0.19052233 -0.60690004 -0.021162014 -0.092607744 0.7648225 -0.22986178
-0.22074936 0.57747954 -0.2629633 0.08775003 0.023368532 -0.32490554 0.38613933 0.50743103
0.033492263 0.852405 0.16405421 0.3694934 0.63241696 0.22754669 0.26609346 -0.38484204
0.10432224 0.27900264 0.34752002 -0.23388535 -0.10279296 0.49036384 0.7544141 -0.8981328
0.16436546 0.016214129 0.37825605 0.33171138 0.026880754 -0.03944168 -0.044405267 -0.29007706
-0.29502323 -0.3346083 0.16003895 0.12078626 0.49383917 0.1968591 -0.41815707 -0.11486696
0.038292054 -0.4302142 -0.40731016 0.10437001 0.59291506 0.40524617 0.57085705 0.8506188

fc4_2.bias f4 [4]
00000000: ea8f 66bd a8f8 853d 3621 773d b1d3 293e
-0.05628959 0.06541568 0.060334407 0.1658466
