Lander_Gifs/Checkpoints_for_report/checkpoint_Rainbow_Dueling_PER_3000.pth (torch_old, 37914 bytes, 11 tensors)

fc1.weight f4 [64, 8]
000000 53 2e 9f 3a 7c 90 3f 3e f0 43 aa be 76 52 12 bf
       0.0012144543 0.1870746 -0.33254957 -0.57157075
000010 29 29 77 3e 80 26 42 3c 02 7c 20 3e 6e 3e 7b 3e
       0.24136795 0.011849999 0.15672305 0.24535534
000020 a0 a4 fa 3d 21 29 a3 3d e7 04 da 3d 47 ce a6 bd
       0.12238431 0.07966829 0.10645466 -0.08144813
000030 ea d1 80 be d6 e5 cf be 41 a9 14 bf 82 48 21 3e
       -0.25160152 -0.40605038 -0.5807076 0.15750316
000040 48 0b b9 3e 4b 99 8f bd 91 67 4d be a5 07 1d bf
       0.3614142 -0.0701166 -0.20059039 -0.6133979
000050 37 bb 0e 3f 91 df 6d 3e a1 86 e6 3d b8 a3 99 3e
       0.5575442 0.23229815 0.11256147 0.3000772
000060 a8 06 18 3d 42 a8 59 be fc 1c 0e 3f 10 0a 58 bf
       0.037115723 -0.21255592 0.55512977 -0.84390354
000070 4e d1 b6 be c6 83 b4 be 24 d9 84 be 7f 44 b8 3e
       -0.35706562 -0.35256785 -0.25946915 0.35989758
000080 f7 31 52 be 1d c5 48 bf 5c bb cd be 26 3f 53 bf
       -0.20526873 -0.7842577 -0.40182006 -0.8251823
000090 56 79 23 3c f6 d5 6d 3e 4e 30 2c 3e 58 78 f5 3d
       0.009977659 0.23226151 0.16815302 0.119858444
0000a0 17 85 b9 3e a3 92 6e be 0d ef 90 3e 76 24 fd be
       0.36234352 -0.23298125 0.2830738 -0.4944188
0000b0 61 05 d8 be 2a 94 9a be 76 88 57 3e 09 80 25 3e
       -0.42191604 -0.30191165 0.2104815 0.16162123
0000c0 04 60 c6 bd f1 91 c8 bd 44 f7 dc 3d 64 4a db 3e
       -0.09686282 -0.09793461 0.1078935 0.42830193
0000d0 4c 9a b1 bc 4a a1 a6 3d 73 ff ac 3e 33 6c 90 be
       -0.02168002 0.08136232 0.33788642 -0.2820755
0000e0 b0 93 0e 3e 6f 30 e5 bd 4b c7 49 be 97 f6 e9 be
       0.13923526 -0.111908786 -0.1970493 -0.45695946
0000f0 b5 8b 0b 3f 65 7c fa 3c ac 55 96 bd 19 4c 8e 3d
       0.5451005 0.030576894 -0.07340559 0.06948108
000100 dc bf 29 be 48 d9 2f be c8 ab 0b 3d 36 0b 58 bd
       -0.16577095 -0.1717273 0.03409937 -0.052745067
000110 cf 9a 58 3d ae b1 d8 3e df 81 1d 3d ac 02 c0 be
       0.052882012 0.4232306 0.038453933 -0.37502038
000120 6d 21 c3 3d b8 3a 9b 3e f3 e3 c7 3e 4b 59 a8 3e
       0.0952786 0.30318236 0.390411 0.32880625
000130 76 a3 00 bf cc ec c7 be 2f 2f 42 be c4 59 db be
       -0.5024942 -0.3904785 -0.18963312 -0.42841923
000140 8b 76 c4 be 98 f1 e2 3e 34 df c8 3e d7 98 3e bf
       -0.3837169 0.44324946 0.3923279 -0.74451965
000150 f5 09 00 3c 6a b9 c2 bd a9 e0 1c 3d 48 c2 69 be
       0.007814874 -0.09508021 0.03830019 -0.22828019
000160 2a 1d 4a 3d bb 6f b1 be 64 1c 96 3e a1 69 b7 be
       0.04934422 -0.34655556 0.29318535 -0.35822776
000170 82 fb b1 3d 9f c9 f1 3e 6d bd 8d be 5a a5 f1 be
       0.086905494 0.47224137 -0.27683583 -0.47196466
000180 59 3d 5d 3e 2f 1d 36 3f 8b 69 35 be 51 ae 7f bf
       0.21605434 0.7113828 -0.17716043 -0.9987536
000190 4c 3c 79 3e a2 19 49 3e b4 c3 82 3d 6b 77 be 3c
       0.24339408 0.19638684 0.06384984 0.023250302
0001a0 6e a0 13 bf db d5 d3 bd ed 82 a9 be e5 86 a0 be
       -0.5766667 -0.10343524 -0.331077 -0.31352916
0001b0 84 e7 88 bd 4c dd ae 3d 94 c7 08 3d 01 b6 84 3e
       -0.06684783 0.08538303 0.033393458 0.25920108
0001c0 82 6c ac be 9f 8d 25 3f ae 1a 68 3e ab 8a 51 bf
       -0.33676535 0.6466922 0.22666427 -0.81852216
0001d0 d7 4a d2 be 33 d9 fb 3d 81 74 0e 3e a4 92 89 be
       -0.41072723 0.12297287 0.1391163 -0.2686969
0001e0 8b 6c f1 3e f7 e9 c8 3d 11 0b 22 be 91 fc e1 bb
       0.47153124 0.0981025 -0.15824534 -0.0068965633
0001f0 e8 e6 09 3e 3f d4 c1 be 53 bb cd be b0 de e4 be
       0.1346699 -0.37857243 -0.4018198 -0.44701147
000200 6b ec 87 bd ac 25 39 be 26 60 35 3d b0 7f f4 bd
       -0.0663689 -0.18080777 0.044281147 -0.11938417
000210 bf 89 19 bf b3 86 cb bd 24 37 95 3e 5f 9b 89 3a
       -0.5997581 -0.09937801 0.2914363 0.0010498575
000220 a2 12 a9 3d b2 f7 58 3d 64 0d 1b 3d 0e e7 e4 3c
       0.08255507 0.052970596 0.037854567 0.027942207
000230 22 df ad 3e 40 b4 18 3f 85 0c c0 3e b4 0d 80 bd
       0.339593 0.5965004 0.37509552 -0.06252614
000240 6e 9b b5 be 42 e1 b6 be dc 4b 65 3d bb 3f f4 bc
       -0.35470146 -0.35718733 0.05598055 -0.029815545
000250 d9 d4 13 bf 91 13 18 bf 97 2b 7a be 32 ed f5 bd
       -0.57746655 -0.59404856 -0.2443069 -0.12008132
000260 67 32 0e be 46 92 90 3d 35 59 7f 3e 87 c3 55 bf
       -0.13886414 0.070591494 0.24936374 -0.83501476
000270 72 47 65 3e 12 79 42 be ef 59 5c 3d 7e 24 64 be
       0.22390535 -0.18991497 0.053796705 -0.22279546
000280 52 7c b8 bc 0e 0d c8 be 41 f5 ce be ea bc 4c bf
       -0.022520218 -0.3907246 -0.4042149 -0.7997576
000290 f3 1a 92 3e 4b e0 c6 3c eb 9d d9 3d 71 8e 22 3d
       0.28536186 0.024276873 0.106258236 0.039686624
0002a0 50 1a 1c bf c2 ef cc bd 79 e4 ba 3e 03 f6 6f be
       -0.6097765 -0.10006668 0.36502436 -0.2343369
0002b0 fc 52 9e 3e 66 3d ba 3e 9b 2a 16 bf b3 cf e9 3c
       0.30922687 0.36374968 -0.5865876 0.028541422
0002c0 85 be 1e 3e 36 c8 26 bd a5 83 cc 3e cb 25 4a bf
       0.15502365 -0.04071828 0.39944187 -0.7896392
0002d0 d7 fe 02 be 80 a0 09 be 5d 4d 7c 3e ef 0a c4 3d
       -0.12792526 -0.13440132 0.24638887 0.09572398
0002e0 58 a2 69 3d 1c 21 eb be ab 24 69 be cc a4 2b bf
       0.05703959 -0.45923698 -0.22767894 -0.67048335
0002f0 04 86 28 bf 17 e4 bb 3d 67 7c 81 3e 51 35 70 3e
       -0.6582949 0.09174364 0.25290224 0.23457839
000300 e5 11 1f bf 3a 22 9f 3d 22 f0 de be d6 62 e9 be
       -0.6213668 0.077702 -0.43542582 -0.45583218
000310 51 f9 9e be 21 fc 55 3e 67 44 54 bd 1b bd fb bd
       -0.31049588 0.20896961 -0.051823046 -0.122919284
000320 c3 f7 79 bc 67 86 4d 3e 8a 38 5f 3e b6 6e 46 be
       -0.015256825 0.20070802 0.21798912 -0.1937817
000330 2f 7a 45 3e b5 28 70 3f 17 a4 4d 3d e6 31 ac 3e
       0.1928489 0.93812114 0.050205316 0.3363182
000340 c6 2b 8c 3e 00 bb ef bd 72 d6 eb 3d 46 56 05 bf
       0.27377146 -0.11705589 0.115155116 -0.5208477
000350 dd e4 58 be ac a6 8b 3c ac 56 0f bb 0e 93 51 3b
       -0.21181054 0.017047249 -0.0021871729 0.003197852
000360 a4 a4 9f be 9c 80 1b bf 01 28 c8 3e c8 63 ea be
       -0.31180298 -0.6074312 0.3909302 -0.45779252
000370 51 48 18 3e 41 4a c6 3e 0e 8f 1f 3e 92 0d f8 3b
       0.14871337 0.38728526 0.15581915 0.007569977
000380 2c 7f 0f bf eb b1 36 3e 08 90 3d bf 74 45 89 be
       -0.56053424 0.17841308 -0.740479 -0.268108
000390 a0 f8 e2 be 59 e6 21 bd 34 18 6b 3c ec 8b 40 3e
       -0.4433031 -0.039526317 0.014349032 0.18803376
0003a0 c8 88 54 3d ba 2c 38 3e 09 e4 a2 3e d5 f9 2d bf
       0.051888257 0.17985812 0.31814602 -0.6795934
0003b0 62 de 4e 3e 59 28 a9 bd 8a 23 b6 3d 97 a6 4b 3e
       0.2020202 -0.08259649 0.08893497 0.19887768
0003c0 74 94 a6 bc 12 ab aa bc 35 09 a0 3e 98 8c e6 3d
       -0.02033446 -0.020833526 0.31257024 0.11257285
0003d0 11 6a 21 3f 86 4d 06 bf ac 1e 0b 3f 5d 42 8a be
       0.6305247 -0.5246204 0.54343677 -0.27003756
0003e0 06 e8 a2 be 36 45 a3 3d 9b 3a cf be 35 07 63 bc
       -0.31817645 0.07972185 -0.404744 -0.013856699
0003f0 43 a2 ae 3e d7 61 59 3d 07 49 35 be 36 ec 0b bc
       0.3410817 0.053071823 -0.17703639 -0.008540204

fc1.bias f4 [64]
000000 02 79 3d be 93 74 2d be 3b f8 52 3e a9 43 78 3d
       -0.18503192 -0.16939001 0.20602505 0.0606114
000010 25 a1 a5 bd c5 f8 13 3c 04 b2 09 3f 9e 4d 71 3e
       -0.080873765 0.009031479 0.53787255 0.23564765
000020 c3 83 48 3e 73 14 74 3d 86 ac 41 3e 29 01 e2 bb
       0.19581513 0.059589814 0.18913469 -0.006897111
000030 1e c3 f6 3d 4a 58 ef bc ae 12 00 3f 7b 9b 10 be
       0.120489344 -0.029216904 0.500285 -0.14121811
000040 d2 a9 9d 3e 88 cf cf bd 90 34 17 3f 93 7d 2f 3f
       0.30793625 -0.10147005 0.5906458 0.68550986
000050 db f1 72 be 32 88 1e 3e 05 67 5b be 3a 6e 90 3c
       -0.23725073 0.15481642 -0.21426018 0.017630685
000060 c0 b8 8a bd 0f 55 44 be 9c ce 29 bd c7 24 77 3e
       -0.067735195 -0.19173072 -0.041456804 0.24135123
000070 9d e7 6e be 6c 3b 79 3e 59 cf db 3b 89 99 28 be
       -0.23330541 0.24339074 0.0067080674 -0.16464819
000080 86 cb 14 3d b5 8c 1c 3f 0c 85 97 be 0f 48 b3 3e
       0.036326908 0.611522 -0.29593694 0.35015914
000090 a3 7b d7 3d 36 01 9d 3e 97 be ab be 21 83 c8 be
       0.10521629 0.30664986 -0.33543846 -0.39162543
0000a0 dc 8b b2 3e de 4d 12 be 9c 78 2d bc 42 4b 13 3c
       0.3487233 -0.14287516 -0.010587838 0.008990111
0000b0 7a 80 e3 3d c7 37 d8 3d 18 a5 e0 3e 29 99 85 3e
       0.11108489 0.10557514 0.43875957 0.26093414
0000c0 b1 cd 9a be 17 6b ae 3d bb 9e 33 3e c0 51 c5 3d
       -0.30235055 0.085165195 0.1754102 0.09634733
0000d0 1c 09 66 bd 70 f4 d2 3e 86 a2 0b 3d 81 2b 33 3e
       -0.05616103 0.41202116 0.03409054 0.17497064
0000e0 a5 ec 35 3f c7 0f a7 3e ee 45 43 3e 59 6a 5b 3e
       0.71064216 0.32629225 0.19069645 0.21427287
0000f0 b7 9b 2f 3d d6 d7 c5 bd cd 65 2e 3e 8e 49 b8 3e
       0.04287311 -0.09660308 0.17031021 0.35993618

fc2.weight f4 [64, 64]
000000 23 88 e1 39 2d 5f 57 3d 0b 09 0f bd f2 d6 05 3f
       0.00043016774 0.052581 -0.034920733 0.52281106
000010 70 7a 98 3e f9 d0 33 3e 22 09 84 be ac 90 45 bd
       0.29780912 0.17560185 -0.25788218 -0.048233673
000020 45 fc 4a 3e c5 b9 89 be 98 e5 79 bd 28 2e 71 be
       0.19822796 -0.26899543 -0.061009973 -0.23552763
000030 50 21 b7 3c 46 36 9c 3e e3 b6 a0 bb 89 1e 18 bd
       0.022354752 0.30510157 -0.0049046143 -0.037138496
000040 2e 88 1b 3e cb 48 a1 3e 0a 33 2d 3e c3 d2 f8 bd
       0.15188667 0.3150085 0.16914001 -0.121495746
000050 16 9f d9 3e 05 f2 d4 bd df f3 36 3f 6b 66 02 3f
       0.42504185 -0.10397724 0.7146587 0.5093753
000060 9c 73 fd 3e 26 a4 e7 3c 76 ba f1 3e 89 b7 03 3e
       0.49502265 0.028276514 0.4721257 0.12862982
000070 f8 35 ec 3e a2 c1 63 be 79 f7 5c be 4a e1 c4 3e
       0.46134925 -0.22241834 -0.21578778 0.38453132
000080 d3 de fc 3c c2 84 a3 be f3 5a f2 3e 76 cc bd bd
       0.03086797 -0.31937224 0.47335014 -0.092675135
000090 42 21 0d 3e b8 26 58 3b 30 9d 35 3d d2 0e e1 3e
       0.13782218 0.0032982063 0.04433936 0.4395662
0000a0 54 0d 00 be 19 d8 78 3e f6 3e 19 3e 2d 7b ce bd
       -0.12505084 0.24301185 0.14965424 -0.10082088
0000b0 35 ab ea 3e af a5 40 3e 41 fb ba 3e 77 8f 92 be
       0.45833746 0.18813203 0.36519817 -0.2862508
0000c0 18 ce 16 3f b0 e6 b8 bb 07 2d 9e bd 89 b5 d7 be
       0.58908224 -0.0056427345 -0.07723432 -0.42130688
0000d0 e8 8d 39 be 63 ac fe 3d d9 e9 fc 3e 5b e7 bc 3e
       -0.18120539 0.12435224 0.49397162 0.3689526
0000e0 f0 7d 90 be d4 f2 b5 3e 28 26 28 3e 36 db e9 3e
       -0.28221083 0.35536826 0.16420805 0.45675057
0000f0 0b e2 50 bb 64 ae 53 3e 39 d0 ea bc 20 fb 24 bd
       -0.0031873013 0.20671993 -0.028663741 -0.040278554
000100 99 d7 08 bd d3 84 ba 3d fa 0b 54 3d f0 a8 ac 3d
       -0.033408735 0.091073655 0.051769234 0.0843066
000110 c8 12 a2 bd 5c 67 4f 3e 36 70 09 3d 58 87 00 3e
       -0.079137385 0.20254272 0.03355428 0.1255163
000120 16 11 d1 bd 1c 9d 38 3d 22 ee dc 3d 95 0d 77 bb
       -0.10208337 0.045071706 0.10787608 -0.0037697305
000130 2f 40 08 3e fc b2 cb 3d 5d c8 a5 bd 4b 98 08 bd
       0.13305734 0.09946248 -0.08094857 -0.033348363
000140 ae 19 e8 3d 2a aa 3c 3e 59 51 c9 bd dc 4a 10 3c
       0.11333023 0.18424287 -0.09829969 0.00880691
000150 b6 70 00 3f 26 95 61 bb 9f dc 98 3e 4b a3 05 be
       0.50171983 -0.0034421175 0.2985582 -0.13050573
000160 10 43 c8 3e 0b 97 7e 3e 60 5e 72 3e f4 cb 99 3d
       0.39113665 0.24862306 0.23668814 0.07509604
000170 fb c3 62 3e 7c 30 98 3d 3d 06 b3 be 42 92 9b 3e
       0.22145073 0.07431123 -0.34965697 0.30385023
000180 f9 0a 74 3d c4 b2 45 3d b4 90 e0 3e 55 3f af bd
       0.059580777 0.048266187 0.438604 -0.085570015
000190 6f 0c c9 3e a1 ef 8a 3d ca 4f af 3d d6 ed 4c 3f
       0.392673 0.06783987 0.085601404 0.8005041
0001a0 e7 d9 ff 3d 19 76 22 3e e7 b5 6c 3c 4e bc 91 be
       0.124927334 0.15865363 0.014447666 -0.28463978
0001b0 9b 74 6e 3e ca f3 7f 3d ab fb e0 bc 01 90 2b bd
       0.23286669 0.062488355 -0.027463755 -0.04188538
0001c0 64 38 8a 3e c0 cb 21 bd 15 a1 b4 3c e3 3f b1 be
       0.26996148 -0.03950095 0.022049466 -0.34619054
0001d0 38 a5 ca 3d 93 53 27 3e 24 93 21 3e 0c b7 f1 be
       0.09894794 0.16340475 0.15778786 -0.47209966
0001e0 27 02 81 3d e9 96 d6 bd f7 1b 63 3d 73 7e d1 3d
       0.06299239 -0.104780026 0.05544659 0.102291964
0001f0 95 47 eb 3b aa 77 27 3e 54 02 0a be e9 d9 e9 3d
       0.007180164 0.16354242 -0.1347745 0.11418516
000200 4d 1f 38 3d 00 02 af 3d 35 7c a4 3c 8c 94 7c 3e
       0.044951726 0.08545303 0.020078758 0.24666041
000210 5d dd 3e bd 54 4e 63 3e b6 79 85 3d b6 e6 17 bd
       -0.046597827 0.22197849 0.06517355 -0.037085257
000220 39 22 4f 3c 7a 98 37 3d 37 fb 70 3e 4f 32 9d 3d
       0.012642437 0.044823147 0.23533331 0.07675611
000230 82 04 4b 3e 35 c8 0d 3e 56 29 2d 3e b7 39 b9 3e
       0.19825938 0.13845904 0.169103 0.36176845
000240 b4 07 4d 3e 96 d5 52 bd bd 08 12 3c 26 64 94 bd
       0.2002247 -0.051473223 0.008913216 -0.07245664
000250 1a ab 18 3f 31 64 32 3d c0 0a f7 3e 3c de 12 be
       0.5963608 0.04355258 0.4825039 -0.14342588
000260 c9 33 af 3e a8 61 a2 3c cd 6b 79 3e aa c1 c9 ba
       0.34219196 0.019821957 0.24357529 -0.0015392799
000270 01 39 10 3e 21 ef a0 bc 3e 45 9f be 47 5e f9 3e
       0.14084245 -0.019645276 -0.31107515 0.4870474
000280 c6 58 fa bb ff f6 b9 bd 16 39 ee 3e f7 79 78 be
       -0.007639977 -0.09080314 0.46527928 -0.24265276
000290 c7 31 8a 3e ef b4 f8 3d cc f7 ca 3d bd 7f 30 3f
       0.26991102 0.12143885 0.09910545 0.68944913
0002a0 f4 93 f3 3c 4a 9c 98 3e b5 32 c1 3d 69 12 97 be
       0.029733635 0.2980674 0.094335 -0.29506233
0002b0 42 af 3c 3e af dc af 3c 07 56 83 bd ee 10 a8 3c
       0.1842623 0.021467535 -0.06412893 0.020515885
0002c0 c9 f3 6d 3e 4c db 03 bc 27 77 e0 bd d3 e6 0e be
       0.23237528 -0.00804789 -0.109602265 -0.1395524
0002d0 7c 86 8b bd 5c 08 2e 3e 39 e0 21 3e 7c 03 da be
       -0.0681276 0.16995376 0.1580819 -0.42580783
0002e0 86 8a 97 bd ab ff 3e 3e 57 7d 69 bc b5 11 99 3e
       -0.07399468 0.18652217 -0.014251075 0.29896322
0002f0 8b af 1f 3d 4f 27 fa 3d 5d 02 d5 bc 9f 14 44 3e
       0.03898577 0.12214529 -0.026002103 0.19148491
000300 41 17 9a 3b 4f e6 ad 3d 19 13 12 3d 3e a7 93 3c
       0.004702479 0.084911935 0.035662744 0.018024083
000310 91 7f 63 3d 8f a9 51 3e 61 9f fd 3d d9 41 28 be
       0.05554158 0.20474838 0.12383915 -0.16431369
000320 80 c6 6e 3e eb 1f f6 3d 35 20 3d 3e 26 13 85 3d
       0.23317909 0.120178066 0.18469317 0.06497793
000330 c1 39 6b bb 48 4a 2f 3e d0 60 14 bd db bf 8c 3e
       -0.0035892578 0.1711818 -0.03622514 0.27490124
000340 a3 cb c8 3c 1f 6a 24 3e 66 cb 3d be 07 4b 8c be
       0.024511164 0.16056107 -0.18534622 -0.2740099
000350 0d 8a 09 3f aa 45 52 3d 99 1f 07 3f ca e8 f5 3c
       0.53726274 0.051335968 0.5278259 0.030018229
000360 51 a5 a1 3e 5c 41 83 3e f7 c9 8d 3e 77 89 b4 bd
       0.3157144 0.25635803 0.2769315 -0.08815282
000370 d5 b8 cd 3d 67 4e 2a be 25 42 dc bd 00 91 ae 3e
       0.100450195 -0.1663147 -0.107548036 0.34095
000380 7b 31 ea 3d f6 43 12 be 91 b4 e7 3e 0e 62 86 be
       0.11435219 -0.14283738 0.4525495 -0.26246685
000390 0b 3b 6b 3e fe c9 a7 3d 06 90 fe 3d ba 26 31 3f
       0.22971742 0.08192824 0.12429814 0.6919972
0003a0 76 82 e4 bb e8 12 8b 3e f5 66 6b 3d 8c e1 0a be
       -0.00697356 0.27162862 0.057471234 -0.13562602
0003b0 fc 11 a6 3e 76 5a e3 bd 53 8e 47 be fe 4f f6 3d
       0.32435596 -0.111012384 -0.19487886 0.12026976
0003c0 0f 04 62 3e 20 7f 02 3e 03 ae 3f bd 74 76 7a be
       0.2207186 0.12743807 -0.04679681 -0.24459249
0003d0 d7 84 d0 3d 0b 0e 10 be 27 60 f9 3d ac 19 b9 be
       0.10181587 -0.14067857 0.12176543 -0.361524
0003e0 5b 09 ec bd 90 d8 5f be 04 d0 94 3c 46 f8 bd 3c
       -0.11525222 -0.21859956 0.018165596 0.023189675
0003f0 7c e0 d3 3d a8 85 84 3e 28 28 69 3e 73 72 be 3c
       0.10345551 0.25883222 0.22769225 0.023247933

fc2.bias f4 [64]
000000 34 c5 1a be f4 93 18 be 29 70 19 be 1d f6 74 bd
       -0.1511429 -0.1490019 -0.14984192 -0.059805024
000010 d8 9f 41 3e 68 de b0 ba de 37 e7 bc 0b e8 7a 3c
       0.18908632 -0.0013494017 -0.028224882 0.015314112
000020 60 b8 57 3e 63 4e a6 bc 64 7e 98 bd 9a f5 f7 bd
       0.21066427 -0.02030105 -0.07445982 -0.12107392
000030 01 b0 09 be 49 65 bb 3d 80 32 9d bd 4b 7e cd bd
       -0.13446046 0.09150178 -0.07675648 -0.10033854
000040 38 dc 00 bd e3 40 cd bb 19 df 05 bc 9c b6 7f 3d
       -0.031460017 -0.0062638386 -0.008170866 0.06243001
000050 f1 e5 db bd e8 0b fb bc a6 43 17 be f5 37 98 3e
       -0.10737217 -0.030645326 -0.147719 0.29730192
000060 75 bf b3 bd 94 1f 03 be c8 f1 db bd 1e e7 dc be
       -0.08776752 -0.12805015 -0.107394755 -0.43145078
000070 99 87 12 3d 3b 5a 34 be a3 28 20 3d 30 38 af 3c
       0.035773847 -0.17612545 0.039101254 0.021389097
000080 6b e4 49 be 66 f1 46 3e bd 73 bb 3d 81 d4 e5 bd
       -0.19716041 0.19428024 0.09152935 -0.112221725
000090 a5 32 cd bd 60 f9 ea bd 71 b3 9b be f3 1c 43 bd
       -0.10019425 -0.11473346 -0.3041034 -0.04763503
0000a0 a0 98 8c bd db 40 f8 bd 60 52 43 bd 03 03 2d 3d
       -0.068650484 -0.12121745 -0.04768598 0.0422392
0000b0 6f 4c 11 bd e8 7b c8 3d 6c df f3 3c 33 48 b5 3e
       -0.035473283 0.09789258 0.029769622 0.35406646
0000c0 b2 24 fc 3c 8c a2 c1 bd 50 55 77 3e d9 89 0c be
       0.030779216 -0.094548315 0.24153638 -0.1372446
0000d0 2e 2f b6 3e da ff 41 3b f7 ff a1 bd 10 03 86 3e
       0.3558287 0.0029601962 -0.079101495 0.26174212
0000e0 56 14 16 be 3f 13 4c 3d d1 44 ec bd 31 0b cb 3d
       -0.14656195 0.049823042 -0.11536563 0.09914244
0000f0 6b 5f cc bd 50 99 1e be b6 24 ff 3c d7 05 19 3e
       -0.09979137 -0.15488172 0.031145435 0.14943634

fc3_1.weight f4 [32, 64]
000000 ac 98 71 3e 6d 82 83 3e 5c c7 8c 3e 73 89 a9 3e
       0.23593396 0.25685444 0.2749585 0.33112678
000010 92 97 fb 3d c9 f8 c3 3d 47 7a 83 3e 51 7a 8a 3e
       0.12284769 0.095689364 0.25679228 0.27046445
000020 ac d0 0f 3f 25 56 62 bf dc 1e 42 3e 7d eb 92 bd
       0.56177783 -0.88412696 0.18957084 -0.07173822
000030 17 e3 08 3e fe cd 1d 3e eb 44 07 3e 04 6c 66 3e
       0.13367878 0.15410611 0.13209884 0.22502142
000040 44 a1 73 3e ac 0d 1c bf c4 fd 2b 3e 07 74 16 3e
       0.23791987 -0.6095836 0.16796023 0.14692698
000050 89 bd 0f 3e 57 18 88 3e 8e 3b b9 3e bb b7 bf 3e
       0.14037146 0.2658107 0.3617825 0.37444863
000060 70 fb 5d 3e 9e d6 e7 3d 56 95 9e 3e 14 f1 8c bf
       0.21677947 0.11320232 0.3097331 -1.1011071
000070 af 87 00 3e 66 c1 6d 3e 46 fa b1 3e 71 f0 72 3e
       0.12551759 0.23218307 0.34761256 0.23724534
000080 f6 5e 1e bf c8 c4 3b 3e df 79 5b 3e 1a 41 dc bd
       -0.6186365 0.18336785 0.21433209 -0.10754605
000090 9a 05 b1 3e 52 f9 95 3e 48 8f c5 3e 9e ea 34 3e
       0.34574586 0.2929178 0.38585877 0.17667624
0000a0 8f 34 a5 3e 8e 22 b0 3e 53 6d a0 3e 2a 50 6c bf
       0.32266662 0.34401363 0.31333408 -0.9230982
0000b0 13 3a c2 3c cc f3 05 bd b9 13 d7 3d e9 cb 5f bf
       0.023709333 -0.032703206 0.10501809 -0.8742052
0000c0 92 5e 7c 3d f0 8b 6f 3e 12 5e 93 bf d0 1d 66 3e
       0.061613627 0.23393226 -1.1513083 0.2247231
0000d0 7b 70 3c bf cc b1 8a 3e 3b 38 83 3e 1f 62 52 be
       -0.7360913 0.27088773 0.25628838 -0.20545243
0000e0 34 68 f0 3e fa fa 8b 3e 72 37 89 3e 07 fa 91 bf
       0.469545 0.27339917 0.26800114 -1.1404427
0000f0 9a 82 40 3e 6d 4f 99 3e 85 6a 5b 3e c4 9f a0 3d
       0.1879982 0.2994341 0.21427353 0.07842973
000100 d2 7d b6 3e ce 6d 7e 3e 1b 1a c3 3e ff 16 a6 3e
       0.35642868 0.24846575 0.38105854 0.3243942
000110 93 0a 14 3c ee 07 f1 3d c9 3f 3c 3e eb 17 1e 3e
       0.009035724 0.117690906 0.18383707 0.15438811
000120 d2 bd e9 3e 89 f6 6c bf 13 0d 22 3e 60 b5 34 bd
       0.45652634 -0.9256368 0.158253 -0.044118285
000130 d7 0b 91 3e 9a 88 e6 3d 6f f6 9d 3e b0 df 85 3e
       0.28329346 0.112565234 0.30852076 0.26147223
000140 ef 0e 23 3e 5d 2f 02 bf ac 06 82 3e 3a c3 bd 3d
       0.15923665 -0.5085352 0.25395715 0.09265752
000150 c3 eb 33 3e 23 b6 a4 3e a1 c5 a2 3e 07 3e 92 3e
       0.17570405 0.3217021 0.31791404 0.28562948
000160 bb 05 1c 3e 56 0a a9 3d ee bb 8a 3e 1b c5 80 bf
       0.15236561 0.082539245 0.27096504 -1.0060152
000170 1e d4 f8 3d e5 a3 86 3e 6e 94 6a 3e 38 d4 2c 3e
       0.12149833 0.26296917 0.22908184 0.1687783
000180 c5 b5 26 bf 63 42 02 3c 71 f6 db 3d 85 87 ff 3d
       -0.6512111 0.007950398 0.10740364 0.1247702
000190 5d 35 41 3e b4 ba 10 3e ff f7 f6 3e 12 5b 92 3e
       0.18868013 0.14133722 0.4823608 0.28585106
0001a0 f5 9f 2f 3e 8b 0e 05 3e ca fb 39 3e 11 db 83 bf
       0.17150863 0.12993829 0.18162456 -1.0301229
0001b0 8b 57 a8 be 60 1a 2f 3c 3f 10 bb 3d 52 ff 63 bf
       -0.3287929 0.010687441 0.09133958 -0.8906146
0001c0 16 5e 08 3e 93 c9 bb 3d 5a e5 c4 bf fb a6 9e 3e
       0.13317141 0.091693066 -1.5382493 0.3098677
0001d0 8a 61 a2 bf d6 83 b2 3e 82 11 41 3e 47 ce 9f be
       -1.2686017 0.34866208 0.18854335 -0.31212065
0001e0 2c 24 11 3f 52 06 c1 3e 43 85 77 3e 70 bb e7 bf
       0.5669582 0.37700135 0.24171929 -1.8104076
0001f0 f5 23 4d 3e 3a 8c a2 3e 1d 49 80 3e f0 ee 94 3d
       0.20033248 0.3174761 0.2505578 0.07272136
000200 d4 e3 de bd 54 7f bc bd 28 6c c9 bd 94 63 4e 3d
       -0.108832985 -0.092039734 -0.09835082 0.050387934
000210 78 b4 bc 3d 88 6a 17 3d f4 88 30 3d 6c c7 a6 3d
       0.09214109 0.03696683 0.04309936 0.081435055
000220 4c 08 af 3d aa dd 98 3d b8 27 8f 3d c0 8a 0a 3d
       0.085465044 0.07464154 0.069899976 0.03382373
000230 44 23 84 3d 86 a8 af bd 7e b2 a5 bd d8 b2 09 3d
       0.06452039 -0.08577065 -0.08090685 0.033617824
000240 68 5b 9f 3c 24 0e e1 bd de 7e ba bd 98 cb cb bd
       0.019452766 -0.10989025 -0.09106229 -0.09950942
000250 44 52 cb 3d 56 5f a7 3d e6 be 86 bd 88 80 9a 3c
       0.099278 0.08172481 -0.0657938 0.018860117
000260 08 87 eb bc 2a 8c de 3d 3c de e7 bd 26 c3 ba bd
       -0.028750911 0.10866578 -0.11321685 -0.09119253
000270 fe 22 d5 bd 8a fc 94 3d 44 f1 7f bd e4 79 98 3d
       -0.10407065 0.072747305 -0.06248595 0.07445124
000280 98 12 2d 3d 04 43 7a bd 84 ed 09 bd 90 32 4f bd
       0.04225406 -0.061099067 -0.03367378 -0.05058533
000290 98 e1 61 3d 18 54 4d bd c8 c1 2d 3d 00 4f 12 3c
       0.055146784 -0.050129026 0.042421132 0.008929968
0002a0 78 71 cc bd b6 ec a0 bd f2 80 b1 bd 86 24 86 3d
       -0.0998258 -0.07857649 -0.086671725 0.06549935
0002b0 b0 e1 dd 3c c0 fa 4d bb d6 6e 98 bd 8e a5 fd bd
       0.027085155 -0.0031429976 -0.07443015 -0.12385093
0002c0 98 30 35 bd 7c ed c3 bd 48 a2 fe bd a2 29 f4 bd
       -0.044235796 -0.09566781 -0.124332964 -0.11922003
0002d0 c0 37 a7 bd 36 de f8 bd 84 9a 1f 3d 8c 93 3f 3d
       -0.0816493 -0.121517584 0.038965717 0.04677157
0002e0 e8 5e 4e 3d c0 d8 fe bd ce 4c 9e 3d 88 a4 c7 3c
       0.05038348 -0.124436855 0.07729493 0.024370447
0002f0 12 e7 82 3d e8 ac fb bc b0 de 75 3d 54 cb f2 bd
       0.063917294 -0.030722097 0.060026824 -0.11855188
000300 f5 60 ca 3c f4 90 e9 3d d1 8e 12 3d ae 17 fc bd
       0.024704436 0.11404601 0.03578073 -0.12309204
000310 50 b4 3a bd b3 0a f3 bc 2a 65 94 3d ef 49 2b bd
       -0.045582116 -0.029668188 0.07245858 -0.041818555
000320 f7 0f 8f 3c 22 de 12 bd d7 ae 0f bc 80 12 23 bb
       0.017463667 -0.035856374 -0.008769712 -0.0024882853
000330 7e b0 34 bd 07 7e 06 be 40 a1 d5 3d c3 d8 b6 3d
       -0.04411363 -0.13134013 0.104311466 0.08928063
000340 a1 78 e9 3a 5d f2 2c 3e 65 1c d8 3d f4 ac bd bd
       0.001781244 0.16889329 0.10552291 -0.09261504
000350 55 e0 b0 bd 4a 0e 70 be 2c 22 4d 3d 1d b7 43 3c
       -0.08636538 -0.23442951 0.050081417 0.011945513
000360 80 41 fb bc 26 2a b1 3d 23 b7 64 bd 88 ff 2f 3e
       -0.030670881 0.08650617 -0.055838715 0.17187321
000370 54 56 2f be b6 3e 1f bd ac b8 d8 3d f0 cb bb bd
       -0.17122775 -0.038878165 0.10582098 -0.09169757
000380 61 1c d5 bc 31 03 fc 3c c1 80 00 be a4 61 9b bd
       -0.026014509 0.03076324 -0.12549116 -0.07586983
000390 8b fb af 3d 17 8a 8b bd 16 0f 84 bd c0 11 c9 bc
       0.085929 -0.06813448 -0.0644819 -0.024544597
0003a0 f0 8b 2b bd 2a f5 2b 3d 09 10 e2 3c 0e 1a 51 be
       -0.0418815 0.041981854 0.027595537 -0.20420095
0003b0 e8 ab 01 3e 90 64 f3 bd 92 e6 20 be 11 90 b4 bd
       0.12663233 -0.11884415 -0.15712956 -0.08816541
0003c0 a7 53 38 bd 1a ef 00 3e 14 d5 83 be 10 72 3e bc
       -0.045001652 0.1259121 -0.25748503 -0.011623874
0003d0 47 33 a1 3d 2a 59 a0 3d d5 fa cf bd cc 7b ad bc
       0.078711085 0.07829507 -0.10155264 -0.021177195
0003e0 67 d8 02 3e 7d fc 4e be 49 63 95 3c 61 a9 b0 bd
       0.12777863 -0.20213504 0.01823582 -0.086260565
0003f0 3d d3 a6 3c ba 8a 07 be d7 3c 6b 3d 8a f7 75 bd
       0.020364398 -0.13236514 0.05743107 -0.060050525

fc3_1.bias f4 [32]
000000 55 8c 42 3c 37 08 48 3d c8 18 b2 bc a2 4b 9c be
       0.011874278 0.04883596 -0.021740332 -0.30526453
000010 f8 cf 09 bd c3 27 0c 3e fd 40 36 3e b4 f2 a0 3e
       -0.0336456 0.13687043 0.17798229 0.31435168
000020 45 4d 1f 3d bf 84 39 3f 58 06 c2 3e 6e b0 b9 bd
       0.03889205 0.7246818 0.37895465 -0.090668544
000030 77 60 43 3e fb f2 d2 bc c5 0e b4 3e 0f a0 87 bd
       0.19079767 -0.025750628 0.35167518 -0.06622326
000040 9e 3d 9d 3d 96 7c 16 bd cf 30 2c 3f e3 39 cd 3e
       0.07677768 -0.03673991 0.67261976 0.40083227
000050 3a 2c a6 bd 4b 12 a2 3d a0 80 04 bd 54 b2 ab 3e
       -0.08113904 0.07913645 -0.03234923 0.3353449
000060 b8 db ca bc 3e 73 c5 bd f5 73 c2 bc f2 5f c8 bd
       -0.024762973 -0.09641121 -0.023736933 -0.09783925
000070 84 2e 3a 3d 3b 7e 2e be b3 e9 d1 bd 4c 56 70 3b
       0.045454517 -0.1704034 -0.10249653 0.003667253

fc4_1.weight f4 [1, 32]
000000 83 6b f5 be 42 de ef be 0a 8d fc bd b7 b2 0e 3e
       -0.47933587 -0.46849257 -0.123315886 0.13935362
000010 a3 20 b5 bf 88 bc 42 3f 9f e8 1a 3f 20 68 fa 3f
       -1.4150585 0.76068926 0.605112 1.9563026
000020 c5 37 11 bf 59 5e 02 40 76 f5 03 40 57 4b 10 bf
       -0.5672572 2.0370085 2.0618567 -0.5636496
000030 85 a2 10 3f d5 34 15 bf d8 72 04 40 75 f7 e7 be
       0.56497985 -0.5828374 2.0695095 -0.45305982
000040 47 54 d8 be 96 e6 fd be e4 2e f9 3f 41 ec f8 3f
       -0.422518 -0.49589986 1.9467435 1.9447099
000050 ec 03 ca be b7 38 cf be 09 34 03 3e 04 1c fb 3f
       -0.39456117 -0.40472957 0.12812819 1.9617925
000060 77 8f 06 bf bf 66 13 bf e4 c7 0b bf 51 60 26 bf
       -0.5256266 -0.57578653 -0.54601884 -0.6499072
000070 fe d6 24 bf 17 46 e3 be 79 ac f6 be 1e ab c1 be
       -0.6439055 -0.44389412 -0.4817846 -0.37825865

fc3_2.weight f4 [32, 64]
000000 06 09 94 3d 9c 67 ad bd db 6f c4 bd 4b 4b 4c bd
       0.072282836 -0.084670275 -0.09591647 -0.049876492
000010 fb eb d0 bd 5c a6 52 3b e4 21 c2 bd a0 79 eb bb
       -0.1020126 0.0032142615 -0.094791204 -0.0071861297
000020 d0 21 8c bc e2 3d c6 bd 7c cb a0 bd d8 cc 5f 3d
       -0.017105967 -0.09679772 -0.078513116 0.054638714
000030 2c f8 27 bd 19 4a fc bd bb 3a bc 3d 27 eb 6a bd
       -0.04100816 -0.123188205 0.091908894 -0.057353165
000040 aa 90 2a 3c 40 de cd 3d d2 be 72 3d 89 cb db bd
       0.010410467 0.100521564 0.05926401 -0.107321806
000050 36 58 ce 3d 28 af 03 bd 19 2e cb 3c e4 b1 4e 3d
       0.10075419 -0.032149464 0.024802255 0.05046262
000060 f1 59 8a 3c 24 fa ae 3d f1 d8 67 bd cc 40 be 3d
       0.01688859 0.08543804 -0.056603376 0.09289703
000070 ac bb a2 3d 17 b0 01 be c9 ba 5c bd a9 02 ce 3d
       0.07945952 -0.12664829 -0.05388907 0.10059101
000080 84 02 be bd ea c5 0c be c1 18 8b 3d c4 6a 34 3d
       -0.092778236 -0.13747373 0.06791831 0.044047132
000090 d3 ac d5 3b b5 27 be 3d 5e 0e 99 bb ea 43 e3 3d
       0.0065208464 0.09284917 -0.004670902 0.11096938
0000a0 5f d9 c3 bd db c4 ff bd 16 f4 03 bd fa cf e0 3d
       -0.095629446 -0.12488719 -0.0322152 0.109771684
0000b0 18 e1 da bd e4 3a 53 3d 48 1a 03 3d 5c cd 58 bd
       -0.106874645 0.051569834 0.032007486 -0.05293022
0000c0 c1 b0 dd bd f0 bc b7 3c 5b fb 5c 3c e5 d7 a3 bc
       -0.10824729 0.02242896 0.013487662 -0.020000407
0000d0 49 98 4d 3c 96 fe 8b 3d 63 54 dc bd 0a 4b dd bd
       0.012548515 0.06835668 -0.10758283 -0.10805328
0000e0 ad 10 16 bd 70 5e 93 bc a9 77 5c bd 7a 08 3b 3c
       -0.036636997 -0.017989367 -0.053825054 0.011415595
0000f0 5a 73 c4 bd 95 04 f0 3d 60 da 58 bd 31 9f a1 bd
       -0.09592314 0.11719624 -0.052942634 -0.078916915
000100 aa a4 65 be 51 b6 c7 3c 0f 46 16 be 48 52 89 be
       -0.22426096 0.024378927 -0.14675163 -0.26820588
000110 05 8d 7c 3d 33 78 8d bd db 04 0e 3e ac c3 39 3e
       0.061657924 -0.06907692 0.1386904 0.18141049
000120 a2 80 51 3e e1 64 df 3e 36 e6 b5 3d a4 52 30 bd
       0.20459226 0.43631652 0.088818 -0.043047562
000130 48 65 51 bd 7d d4 5e 3c e5 6e 35 3d 15 39 bb bd
       -0.05112198 0.013600466 0.04429521 -0.09141747
000140 6c 91 9f 3d 41 d9 3e be 10 55 cd 3d e3 b0 9f 3d
       0.07791409 -0.18637563 0.1002599 0.0779741
000150 fd 59 b9 bd 92 c1 ef bd 58 a4 96 be 0b 6d c2 3d
       -0.09050367 -0.117068425 -0.2942226 0.094934545
000160 e4 6f 1e bd f0 ac d2 bd ee bb 83 3d 46 18 71 bd
       -0.038680926 -0.102868915 0.06432329 -0.05886104
000170 fb 9d aa 3c 85 09 21 bd 98 74 b4 bd fc a2 23 3d
       0.020827284 -0.03931572 -0.08811301 0.039950356
000180 3b aa e3 bd 94 10 bd 38 42 82 a6 3d a8 52 6a 3d
       -0.11116453 9.01531e-05 0.081303135 0.057207733
000190 e1 6a c5 3c da 4c 98 be 0c 05 6a be 7f a3 e3 bd
       0.024098815 -0.29746133 -0.22853488 -0.11115169
0001a0 61 8e 5a 3d 6f bd 21 bd cc 6e 6d be b9 30 29 3e
       0.05335844 -0.0394873 -0.23186797 0.16522492
0001b0 04 b7 ad ba e0 be e6 3b 3c 88 8a 3c 55 9a 82 3e
       -0.0013253395 0.007041797 0.016910665 0.2550837
0001c0 4f 9d 32 3e a9 b4 dd 3d a2 8a f9 bd 47 d4 5e 3d
       0.17442821 0.10825474 -0.12184645 0.054401662
0001d0 ee 8b 4a 3e 5e f6 39 be ff e0 0c 3e 7f 06 e7 be
       0.19779941 -0.18160388 0.13757704 -0.45122144
0001e0 ba 36 7e 3d b0 3e d6 3d f7 16 26 be 7e 7d 27 3e
       0.06206391 0.104611754 -0.16219698 0.16356465
0001f0 03 c8 d1 3d 6b 63 f3 bd be a5 ff 3d 6f f0 e6 3d
       0.10243227 -0.11884197 0.12482785 0.11276328
000200 4a bb d3 3d 2f 56 dc 3d 74 bd 6a bd 86 b4 92 be
       0.10338457 0.10758626 -0.057309583 -0.28653353
000210 d3 69 8d bc 0a a3 d4 bd bc 70 01 3e 84 d3 f4 bd
       -0.017262375 -0.1038266 0.12640661 -0.11954406
000220 bd 0a f4 be 1e 10 06 3e 4b 16 3d 3d 76 61 83 3c
       -0.47664443 0.13092086 0.04616384 0.016037684
000230 05 f0 d6 3d 18 ef dd bd 34 4f c5 bd 00 7a 04 3e
       0.10494999 -0.10836619 -0.096342474 0.12937164
000240 f3 4b 8c bd 56 dd fb be ca 6e 0f bd dd 68 c5 bd
       -0.06850424 -0.49192303 -0.035017766 -0.09639142
000250 b1 2d f5 3d 28 f5 59 3e 23 69 ab 3d 7f da 6f 3e
       0.119716056 0.21284926 0.083696626 0.23423193
000260 9c c2 b6 3c 14 e2 db bd b2 ca b9 bd 6d 41 d6 be
       0.022309594 -0.1073648 -0.09071864 -0.4184679
000270 5a 62 ec 3d c2 06 0f bd 6b 64 cb 3c fc 57 dc bc
       0.115421966 -0.034918554 0.024828156 -0.026897423
000280 b0 e0 d4 be 8c f5 f8 3d 57 08 91 bd a7 5d 78 3c
       -0.41577673 0.12156209 -0.07081669 0.015159047
000290 a5 11 b4 be f2 a2 1d 3e 4c e9 aa bd ab fa 46 be
       -0.35169712 0.1539419 -0.08345279 -0.1943156
0002a0 d6 4b 36 bd c2 9f 0a be bb 51 40 3d 54 99 4d 3e
       -0.044505917 -0.13537505 0.046952944 0.20078021
0002b0 d0 e0 fc 3e 70 9c a1 3d 9e bc 06 bd 59 fb 92 3c
       0.49390268 0.07891166 -0.032894723 0.017942118
0002c0 65 9b af bd 01 51 0b be 45 46 17 3e 95 17 2d 3d
       -0.08574561 -0.1360512 0.147729 0.042258818
0002d0 52 98 59 3e 37 1e 6d 3d e9 8c 1b 3e e3 53 75 bf
       0.21249512 0.057890143 0.15190472 -0.95831126
0002e0 38 0f aa 3d 79 95 06 be 29 29 ca bd 3b 5c 90 3f
       0.08303684 -0.13142957 -0.09871132 1.1278147
0002f0 aa ec 8f bd cf bd fe bc 65 d6 98 be 6f 30 1d 3e
       -0.07027562 -0.031096367 -0.2985107 0.15350507
000300 10 eb 19 3e e3 ce 72 3e f1 3f de 3d a0 b3 b7 3d
       0.15031075 0.23711734 0.108520396 0.089698076
000310 8f 98 2d bd 71 80 58 3e ec ce b3 3d 1c 29 a2 3d
       -0.04238182 0.21142747 0.087797016 0.07917997
000320 6f 53 06 bf 25 56 dc be 68 4b 4f be aa 51 da 3d
       -0.5247106 -0.43034473 -0.20243609 0.106601074
000330 3a 64 af 3c 49 f0 90 bd 5d 7d 9a 3c f2 98 b6 bd
       0.021410096 -0.07077081 0.018858606 -0.08915891
000340 d9 80 52 bb ab 17 e9 3e 01 03 39 3e 6b 78 af bc
       -0.0032120256 0.4552587 0.18067552 -0.021419724
000350 ab 3a f7 bd 67 3c 3b bd c3 ae d9 3d f5 74 f2 bd
       -0.12071737 -0.0457119 0.10629036 -0.11838714
000360 98 fb ac bd e6 68 8c bd 76 ae 37 bd b5 3b 10 3e
       -0.08446425 -0.06855945 -0.044844113 0.14085276
000370 c9 30 b3 3d 53 f6 8a bc 20 f7 50 3d a8 74 0d bc
       0.087495394 -0.01696316 0.051016927 -0.00863377
000380 f1 0f 10 be 6d 64 1c 3d a1 a3 0a 3e b8 3f 52 bd
       -0.14068581 0.03818171 0.13538982 -0.0513303
000390 cc b2 aa 3d 45 db ce bb da b9 64 3d f0 f4 9b 3e
       0.08334884 -0.00631276 0.055841304 0.3046031
0003a0 8e 5b 32 bc 30 c1 df 3b d5 b2 d1 3d d9 7b 3e 3c
       -0.010886086 0.0068284497 0.10239188 0.011626207
0003b0 69 75 c0 bd e8 ec cc bc a6 13 4b 3e 60 e0 12 be
       -0.09397394 -0.02501531 0.19831714 -0.14343405
0003c0 2b 3d 89 3e 43 18 c9 3d 5e 9f e6 be e7 39 a6 bd
       0.2680448 0.09819081 -0.45043463 -0.08116513
0003d0 45 bd f0 3d 5d 59 88 bd ad ce cb bd d2 8d 0a be
       0.1175485 -0.0665767 -0.0995153 -0.13530663
0003e0 15 9e 68 b9 62 7a 9e bd 7d 27 a1 bd 23 cd c2 3c
       -0.00022184134 -0.077381864 -0.0786886 0.023779457
0003f0 d0 17 86 3e ba cb bc 3c 58 88 b5 3d 0f 0e 38 bc
       0.26190042 0.023046363 0.08863896 -0.011233821

fc3_2.bias f4 [32]
000000 6a ae 01 3d 0b 2f 6e 3d 10 0f 27 bc b6 29 d7 3b
       0.031660475 0.058150332 -0.010196462 0.0065662516
000010 fb 9c ac bd b8 5d 8f 3e e0 d1 1d 3d 48 03 6a 3c
       -0.08428379 0.2800119 0.03853023 0.014283009
000020 99 0f f8 3d 35 0a 95 3d 0d 98 5a 3e 02 2f 5d bd
       0.1211235 0.072773375 0.21347065 -0.05399991
000030 b8 59 e4 bd 18 ad a1 bd 56 f7 57 3e b7 b3 6f bd
       -0.11149925 -0.07894343 0.21090445 -0.058521
000040 04 32 32 bd 9b 16 59 3e f9 17 9b 3c a7 7c 6b 3d
       -0.04350473 0.2120003 0.01893233 0.057491925
000050 05 ba 33 bd 3d 1b 3e 3e 3c 88 99 3e 1f 69 06 3e
       -0.043878574 0.18565078 0.2998675 0.13126038
000060 03 48 8d 3d ba da 82 3d a7 1a bc bb a2 72 ea 3d
       0.06898501 0.06389375 -0.005740482 0.11447646
000070 b6 55 9d 3d 0d e8 83 bd bf e1 a0 bc 10 b7 68 3e
       0.07682364 -0.064407445 -0.019638894 0.22726083

fc4_2.weight f4 [4, 32]
000000 28 0c fd bb e0 ae 08 3f 80 8d 27 bf 8d 5a 11 bf
       -0.0077223964 0.5339184 -0.65450287 -0.56778795
000010 44 71 d1 3c 77 4c 06 3f 49 05 a0 be 46 75 13 3e
       0.025566705 0.52460426 -0.31254032 0.14400205
000020 9b ba 5e 3e bc 12 2d 3d e9 b0 32 bd 28 de ac 3e
       0.21750872 0.042254195 -0.043625746 0.33763242
000030 b6 23 24 be a4 8d 34 be 7d 8a 2a bf 60 59 0c 3e
       -0.16029248 -0.17632157 -0.66617566 0.13705969
000040 9e d0 42 3d 95 97 ac bd 2c 33 58 3e 97 19 db 3d
       0.047562234 -0.084273495 0.2111327 0.1069824
000050 87 a0 31 3e a2 8c b3 3e 9e 47 29 be f4 40 c4 bd
       0.17346393 0.35068232 -0.16531226 -0.09582701
000060 1c 02 87 3d 23 ce 0c be c0 17 4c bc 84 bb fa 3d
       0.06592199 -0.1375051 -0.012456834 0.12242797
000070 e3 ba 1c be e8 3a 92 be c3 21 c9 be 91 54 ea 3d
       -0.15305667 -0.28560567 -0.3928357 0.11441911
000080 cb 7d 06 be b4 31 f0 3e b6 af 26 bf f6 55 38 bf
       -0.13133924 0.4691292 -0.65111864 -0.72006166
000090 ae fc de 3e 1c 0b 76 3f 0f 21 a1 3d 89 92 8f 3f
       0.43552154 0.961107 0.078676336 1.1216594
0000a0 f0 48 b5 be 63 a1 08 3e 73 8f 70 be 83 3a 13 3e
       -0.3540721 0.13342814 -0.23492222 0.14377789
0000b0 a1 e3 61 3e 3d 4c 08 be 89 91 0c 3e 5c 28 81 3e
       0.2205949 -0.13310333 0.13727392 0.25226104
0000c0 db 93 87 3e 99 29 28 be ef 7a 1a 3e d2 8e e6 3d
       0.26479992 -0.16422118 0.15085958 0.112577096
0000d0 09 c3 ed be 6e c7 c0 3c 9e 34 21 bd d3 61 b5 be
       -0.46437863 0.023532595 -0.03935682 -0.35426196
0000e0 36 77 0a be 49 6d 6b be bc 63 9e 3e b6 0f c8 be
       -0.13522038 -0.22990908 0.30935466 -0.39074486
0000f0 e6 b6 35 bf 67 90 49 3e 17 4d d6 be 35 fe 49 be
       -0.70982206 0.19683991 -0.4185569 -0.19725879
000100 b4 08 ae bd 21 54 2d bf a3 f3 36 3e d1 2b 88 3f
       -0.08497754 -0.67706496 0.17866378 1.0638372
000110 2d d6 07 bf df a7 bb bf 21 14 0b bd d5 6a eb bd
       -0.5306118 -1.4660605 -0.033954743 -0.11494986
000120 09 25 5e 3d 6c 60 86 be 0b 5d 4b be c7 27 00 bf
       0.05423454 -0.2624544 -0.19859712 -0.50060695
000130 f5 14 a5 bc c4 27 b7 bd ff 6d 2c 3f 1f 2a a4 be
       -0.020151595 -0.089431316 0.6735534 -0.32063386
000140 66 40 63 be b5 bb 09 3f a1 6e 8a be 4a b6 b3 3d
       -0.22192535 0.53802043 -0.27037528 0.08775003
000150 06 be d3 3d 86 c1 9e be 0b 80 ba 3e 7c a2 02 3f
       0.103389785 -0.31007022 0.36425814 0.5102918
000160 2f 2f 09 3d bb 56 3a 3f 9c ef ab 3d 20 21 b4 3e
       0.033492263 0.7278859 0.08395311 0.35181522
000170 c2 48 f8 3e 25 8a 90 3d 0a 49 75 3e 9b 2b 87 be
       0.4849301 0.07057599 0.23953643 -0.26400456
000180 e6 a6 d5 3d 3b 46 65 3e d5 0c 14 3f 04 cf 92 be
       0.10432224 0.22390072 0.5783208 -0.28673565
000190 c6 9e cf 3c 58 4a eb 3e 0d 7d 89 3e 74 75 71 bf
       0.025344264 0.45955157 0.2685322 -0.94319844
0001a0 ce 14 41 3e 50 3f 98 3d 0f 92 d8 3e 70 2c 87 3e
       0.18855593 0.07433951 0.42298934 0.2640109
0001b0 a4 76 1c 3d f4 8f 2e bd e8 fa b2 3c c3 9d 66 be
       0.038199082 -0.042617753 0.021848157 -0.22521119
0001c0 ea e8 75 be 3a f0 aa be b1 3f 4e 3e c9 5e f7 3d
       -0.24014631 -0.33386403 0.20141484 0.12078626
0001d0 32 3b b5 3e af e8 52 3e 51 85 f1 be ae 77 32 be
       0.35396725 0.20596574 -0.47172025 -0.17428467
0001e0 21 d8 1c 3d 62 8d c2 be 41 90 bb be 1c d3 87 3d
       0.038292054 -0.37998492 -0.36633494 0.06632063
0001f0 ba b1 ac 3e 25 7a a1 3e 92 0d e8 3e f3 90 37 3f
       0.33729345 0.315385 0.45322853 0.7170555

fc4_2.bias f4 [4]
000000 dd 1e 5b bd 94 38 28 3d 11 e5 a5 3d bf a8 26 3e
       -0.05349623 0.041069582 0.081003316 0.16275309
