Lander_Gifs/Checkpoints_for_report/checkpoint_Rainbow_Dueling_PER_2000.pth (torch_old, 37914 bytes, 11 tensors)

fc1.weight f4 [64, 8]
0	0x3ae182e5	0.0017205147
1	0x3e2b0763	0.16702037
2	0xbe808cf2	-0.25107533
3	0xbf024357	-0.50884
4	0x3e753b2c	0.23948354
5	0x3d1b11b1	0.03785867
6	0x3e21489f	0.15750359
7	0x3e9dffda	0.30859262
8	0xbcefadd9	-0.029257702
9	0x3dd23601	0.10264207
10	0xbbc868c2	-0.0061160037
11	0xbdf5d69b	-0.12003823
12	0xbea3d965	-0.32001796
13	0xbef84400	-0.4848938
14	0xbeba36ac	-0.36369836
15	0x3e6fb49c	0.23408741
16	0x3e823ef8	0.25438666
17	0x3dc1468a	0.094372824
18	0xbe17d13c	-0.1482591
19	0xbf0080ab	-0.5019633
20	0x3eef37b9	0.467222
21	0x3ead97f1	0.33904985
22	0x3e17a4ce	0.14808962
23	0x3eaa9f76	0.33324784
24	0x3dcc2733	0.09968414
25	0xbea54a09	-0.32283047
26	0x3ef0daa1	0.470418
27	0xbefb47bc	-0.49078166
28	0xbeed3a36	-0.46333474
29	0xbe483612	-0.19551876
30	0xbe3b957f	-0.18318747
31	0x3e871122	0.2638026
32	0xbe5fb65c	-0.21846908
33	0xbf0ddf6a	-0.5541903
34	0xbeaf6e6c	-0.34263933
35	0xbf082330	-0.5317869
36	0x3d18562f	0.037191566
37	0x3e65d53c	0.22444624
38	0x3e175a25	0.14780481
39	0x3dc2c244	0.095097095
40	0x3e237ee0	0.15966368
41	0xbe4a71fd	-0.19770046
42	0x3e800c30	0.25009298
43	0xbefc2667	-0.4924805
44	0xbeee5c10	-0.46554613
45	0xbe773753	-0.24142198
46	0x3e8bb599	0.27286986
47	0x3e0e5ddb	0.1390299
48	0x3d2d6075	0.042328317
49	0xbcd46d11	-0.025930913
50	0x3e0e5308	0.13898861
51	0x3e8d25df	0.27567956
52	0x3dc8f734	0.09812775
53	0x3e010907	0.126011
54	0x3eb81082	0.35950094
55	0xbeb364a8	-0.35037732
56	0x3d523cba	0.051327445
57	0xbe14b747	-0.1452304
58	0xbe69728d	-0.22797604
59	0xbebe23a5	-0.3713657
60	0x3e9a6721	0.30156806
61	0x3ddb0358	0.10693997
62	0xbbe8200c	-0.0070838984
63	0x3df39701	0.11894036
64	0x3c830647	0.015994204
65	0xbd8c4b46	-0.06850295
66	0x3e2d6300	0.16932297
67	0xbd3175e7	-0.04332533
68	0x3b0f2107	0.0021839754
69	0x3f265e21	0.6498738
70	0x3d521626	0.051290654
71	0xbea33429	-0.31875733
72	0x3d96a68e	0.073559865
73	0x3e953cd1	0.29147962
74	0x3e8f5fcb	0.28002772
75	0x3ebcf56d	0.36905995
76	0xbef9a0fd	-0.48755637
77	0xbeccf498	-0.4003036
78	0xbe2fae79	-0.171564
79	0xbe80a22c	-0.25123727
80	0xbe7dca15	-0.2478412
81	0x3ec8dea0	0.3923235
82	0x3ebcd45e	0.36880773
83	0xbf2837e1	-0.65710264
84	0xbd6a3e96	-0.057188593
85	0xbe0c2156	-0.13684592
86	0x3e4a90db	0.1978182
87	0xbe0ea031	-0.13928296
88	0x3eae1a12	0.34004265
89	0xbe4a2607	-0.19741069
90	0x3e3b7299	0.18305434
91	0x3c5f9d9d	0.013648418
92	0x3ed7fb79	0.42184046
93	0x3ea0b073	0.3138462
94	0xbe60e2c6	-0.21961507
95	0xbe4a47fe	-0.19754025
96	0x3eadbc63	0.3393279
97	0x3efdda7e	0.4958076
98	0xbdeea34a	-0.11652239
99	0xbf44de9b	-0.7690217
100	0x3ec035d3	0.37541065
101	0x3e7b395d	0.24533601
102	0x3dfde458	0.12397069
103	0xbd45c3f9	-0.048282597
104	0xbf04d080	-0.51880646
105	0xbe2ac916	-0.1667827
106	0xbebd09bd	-0.36921492
107	0xbecad172	-0.3961292
108	0x3ccdada3	0.02510721
109	0x3b9b1610	0.0047328547
110	0x3d450023	0.048095834
111	0x3e49bc32	0.19700697
112	0xbe642e12	-0.222832
113	0x3f0b1950	0.543355
114	0x3e7199a5	0.23593767
115	0xbf412de9	-0.7546068
116	0xbea7e377	-0.3279073
117	0x3d639702	0.055563934
118	0x3e5132a8	0.2042948
119	0xbe45b38a	-0.1930677
120	0x3eab4d00	0.33457184
121	0x3d9d6cdc	0.07686779
122	0xbd80650e	-0.06269275
123	0xbd92bc24	-0.07164791
124	0xbe86630c	-0.26247442
125	0xbf1e4aa0	-0.6183262
126	0xbe07ce09	-0.1326219
127	0xbe4504eb	-0.19240157
128	0x3c2dc969	0.010607102
129	0xbec39529	-0.38199738
130	0x3de46c75	0.11153499
131	0xbe11ba1c	-0.14231151
132	0xbef77b76	-0.4833638
133	0xbd8fb159	-0.07016248
134	0x3e995a0b	0.2995151
135	0xbd8c133d	-0.06839607
136	0x3cb5a6fc	0.02217435
137	0x3d1fc646	0.039007448
138	0x3d9e639f	0.07733845
139	0xbc512cc4	-0.012767021
140	0x3e981111	0.2970052
141	0x3f245490	0.6419153
142	0x3ececdc1	0.40391353
143	0xbdfd4303	-0.12366297
144	0xbeb470cf	-0.35242316
145	0xbe6b3266	-0.22968444
146	0x3c8018c2	0.015636805
147	0xbdc31950	-0.09526312
148	0xbf0cfdf6	-0.55075014
149	0xbef92e27	-0.48668024
150	0xbeaaae12	-0.3333593
151	0xbe895049	-0.26819065
152	0xbe0e38b2	-0.13888815
153	0x3ddd52b6	0.108067915
154	0x3e4834d9	0.1955141
155	0xbf4d7b01	-0.80265814
156	0x3d9f69bf	0.07783841
157	0xbe7597db	-0.2398371
158	0x3dc71ecd	0.09722672
159	0xbe6cf809	-0.23141493
160	0x3d5d6832	0.054054447
161	0xbeb517c6	-0.353697
162	0xbee007b9	-0.43755892
163	0xbf3a8467	-0.7285828
164	0x3e78de91	0.24303652
165	0xbbcc5b37	-0.0062364596
166	0x3dafed8f	0.085902326
167	0x3d01ba80	0.031672
168	0xbf0164c0	-0.5054436
169	0xbe3c262b	-0.18373935
170	0x3ebfc641	0.37455943
171	0xbe9e6459	-0.30935934
172	0x3e3800ea	0.17969099
173	0x3e179ca1	0.14805843
174	0xbeca6ed3	-0.39537677
175	0x3e73ed67	0.2382103
176	0x3dc094a0	0.09403348
177	0xbe2bdcd0	-0.16783452
178	0x3eb79f94	0.35863936
179	0xbf285e98	-0.6576934
180	0xbe2a00bf	-0.16601847
181	0xbe27e4ab	-0.16395824
182	0x3e9e8dba	0.30967504
183	0x3d17ffb8	0.037109107
184	0x3e17c912	0.14822796
185	0xbe603645	-0.21895702
186	0xbe229ac1	-0.15879346
187	0xbef3d642	-0.47624403
188	0xbf1e6476	-0.6187204
189	0x3d3e1b2c	0.046412632
190	0x3e8d9318	0.27651286
191	0x3e50bb76	0.2038401
192	0xbf079735	-0.529651
193	0xbda899b4	-0.082324415
194	0xbed53082	-0.4163857
195	0xbedfd79a	-0.43719178
196	0xbe9dd25d	-0.30824557
197	0x3cb8b7fb	0.022548666
198	0xbc8c2e02	-0.017111782
199	0xbd2279fa	-0.039667107
200	0xbb7d0c48	-0.0038612057
201	0x3e40b20f	0.18817924
202	0xbca337a0	-0.019923985
203	0xbf08bd48	-0.5341382
204	0x3e825221	0.25453284
205	0x3f34247a	0.7036816
206	0x3c63d1de	0.013905017
207	0x3eb456c1	0.35222438
208	0x3e447919	0.1918682
209	0xbda44dba	-0.08022638
210	0x3e07949e	0.13240287
211	0xbe9b4fe8	-0.303344
212	0xbdd74e76	-0.10513012
213	0xbdb260a4	-0.08709839
214	0x3d58dfe8	0.05294791
215	0x3d9602ed	0.07324777
216	0xbe854d5e	-0.2603559
217	0xbea0aba9	-0.31380966
218	0x3ead7e71	0.3388553
219	0xbeeea94d	-0.4661354
220	0x3d32582a	0.04354111
221	0x3ea67da3	0.32517728
222	0x3deaa98d	0.114581205
223	0x3c89cf72	0.01682255
224	0xbf1176ee	-0.568221
225	0x3e02e31f	0.12781952
226	0xbf0bb9c5	-0.54580337
227	0xbe2d2e00	-0.16912079
228	0xbeaee1a4	-0.34156525
229	0x3d366686	0.044531368
230	0x3e026573	0.12734012
231	0x3e88dd28	0.2673123
232	0x3d21e767	0.039527323
233	0x3e2895d4	0.16463405
234	0x3e805afb	0.25069413
235	0xbf2584fa	-0.6465603
236	0x3d5007c6	0.050788663
237	0xbe79e25b	-0.24402754
238	0x3e2a5d7e	0.16637227
239	0x3e740e2a	0.23833528
240	0x3cb77473	0.022394395
241	0x3dccee4d	0.1000639
242	0x3e05271a	0.13003197
243	0x3e1a8c58	0.150926
244	0x3ef29188	0.47376657
245	0xbee55261	-0.44789413
246	0x3f0f5978	0.55995893
247	0xbebfa262	-0.37428576
248	0xbe811266	-0.2520935
249	0xbe3c8d4f	-0.1841328
250	0xbed1d90c	-0.40985906
251	0xbd682f2b	-0.056685608
252	0x3e872fb4	0.26403582
253	0xbe1e9c53	-0.1548932
254	0xbdc72948	-0.09724671
255	0xbc918721	-0.01776463

fc1.bias f4 [64]
0	0xbddf6f03	-0.10909846
1	0xbd8d2614	-0.068920285
2	0x3e47aaaa	0.19498697
3	0xbbbffbf3	-0.005858892
4	0xbd877183	-0.066134475
5	0x3d6ac6ce	0.0573185
6	0x3edebfdb	0.4350575
7	0x3e690740	0.22756672
8	0x3e1f2571	0.15541627
9	0x3d3bd98a	0.04586176
10	0x3e6addcf	0.22936176
11	0xbe053ec1	-0.1301222
12	0x3d97a793	0.07405009
13	0xbcbbc94c	-0.022923134
14	0x3f05858a	0.5215689
15	0xbd821735	-0.06352083
16	0x3e633eb6	0.22191891
17	0xbdb1d827	-0.08683806
18	0x3ef783be	0.483427
19	0x3f26dee3	0.6518385
20	0xbe479cb3	-0.1949337
21	0x3deb2178	0.11480993
22	0xbe29f5d8	-0.16597688
23	0xbbb7f129	-0.0056134653
24	0xbd050d53	-0.03248341
25	0xbe40c8a9	-0.18826546
26	0xbbe57eac	-0.007003626
27	0x3e54d5ae	0.20784637
28	0xbe5529cd	-0.20816727
29	0x3e83fb32	0.25777584
30	0x3b4cb4cd	0.0031235695
31	0xbda02a82	-0.07820608
32	0x3c9a3788	0.018825307
33	0x3efdb722	0.49553782
34	0xbe4bb098	-0.19891584
35	0x3e9a765f	0.30168435
36	0x3da273ab	0.07932218
37	0x3ec547b3	0.38531265
38	0xbeabbe97	-0.33543846
39	0xbea5926b	-0.3233827
40	0x3ece6a27	0.40315363
41	0xbdfab1f1	-0.12240971
42	0x3d121303	0.035662662
43	0x3c9da613	0.01924423
44	0x3daad8aa	0.08342107
45	0x3e232ef0	0.15935874
46	0x3eb5ff9b	0.35546574
47	0x3e5c668b	0.21523492
48	0xbe8078c4	-0.25092137
49	0xbdbdd321	-0.09268785
50	0x3da98249	0.08276803
51	0x3e318c95	0.17338784
52	0xbc99fabe	-0.018796321
53	0x3ebc5de7	0.36790392
54	0xbc096e09	-0.008388051
55	0x3d7daf98	0.061935037
56	0x3f19e24a	0.60110915
57	0x3ea02112	0.3127523
58	0x3e802822	0.2503062
59	0x3e462346	0.19349393
60	0x3d864ca5	0.065575875
61	0xbd949966	-0.07255821
62	0x3e1f7400	0.15571594
63	0x3ecb7e3c	0.39744747

fc2.weight f4 [64, 64]
0	0x3d2ecb5c	0.042674407
1	0x3e00df31	0.12585141
2	0x3daed6c5	0.08537058
3	0x3eaa022f	0.3320479
4	0x3e50514a	0.2034351
5	0x3d9b4002	0.07580568
6	0xbe367985	-0.17819794
7	0x3d49254f	0.049107846
8	0x3e7a5203	0.24445347
9	0x3afa6bc4	0.0019105603
10	0x3d28c5dc	0.04120432
11	0x3e80d4f0	0.25162458
12	0x3ea1b8f4	0.3158642
13	0x3e648fa8	0.22320426
14	0x3d4c5d4b	0.04989366
15	0x3e7001fa	0.23438254
16	0x3ded3c5a	0.11583777
17	0x3ed206b0	0.41020727
18	0x3daa4a4b	0.083149515
19	0x3b63201e	0.0034656595
20	0x3e90898e	0.28229946
21	0xbc5d0345	-0.013489549
22	0x3eef0e18	0.4669044
23	0x3ecc837e	0.3994407
24	0x3e11660c	0.14199084
25	0x3e1a6ae9	0.15079845
26	0x3dd7c61a	0.10535832
27	0x3e260f4e	0.16216776
28	0x3e4a4917	0.19754444
29	0xbdd86d24	-0.10567692
30	0xbe193077	-0.14959894
31	0x3d69f0b2	0.05711431
32	0xbc26ff1b	-0.010192658
33	0xbe2d0cd0	-0.16899419
34	0x3e3ce73f	0.18447588
35	0xbd26ff75	-0.040770967
36	0x3d6b2768	0.057410628
37	0x3c85a84e	0.016315605
38	0x3d359d30	0.04433936
39	0x3ec00a72	0.3750797
40	0xbc462031	-0.012092636
41	0x3e932a17	0.2874305
42	0x3cc539e8	0.024075463
43	0xbd3b0a43	-0.045664083
44	0x3eebcf96	0.46056813
45	0x3e293c21	0.16526844
46	0x3e326247	0.17420302
47	0xbe8168c5	-0.25275245
48	0x3f225383	0.6340868
49	0xbdc73d06	-0.09728436
50	0xbcdeb987	-0.027188076
51	0xbe88cfda	-0.26721078
52	0xbdbc695e	-0.09199785
53	0x3e1db7be	0.15402123
54	0x3ee69238	0.4503343
55	0x3e7ea75a	0.24868527
56	0xbe523a96	-0.20530161
57	0x3ea42cf7	0.32065555
58	0x3e3a2d05	0.18181236
59	0x3ea209e5	0.31648174
60	0xbd44f69b	-0.048086744
61	0x3e2e0fdc	0.16998237
62	0xbc50e72a	-0.012750426
63	0x3cdf7b56	0.02728049
64	0xbd4eb9d5	-0.050470192
65	0x3df1d3ce	0.11807977
66	0x3da51dbf	0.08062314
67	0x3da59bde	0.0808637
68	0xbd66eaae	-0.05637615
69	0x3e5db693	0.21651678
70	0x3d57c47a	0.05267761
71	0x3e1905fe	0.14943692
72	0xbceee85f	-0.029163538
73	0xb9956e98	-0.00028501893
74	0x3d9d6b06	0.07686429
75	0x3e3a541a	0.18196145
76	0x3e20eef2	0.1571615
77	0x3be6dd39	0.0070454148
78	0xbdab41d5	-0.08362166
79	0x3d2f8990	0.0428558
80	0x3e0c998b	0.13730447
81	0x3e7cc019	0.24682654
82	0xbd596df5	-0.05308338
83	0x3d86d487	0.06583505
84	0x3ed0482d	0.40680066
85	0xbc57e042	-0.013176026
86	0x3e935a23	0.28779706
87	0xbda6f347	-0.0815187
88	0x3e26504e	0.16241571
89	0x3e4dea3e	0.20108888
90	0x3de67e0d	0.11254511
91	0x3e098343	0.13428979
92	0x3dc60068	0.09668046
93	0x3dec91d3	0.11551251
94	0xbe98294d	-0.2971901
95	0x3e4cdd32	0.20006254
96	0x3d032c51	0.032024685
97	0x3dd193f9	0.10233302
98	0x3e98b7bd	0.2982768
99	0xbd4ea925	-0.050454278
100	0x3ebdd31d	0.3707513
101	0x3d961a07	0.07329183
102	0x3daf4fca	0.085601404
103	0x3eccb2c6	0.39980143
104	0x3e1a14aa	0.15046945
105	0x3d8c41cf	0.068484895
106	0x3ca31d00	0.01991129
107	0xbe97a72c	-0.2961973
108	0x3e1bd15b	0.15216582
109	0x3e07d07e	0.13263127
110	0x3dea7415	0.11447922
111	0xbd3843d3	-0.044986557
112	0x3e40d8e0	0.18832731
113	0x3d203bd9	0.039119575
114	0x3d81c88e	0.06337081
115	0xbe3ee0a5	-0.18640383
116	0x3dee0334	0.11621705
117	0x3e424af1	0.189739
118	0x3dda72d2	0.106664315
119	0xbee3fcb3	-0.44528732
120	0x3ded3f5c	0.115843505
121	0xbe0c7905	-0.1371804
122	0x3d5fc020	0.054626584
123	0x3da33c49	0.07970483
124	0x3a10d662	0.00055251096
125	0x3e302ec1	0.17205335
126	0xbda44115	-0.08020226
127	0x3e05e289	0.13074698
128	0x3cdc45aa	0.026888687
129	0x3db69700	0.0891552
130	0x3d448bb2	0.047984786
131	0x3e364a81	0.17801858
132	0xbcb11bcb	-0.021619698
133	0x3e43696e	0.19083187
134	0x3db5f234	0.08884087
135	0xbda3be88	-0.07995325
136	0x3d018401	0.03162003
137	0xbca84211	-0.020539315
138	0x3e1cc531	0.15309598
139	0x3e9ce76b	0.30645308
140	0x3e0e024a	0.1386806
141	0x3dcc1963	0.0996578
142	0x3df1a17f	0.11798381
143	0x3eac76b8	0.33684325
144	0x3e6a9414	0.2290805
145	0x3db741e8	0.089481175
146	0xbcc337f7	-0.023830397
147	0xbda35086	-0.07974343
148	0x3edeb0d2	0.43494278
149	0xbd493032	-0.04911823
150	0x3ed0529a	0.4068802
151	0xbd513352	-0.051074333
152	0x3e2f88fb	0.17142098
153	0x3dda8363	0.10669591
154	0x3dec2415	0.115303196
155	0x3dd5ee99	0.104458995
156	0x3e0afc56	0.13572821
157	0x3c930e8a	0.017951269
158	0xbe53d1e3	-0.20685534
159	0x3e87ad0f	0.2649922
160	0x3bfca2d1	0.007709839
161	0xbdf01333	-0.11722412
162	0x3e8f0aea	0.27938014
163	0xbe540ab3	-0.20707206
164	0x3d513bdd	0.05108248
165	0x3d876260	0.066105604
166	0x3dcaf7cc	0.09910545
167	0x3e8c4ea0	0.27403736
168	0x3d81b132	0.063326254
169	0x3eaf9a83	0.3429757
170	0x3e182105	0.14856346
171	0xbe62601c	-0.22106975
172	0x3e64757b	0.2231044
173	0xbb989b75	-0.004657204
174	0xbd99052f	-0.07471692
175	0x3d35deee	0.044402055
176	0x3e6b015b	0.22949736
177	0x3d8f2218	0.06988925
178	0xbc1fd143	-0.009754482
179	0xbe47a3f8	-0.19496143
180	0xbd59ec0c	-0.053203627
181	0x3e00b603	0.12569432
182	0x3ddfcc7e	0.10927676
183	0xbeadb284	-0.3392526
184	0x3b4e9ea8	0.0031527672
185	0x3d95f403	0.07321932
186	0xbd48dc83	-0.04903842
187	0x3e4a2cea	0.19743696
188	0x3dd074f9	0.10178561
189	0x3e076ba4	0.13224655
190	0x3da00c99	0.07814903
191	0x3e48552c	0.1956374
192	0x3b8ca1d9	0.0042917547
193	0x3d9237be	0.07139538
194	0x3d871619	0.06596012
195	0xbd9d1e54	-0.076718
196	0x3ddb9a24	0.10722759
197	0x3e25ab71	0.16178681
198	0x3e5bdc91	0.21470858
199	0xbdebca4d	-0.11513195
200	0x3e88cb2b	0.26717505
201	0x3d999b57	0.07500332
202	0x3dafdb30	0.085867286
203	0x3e557a7d	0.20847507
204	0xbc9bd6a3	-0.019023245
205	0x3e267b48	0.16257966
206	0x3a0bd5a8	0.00053342665
207	0x3e80260a	0.25029022
208	0x3d910827	0.07081633
209	0x3e0176dc	0.12642998
210	0xbd48f6ba	-0.04906342
211	0xbe38a1f3	-0.18030529
212	0x3ef75d8a	0.48313552
213	0xbd6b94ba	-0.057514884
214	0x3e9cb5e2	0.30607516
215	0x3ddf4838	0.109024465
216	0x3e595d97	0.21227108
217	0x3e3dc161	0.185308
218	0x3d926a6d	0.07149205
219	0xbda7b09b	-0.08187982
220	0x3db30a7d	0.08742235
221	0xbe06a765	-0.13149793
222	0xbde1b0c2	-0.11020042
223	0x3e40c98f	0.18826889
224	0x3de5a88b	0.11213788
225	0xbd84c75c	-0.06483337
226	0x3eb48a19	0.3526161
227	0xbe19f3c4	-0.15034395
228	0x3e559d88	0.20860875
229	0x3e11035f	0.14161442
230	0x3dfe9006	0.12429814
231	0x3e8f9d67	0.28049776
232	0x3d2d6d18	0.042340368
233	0x3e7d03eb	0.24708526
234	0x3d491598	0.04909286
235	0xbe22e822	-0.15908864
236	0x3eadcf52	0.33947235
237	0xbccab557	-0.024744673
238	0x3dbe12c4	0.09280923
239	0x3e00bb0d	0.12571354
240	0x3e6350f8	0.22198856
241	0x3e03f297	0.1288551
242	0x3d1b17dd	0.037864555
243	0xbe23d595	-0.15999444
244	0x3e12a9cf	0.1432259
245	0xbd5cbc89	-0.05389074
246	0x3e69f684	0.22847944
247	0xbe823dca	-0.25437766
248	0xbd308efe	-0.043105118
249	0xbd825f85	-0.06365875
250	0x3cf04d98	0.029333875
251	0xbc92fb12	-0.017941985
252	0x3de859a3	0.11345222
253	0x3e846641	0.25859264
254	0x3e683185	0.2267514
255	0x3d91e7bf	0.0712428

fc2.bias f4 [64]
0	0xbd998ef2	-0.07497968
1	0xbde32399	-0.11090774
2	0xbe0289f7	-0.12747942
3	0x3d660ef4	0.056166604
4	0x3db771ec	0.08957276
5	0x3cbe341c	0.023218207
6	0x3b2afbc1	0.0026089998
7	0x3d4f67c9	0.050636087
8	0x3e54d00f	0.20782493
9	0xbcd59a1a	-0.026074458
10	0xbd816c73	-0.06319513
11	0xbdf17429	-0.11789734
12	0xbdd1ed1b	-0.102503024
13	0x3db1c9d4	0.08681074
14	0xbd228a80	-0.039682865
15	0x3bc3c065	0.005973863
16	0x3c1062a7	0.008812583
17	0xbd090298	-0.03344974
18	0x3c8948dc	0.016758375
19	0x3d8a56ad	0.06754813
20	0xbd838eb2	-0.06423701
21	0x3b735be9	0.003713364
22	0xbd79a432	-0.060947604
23	0x3e6a11b2	0.22858313
24	0xbd34b509	-0.04411796
25	0xbe031f94	-0.12805015
26	0xbdaf6599	-0.085643
27	0xbecd6ac9	-0.40120533
28	0x3da36a9a	0.07979317
29	0xbe133d7e	-0.14378926
30	0x3d3ee4ab	0.046604794
31	0x3d735284	0.059404865
32	0xbe5a98b6	-0.21347317
33	0x3dbe9ca5	0.09307221
34	0x3d6e3b75	0.05816217
35	0xbde5d481	-0.112221725
36	0xbd88d9ba	-0.06682153
37	0xbc098ce0	-0.008395404
38	0xbe30b62d	-0.17256995
39	0xbca569a3	-0.020191973
40	0xba3f874d	-0.0007306233
41	0xbd6b89df	-0.05750453
42	0xbd394ce4	-0.045239344
43	0x3dc94068	0.09826738
44	0xbc39f07f	-0.011348843
45	0x3dc87be8	0.09789258
46	0x3cea7aa7	0.028622938
47	0x3e8f3be2	0.27975374
48	0x3d8f64c4	0.070016414
49	0xbd804ad3	-0.062642716
50	0x3e8122fc	0.25222003
51	0xbe203545	-0.1564532
52	0x3e982b7f	0.29720685
53	0x3d403d16	0.046933256
54	0xbd8a28bc	-0.06746051
55	0x3e868927	0.26276514
56	0xbd44b923	-0.048028123
57	0x3d8f2b33	0.069906615
58	0xbdfdfc5c	-0.12401649
59	0x3df51879	0.119675584
60	0xbd9b6684	-0.07587913
61	0xbe094422	-0.13404897
62	0x3d3d817c	0.046266064
63	0x3e0e88c4	0.1391936

fc3_1.weight f4 [32, 64]
0	0x3e25672b	0.16152637
1	0x3e4e4c67	0.20146333
2	0x3e05cf7c	0.1306743
3	0x3e084a05	0.13309486
4	0x3dec9303	0.11551478
5	0x3da465d4	0.08027235
6	0x3e69943f	0.22810458
7	0x3e810091	0.25195745
8	0x3e5a6fd4	0.21331722
9	0xbef09694	-0.46989882
10	0x3e0b2df9	0.13591756
11	0xbd996c1b	-0.074913226
12	0x3e062880	0.13101387
13	0x3e020f48	0.12701142
14	0x3dae81f0	0.08520877
15	0x3e427041	0.18988134
16	0x3e59859f	0.21242379
17	0xbedd55ab	-0.43229422
18	0x3e0d8fa3	0.13824324
19	0x3e0d3286	0.13788804
20	0x3de15b33	0.11003723
21	0x3e72f30c	0.23725528
22	0x3e8b9b26	0.27266806
23	0x3e442e8a	0.19158378
24	0x3e38c2df	0.18043087
25	0x3de7d69e	0.11320232
26	0x3e8a9970	0.2707019
27	0xbf18aa97	-0.596353
28	0x3db0de95	0.08636204
29	0x3dc4381b	0.09581014
30	0x3e82a25a	0.2551449
31	0x3e6bfc10	0.23045373
32	0xbec7f38e	-0.39053005
33	0x3e33dfd5	0.17565854
34	0x3e2ca883	0.16861157
35	0xbddc411a	-0.10754605
36	0x3e571e6c	0.21007699
37	0x3e77fc16	0.24217257
38	0x3e49bf4d	0.19701882
39	0x3e28e76a	0.16494527
40	0x3e42c894	0.19021827
41	0x3e82eb07	0.25569937
42	0x3e9356ba	0.28777105
43	0xbf541a95	-0.8285306
44	0x3d92efa8	0.07174617
45	0xbd05f3cc	-0.032703206
46	0x3dd4a26f	0.10382544
47	0xbf51cee0	-0.8195629
48	0x3d2ad79a	0.04170952
49	0x3e587dfc	0.21141809
50	0xbf4e1906	-0.8050693
51	0x3e471966	0.19443282
52	0xbf551cb2	-0.8324691
53	0x3e3abf82	0.18237117
54	0x3e660b84	0.2246533
55	0xbd082f9f	-0.03324854
56	0x3dedd984	0.116137534
57	0x3e56266e	0.20913097
58	0x3e656e3e	0.22405335
59	0xbf721f91	-0.94579417
60	0x3d9c126d	0.07620702
61	0x3e604d06	0.21904382
62	0x3e48c679	0.19606961
63	0x3d8f4afb	0.06996723
64	0x3e8e05b7	0.27738735
65	0x3e451c6b	0.19249122
66	0x3e6b6c92	0.22990635
67	0x3dfad127	0.12246924
68	0x3bd70af0	0.006562583
69	0x3dcd1a2b	0.10014757
70	0x3e1df48c	0.15425318
71	0x3df737e0	0.12071204
72	0x3ec0aa84	0.37630093
73	0xbf01e612	-0.50741684
74	0x3dd6c14a	0.10486086
75	0xbd41b619	-0.047292802
76	0x3e89e9bf	0.26936147
77	0x3daaafab	0.08334287
78	0x3e8bd8cb	0.27313837
79	0x3e607edc	0.21923393
80	0x3df53ca8	0.1197446
81	0xbeb6e27d	-0.35719672
82	0x3e5c0837	0.21487509
83	0x3d854790	0.0650779
84	0x3e062156	0.13098654
85	0x3e955649	0.29167393
86	0x3e6df485	0.23237808
87	0x3e05f6f5	0.13082488
88	0x3df16411	0.11786664
89	0x3da90a56	0.082539245
90	0x3e69bb64	0.2282539
91	0xbf00231c	-0.5005357
92	0x3d8b6211	0.06805814
93	0x3e052c4a	0.13005176
94	0x3e0dbde9	0.13841976
95	0x3e2af3bc	0.1669454
96	0xbec26233	-0.37965545
97	0x3c2ddf73	0.0106123565
98	0x3dab1273	0.08353128
99	0x3dff8785	0.1247702
100	0x3d732d24	0.05936922
101	0x3da32a1a	0.079670146
102	0x3e88e409	0.26736477
103	0x3e8d2777	0.27569172
104	0x3cf64479	0.030061947
105	0x3d42a7e6	0.0475234
106	0x3e097d53	0.13426714
107	0xbf4b2829	-0.79358155
108	0xbdfb1b66	-0.12261085
109	0x3c2f1a60	0.010687441
110	0x3df8502a	0.12124665
111	0xbf5a30d8	-0.8523078
112	0x3de9cb17	0.114156894
113	0x3d8ac150	0.06775153
114	0xbf854ff3	-1.0415024
115	0x3e8b35e6	0.2718956
116	0xbf70f101	-0.9411774
117	0x3e877d9a	0.26463014
118	0x3e210c75	0.15727408
119	0xbe07f856	-0.13278326
120	0x3e23908d	0.1597311
121	0x3e95f547	0.29288694
122	0x3e399c07	0.18125926
123	0xbf98d438	-1.1939764
124	0x3e024c6f	0.1272447
125	0x3e7eb8af	0.24875139
126	0x3e7643e9	0.24049343
127	0x3dbe137e	0.092810616
128	0xbddee3d4	-0.108832985
129	0xbdbc7f54	-0.092039734
130	0xbdc96c28	-0.09835082
131	0x3d4e6394	0.050387934
132	0x3dbcb478	0.09214109
133	0x3d176a88	0.03696683
134	0x3d3088f4	0.04309936
135	0x3da6c76c	0.081435055
136	0x3daf084c	0.085465044
137	0x3d98ddaa	0.07464154
138	0x3d8f27b8	0.069899976
139	0x3d0a8ac0	0.03382373
140	0x3d842344	0.06452039
141	0xbdafa886	-0.08577065
142	0xbda5b27e	-0.08090685
143	0x3d09b2d8	0.033617824
144	0x3c9f5b68	0.019452766
145	0xbde10e24	-0.10989025
146	0xbdba7ede	-0.09106229
147	0xbdcbcb98	-0.09950942
148	0x3dcb5244	0.099278
149	0x3da75f56	0.08172481
150	0xbd86bee6	-0.0657938
151	0x3c9a8088	0.018860117
152	0xbceb8708	-0.028750911
153	0x3dde8c2a	0.10866578
154	0xbde7de3c	-0.11321685
155	0xbdbac326	-0.09119253
156	0xbdd522fe	-0.10407065
157	0x3d94fc8a	0.072747305
158	0xbd7ff144	-0.06248595
159	0x3d9879e4	0.07445124
160	0x3d2d1298	0.04225406
161	0xbd7a4304	-0.061099067
162	0xbd09ed84	-0.03367378
163	0xbd4f3290	-0.05058533
164	0x3d61e198	0.055146784
165	0xbd4d5418	-0.050129026
166	0x3d2dc1c8	0.042421132
167	0x3c124f00	0.008929968
168	0xbdcc7178	-0.0998258
169	0xbda0ecb6	-0.07857649
170	0xbdb180f2	-0.086671725
171	0x3d862486	0.06549935
172	0x3cdde1b0	0.027085155
173	0xbb4dfac0	-0.0031429976
174	0xbd986ed6	-0.07443015
175	0xbdfda58e	-0.12385093
176	0xbd353098	-0.044235796
177	0xbdc3ed7c	-0.09566781
178	0xbdfea248	-0.124332964
179	0xbdf429a2	-0.11922003
180	0xbda737c0	-0.0816493
181	0xbdf8de36	-0.121517584
182	0x3d1f9a84	0.038965717
183	0x3d3f938c	0.04677157
184	0x3d4e5ee8	0.05038348
185	0xbdfed8c0	-0.124436855
186	0x3d9e4cce	0.07729493
187	0x3cc7a488	0.024370447
188	0x3d82e712	0.063917294
189	0xbcfbace8	-0.030722097
190	0x3d75deb0	0.060026824
191	0xbdf2cb54	-0.11855188
192	0x3d00fe70	0.03149265
193	0x3def9452	0.11698212
194	0x3d33e60e	0.04392057
195	0xbdf5c4dd	-0.12000439
196	0xbd2678fa	-0.040642716
197	0xbcd9c40b	-0.026582738
198	0x3d990e0a	0.07473381
199	0xbd203f84	-0.039123073
200	0x3c8f0ff7	0.017463667
201	0xbd37d932	-0.044884868
202	0xbbbde5cd	-0.0057952167
203	0xbb231280	-0.0024882853
204	0xbd2b16fc	-0.041769966
205	0xbdff093e	-0.12452935
206	0x3ddbb508	0.10727888
207	0x3dc74235	0.09729425
208	0x3bb19639	0.0054195193
209	0x3e2d43dc	0.16920418
210	0x3ddc5ef5	0.10760299
211	0xbdb73f35	-0.08947603
212	0xbd85ecde	-0.065393195
213	0xbe6b4be3	-0.22978167
214	0x3d619067	0.055069353
215	0xbba8d3b1	-0.0051521887
216	0xbcb32acf	-0.021870999
217	0x3db12a26	0.08650617
218	0xbd4edf5f	-0.050505992
219	0x3e323f37	0.17406927
220	0xbe3457c2	-0.17611602
221	0xbd0a9675	-0.033834893
222	0x3deb2837	0.1148228
223	0xbda8c133	-0.08239975
224	0xbcd51c61	-0.026014509
225	0x3d14bd1a	0.036313154
226	0xbded1122	-0.115755334
227	0xbd9b61a4	-0.07586983
228	0x3dbe85b9	0.09302849
229	0xbd697ba6	-0.057002686
230	0xbd718355	-0.05896314
231	0xbcb12b35	-0.021627048
232	0xbd0228e4	-0.031777278
233	0x3d35e405	0.04440691
234	0x3d128b82	0.035777576
235	0xbe511a0e	-0.20420095
236	0x3e01abe8	0.12663233
237	0xbdf36490	-0.11884415
238	0xbe254b21	-0.1614194
239	0xbdb8bf84	-0.09020904
240	0xbd2c7a29	-0.04210869
241	0x3e0421bf	0.12903498
242	0xbe83d514	-0.25748503
243	0xbb809790	-0.0039243177
244	0x3da13347	0.078711085
245	0x3da239e0	0.07921195
246	0xbdc6fc3f	-0.09716081
247	0xbc40f3d2	-0.011776881
248	0x3e083e6c	0.13305062
249	0xbe5266f5	-0.20547087
250	0x3ce4464b	0.02786555
251	0xbdb0a961	-0.086260565
252	0x3cbb4ea0	0.02286464
253	0xbe00fb34	-0.12595826
254	0x3d6eac3a	0.058269717
255	0xbd628af4	-0.055308297

fc3_1.bias f4 [32]
0	0x3d00e87c	0.031471714
1	0x3d890e93	0.06692233
2	0xbcb218c8	-0.021740332
3	0xbe9bdf3c	-0.30443752
4	0x3d9965f9	0.07490153
5	0x3cbf873d	0.023379916
6	0x3d000b9e	0.03126108
7	0x3e63cda7	0.22246419
8	0x3d604385	0.05475189
9	0x3f0be135	0.54640514
10	0x3ebc39a4	0.36762726
11	0xbcffcbbd	-0.03122508
12	0x3d67cff3	0.0565948
13	0x3c190234	0.009338904
14	0x3ecb2d5f	0.39683053
15	0xbd7566c4	-0.059912458
16	0x3decb4d8	0.11557931
17	0xbb9da3a8	-0.004810769
18	0x3efd6809	0.49493435
19	0x3ec77b78	0.38961387
20	0xbcef2026	-0.029190134
21	0x3dcbc816	0.09950273
22	0xbd0480a0	-0.03234923
23	0x3e9d87cc	0.30767667
24	0xbc8a4027	-0.016876293
25	0xbdcb4495	-0.0992519
26	0xbcbb83a3	-0.022889918
27	0x3ce1d2ab	0.027566275
28	0x3dc4f4c2	0.09616996
29	0xbde009e7	-0.10939389
30	0xbda40bfc	-0.08010098
31	0x3d891c1f	0.06694817

fc4_1.weight f4 [1, 32]
0	0xbead4c41	-0.3384724
1	0xbe82a54f	-0.25516745
2	0xbdfc8d0a	-0.123315886
3	0x3e0d5a2b	0.13803928
4	0xbf69761e	-0.9119586
5	0x3dcf165a	0.10111685
6	0x3e3dda1e	0.18540236
7	0x3fe0d774	1.7565751
8	0xbecb2157	-0.39673874
9	0x3fe0e529	1.7569934
10	0x3fdef41c	1.7418246
11	0xbed2354c	-0.41056287
12	0x3e15f38c	0.14643687
13	0xbed0110e	-0.40638012
14	0x3fe31797	1.7741574
15	0xbe8a6be1	-0.2703543
16	0xbe89730b	-0.26845583
17	0xbeac339f	-0.33633134
18	0x3fd7415d	1.6816822
19	0x3fd55b6b	1.6668524
20	0xbe82e86d	-0.25567952
21	0xbe83caad	-0.25740567
22	0x3e033409	0.12812819
23	0x3fd64d9a	1.6742432
24	0xbeba7431	-0.36416772
25	0xbed65fcd	-0.41869965
26	0xbec6e203	-0.38844308
27	0xbebcef98	-0.36901546
28	0xbed83ed7	-0.42235443
29	0xbe9dcfb6	-0.30822533
30	0xbea4926a	-0.32142955
31	0xbe791faa	-0.24328485

fc3_2.weight f4 [32, 64]
0	0x3d940906	0.072282836
1	0xbdad679c	-0.084670275
2	0xbdc46fdb	-0.09591647
3	0xbd4c4b4b	-0.049876492
4	0xbdd0ebfb	-0.1020126
5	0x3b52a65c	0.0032142615
6	0xbdc221e4	-0.094791204
7	0xbbeb79a0	-0.0071861297
8	0xbc8c21d0	-0.017105967
9	0xbdc63de2	-0.09679772
10	0xbda0cb7c	-0.078513116
11	0x3d5fccd8	0.054638714
12	0xbd27f82c	-0.04100816
13	0xbdfc4a19	-0.123188205
14	0x3dbc3abb	0.091908894
15	0xbd6aeb27	-0.057353165
16	0x3c2a90aa	0.010410467
17	0x3dcdde40	0.100521564
18	0x3d72bed2	0.05926401
19	0xbddbcb89	-0.107321806
20	0x3dce5836	0.10075419
21	0xbd03af28	-0.032149464
22	0x3ccb2e19	0.024802255
23	0x3d4eb1e4	0.05046262
24	0x3c8a59f1	0.01688859
25	0x3daefa24	0.08543804
26	0xbd67d8f1	-0.056603376
27	0x3dbe40cc	0.09289703
28	0x3da2bbac	0.07945952
29	0xbe01b017	-0.12664829
30	0xbd5cbac9	-0.05388907
31	0x3dce02a9	0.10059101
32	0xbdbe0284	-0.092778236
33	0xbe0cc5ea	-0.13747373
34	0x3d8b18c1	0.06791831
35	0x3d346ac4	0.044047132
36	0x3bd5acd3	0.0065208464
37	0x3dbe27b5	0.09284917
38	0xbb990e5e	-0.004670902
39	0x3de343ea	0.11096938
40	0xbdc3d95f	-0.095629446
41	0xbdffc4db	-0.12488719
42	0xbd03f416	-0.0322152
43	0x3de0cffa	0.109771684
44	0xbddae118	-0.106874645
45	0x3d533ae4	0.051569834
46	0x3d031a48	0.032007486
47	0xbd58cd5c	-0.05293022
48	0xbdddb0c1	-0.10824729
49	0x3cb7bcf0	0.02242896
50	0x3c5cfb5b	0.013487662
51	0xbca3d7e5	-0.020000407
52	0x3c4d9849	0.012548515
53	0x3d8bfe96	0.06835668
54	0xbddc5463	-0.10758283
55	0xbddd4b0a	-0.10805328
56	0xbd1610ad	-0.036636997
57	0xbc935e70	-0.017989367
58	0xbd5c77a9	-0.053825054
59	0x3c3b087a	0.011415595
60	0xbdc4735a	-0.09592314
61	0x3df00495	0.11719624
62	0xbd58da60	-0.052942634
63	0xbda19f31	-0.078916915
64	0xbd0c8438	-0.03430578
65	0xbde44f37	-0.111479215
66	0xbdf7cc31	-0.12099493
67	0x3cd5742c	0.026056372
68	0xbd3a5d03	-0.04549886
69	0xbda2c83a	-0.079483464
70	0x3d41cb9e	0.047313325
71	0x3db008bc	0.08595416
72	0x3c3196ef	0.010839208
73	0xbd7f23d8	-0.062290043
74	0x3d60fcd9	0.054928634
75	0xbd3052a4	-0.043047562
76	0xbd91326c	-0.07089695
77	0xbd0c9151	-0.034318272
78	0xbd2f0ddc	-0.042737827
79	0x3dddce40	0.10830355
80	0xbd0e008b	-0.034668487
81	0xbde67f80	-0.112547874
82	0xbd3c9ae8	-0.046046168
83	0x3d0b5175	0.03401323
84	0x3d2b3c16	0.04180535
85	0xbdb8bb65	-0.09020118
86	0xbdcb5350	-0.09928
87	0xbd2bae5e	-0.041914336
88	0xbbc374e2	-0.0059648613
89	0xbdd2acf0	-0.102868915
90	0x3d397c03	0.045284282
91	0xbcda3559	-0.026636766
92	0x3d87eac9	0.066365786
93	0x3cd32d5c	0.025778465
94	0xbd019292	-0.03163392
95	0xbcc49711	-0.023997815
96	0x3d1060df	0.035248633
97	0xbda0ef72	-0.078581706
98	0xbd34b0a9	-0.04411379
99	0x3d6a52a8	0.057207733
100	0xbdfb40c2	-0.12268211
101	0xbd0dc317	-0.03460988
102	0x3c65e282	0.014031054
103	0xbd97c34a	-0.07410295
104	0x3d413495	0.047169287
105	0x3d4e59c5	0.05037858
106	0xbcf9fe53	-0.030516779
107	0xbd2dbebd	-0.04241823
108	0x3d6acaaf	0.0573222
109	0x3be6bee0	0.007041797
110	0xbdcc73e4	-0.09983042
111	0x3d8d0bfd	0.06887052
112	0x3de76c08	0.11299902
113	0x3dc2706d	0.094941
114	0xbd93b683	-0.07212546
115	0x3dd46255	0.10370318
116	0xbd724859	-0.059151027
117	0xbdcefe51	-0.10107101
118	0x3d9c48a8	0.076310456
119	0xbdb487e4	-0.088149816
120	0x3dd2deff	0.102964394
121	0x3dede43a	0.116157964
122	0xbdc42380	-0.095770836
123	0x3da4ebb5	0.0805277
124	0xbcf74627	-0.030184818
125	0xbd375da4	-0.044767037
126	0x3c4eb206	0.012615686
127	0x3d0de512	0.034642287
128	0xbc93d697	-0.01804666
129	0x3dd0cc01	0.10195161
130	0x3b65f947	0.0035091208
131	0xbd9a299d	-0.07527468
132	0x3d4cd6b4	0.050009444
133	0xbd97fac4	-0.074208766
134	0x3df4bf6c	0.11950573
135	0xbd982a0d	-0.074298956
136	0x3e36fb95	0.17869408
137	0x3ea81842	0.32831007
138	0x3e0b4401	0.1360016
139	0x3c836176	0.016037684
140	0x3dc1d065	0.09463576
141	0xbc000ebe	-0.007816015
142	0xbc3ff910	-0.011717096
143	0x3cd434cc	0.025904082
144	0xbd1d9858	-0.038475364
145	0xbe360714	-0.17776138
146	0x3d464d59	0.04841361
147	0xbdd6bd1f	-0.10485291
148	0x3d90e677	0.07075208
149	0x3dfb66dc	0.12275478
150	0x3d9e1cf0	0.07720363
151	0x3f02c169	0.5107637
152	0xbd09c921	-0.033639077
153	0xbddbe214	-0.1073648
154	0xbdcf7689	-0.10130031
155	0xbe33f3dc	-0.17573494
156	0x3d670da8	0.056409508
157	0x3da3fe34	0.0800747
158	0x3d5df8dc	0.05419241
159	0xb78e1373	-1.6936776e-05
160	0xbec61806	-0.38690203
161	0x3e30270c	0.17202395
162	0x3d9ec898	0.07753104
163	0x3c785da7	0.015159047
164	0xbe46b2e8	-0.19404185
165	0x3d7399de	0.05947291
166	0xbc8d2f24	-0.017234392
167	0xbe3878b7	-0.18014799
168	0x3be563f8	0.0070004426
169	0xbdbbf6ab	-0.091779076
170	0xbd3891a9	-0.045060787
171	0x3e6a9cda	0.22911397
172	0x3eb49122	0.35266978
173	0x3da19c70	0.07891166
174	0xbd9bcd50	-0.076075196
175	0x3df743ba	0.12073465
176	0xbd96dd03	-0.073663734
177	0xbdf46082	-0.1193247
178	0xbc06fcf4	-0.00823902
179	0x3d868356	0.06568019
180	0x3e732f83	0.23748593
181	0xbc9025b4	-0.017596103
182	0x3e255e46	0.16149244
183	0xbf43c9f9	-0.7648006
184	0x3d17a471	0.037022058
185	0xbdf9c597	-0.121958904
186	0xbd57b764	-0.05266513
187	0x3f013b3c	0.5048101
188	0xbd582b4c	-0.052775666
189	0xbd8d56ce	-0.06901322
190	0xbe573dea	-0.21019712
191	0x3e29ffa7	0.1660143
192	0x3c92017e	0.017822977
193	0x3de7390e	0.11290179
194	0x3da21f1c	0.0791609
195	0x3cd5c255	0.026093641
196	0xbb56a126	-0.003274986
197	0x3de255f9	0.11051554
198	0x3dc5c2db	0.09656306
199	0x3d20b22d	0.03923242
200	0xbda7b074	-0.08187953
201	0xbc82f717	-0.015986962
202	0xbde80d2f	-0.113306396
203	0x3dda51aa	0.106601074
204	0xbd55159a	-0.052022554
205	0xbc8525d4	-0.01625339
206	0xbc86c7e1	-0.016452732
207	0xbe118c40	-0.14213657
208	0xbc9e9b6c	-0.01936122
209	0x3e5a98e6	0.21347389
210	0x3ddcdabc	0.10783908
211	0xbcfa2849	-0.030536788
212	0xbe173205	-0.14765175
213	0xbdc48067	-0.09594803
214	0x3d11b6dd	0.035574783
215	0x3d569236	0.05238553
216	0xbdcb1021	-0.09915186
217	0xbd8c68e6	-0.06855945
218	0xbd809d80	-0.06280041
219	0x3d37fcbe	0.044918768
220	0x3d9b2af7	0.07576554
221	0xbd83a259	-0.0642745
222	0x3dd06196	0.10174863
223	0xbd8f9d7a	-0.07012458
224	0xbdcc7113	-0.09982505
225	0x3d83b46f	0.06430899
226	0x3de4fc87	0.11180978
227	0xbd523fb8	-0.0513303
228	0x3d7d5a13	0.06185348
229	0xbe08ec83	-0.13371472
230	0xbde70c82	-0.112816826
231	0x3e028c98	0.12748945
232	0xbc4604d8	-0.012086116
233	0xbdaea14d	-0.085268594
234	0xbc88a97f	-0.016682385
235	0x3e1e5692	0.15462711
236	0xbc5f99ad	-0.013647479
237	0xbcccece8	-0.02501531
238	0x3dab26b8	0.083569944
239	0xbd926b1c	-0.07149336
240	0x3df99261	0.12186123
241	0x3ca69c94	0.020338334
242	0xbe17985b	-0.14804213
243	0xbd3d6fd9	-0.046249244
244	0x3e020232	0.1269615
245	0xbd79852c	-0.06091802
246	0xbd0efd34	-0.034909442
247	0xbd21a93a	-0.039468028
248	0xbbd00075	-0.0063477107
249	0xbd69eaba	-0.05710862
250	0xbd3fece6	-0.046856783
251	0x3c5e94f1	0.013585315
252	0x3e019fb1	0.12658574
253	0xbdab6ee5	-0.08370761
254	0x3cf07729	0.029353695
255	0xbc68e6c9	-0.01421518

fc3_2.bias f4 [32]
0	0x3d01ae6a	0.031660475
1	0xbde7fe51	-0.11327804
2	0x3cc22896	0.023700994
3	0x3cee5c1a	0.029096652
4	0x3cb616b1	0.022227617
5	0x3dbc1149	0.091829844
6	0x3cfa4430	0.030550092
7	0x3dbc508b	0.0919505
8	0xbdb04258	-0.08606404
9	0x3e167358	0.14692438
10	0x3e071150	0.13190198
11	0xbe08a8dd	-0.13345666
12	0xbdddd8c7	-0.108323626
13	0xbda1ad18	-0.07894343
14	0x3e88291e	0.2659387
15	0x3d52dae9	0.0514783
16	0x3d8ff162	0.07028462
17	0x3e1a9fa8	0.15099967
18	0x3cc4fb6c	0.024045669
19	0x3d9a0e9c	0.07522318
20	0xbda38120	-0.07983613
21	0x3e2dcac6	0.16971883
22	0x3e95bf24	0.2924739
23	0x3dd0002d	0.101562835
24	0x3d9654fe	0.0734043
25	0xbcc80f10	-0.024421245
26	0x3d44e7ef	0.04807275
27	0x3d550ac3	0.052012216
28	0x3ce5e438	0.028062925
29	0xbce8511c	-0.028358988
30	0x3d84e3bd	0.0648875
31	0x3e2c857d	0.16847797

fc4_2.weight f4 [4, 32]
0	0xbbfd0c28	-0.0077223964
1	0x3d890b04	0.06691554
2	0xbeaed7e4	-0.34149086
3	0xbeaac167	-0.3335068
4	0xbd336f9c	-0.04380761
5	0x3ee5fee0	0.44921017
6	0xbe254343	-0.1613894
7	0x3d47d8a4	0.04879059
8	0x3e40244f	0.1876385
9	0x394d255d	0.00019564242
10	0x3d5ceefe	0.05393886
11	0x3e1299e7	0.14316522
12	0xbe2754ec	-0.16340989
13	0xbe348da4	-0.17632157
14	0xbe5d9d81	-0.21642114
15	0x3daaf52c	0.08347544
16	0xbc6a4063	-0.014297578
17	0xbdcf9e6f	-0.10137641
18	0x3e48a6d1	0.19594885
19	0x3db5b063	0.08871534
20	0x3dda7edb	0.10668727
21	0x3ea2a8c1	0.31769374
22	0xbe3e5606	-0.18587503
23	0xbda77a3c	-0.08177611
24	0x3d69b259	0.05705485
25	0x3d68dc98	0.056851
26	0xbd0a17d4	-0.03371413
27	0x3e0a858e	0.1352751
28	0xbe88a759	-0.26690176
29	0xbdcc4bd2	-0.09975399
30	0xbe585e77	-0.21129785
31	0x3d22420b	0.039613765
32	0xbe067dcb	-0.13133924
33	0x3dffb494	0.124856144
34	0xbebb2cca	-0.3655761
35	0xbe726318	-0.23670614
36	0x3ea9d80f	0.33172652
37	0x3ef4bebe	0.47801775
38	0x3e0dc120	0.13843203
39	0x3f96f28d	1.1792771
40	0xbe006cc8	-0.12541497
41	0x3e245c01	0.16050722
42	0x3d084255	0.033266384
43	0xbdf86da2	-0.12130286
44	0x3e5eb26b	0.21747749
45	0xbe084c3d	-0.13310333
46	0x3cb17ae6	0.021665048
47	0x3dfdbbbc	0.12389323
48	0x3e63912b	0.22223346
49	0xbe00d884	-0.12582594
50	0x3e2876b6	0.16451535
51	0x3e06f2a4	0.13178498
52	0xbec7081a	-0.38873369
53	0x3d8ad16c	0.06778225
54	0xbd150598	-0.036382288
55	0xbed3446e	-0.41263145
56	0xbe0ddb0f	-0.13853095
57	0x3c81dab0	0.015851349
58	0x3e8ddd04	0.27707684
59	0xbed83202	-0.42225653
60	0xbeaf1cd8	-0.34201694
61	0x3dbd3df4	0.09240332
62	0xbe26d1d1	-0.16290976
63	0xbd84a620	-0.06476998
64	0xbdae08b4	-0.08497754
65	0x3d0bd7f9	0.034141514
66	0x3d51a7b7	0.051185336
67	0x3f0a55d7	0.5403723
68	0xbeb38837	-0.3506486
69	0xbf212324	-0.62944245
70	0xbe1d2743	-0.15347008
71	0xbd8772b3	-0.06613674
72	0x3ceb1abf	0.028699277
73	0xbe81b112	-0.25330406
74	0xbe8da2cf	-0.27663276
75	0x3ca1ef72	0.019767497
76	0xbcbe9eb5	-0.023269037
77	0xbdb727c4	-0.089431316
78	0x3ef70a34	0.48249972
79	0xbe38a074	-0.18029958
80	0xbe2b9685	-0.16756637
81	0x3ecb0a33	0.3965622
82	0xbe6c7a99	-0.23093642
83	0x3d8d72b2	0.06906642
84	0x3e15aabd	0.14615913
85	0xbea1f83e	-0.31634706
86	0x3eb6cc80	0.35702896
87	0x3f022f13	0.5085308
88	0x3cf73f49	0.030181544
89	0x3e1d2739	0.15346994
90	0x3dae575a	0.08512755
91	0x3eb83fb6	0.35986108
92	0x3ece49d6	0.40290707
93	0x3dc17dfa	0.09447856
94	0x3d9df623	0.077129625
95	0xbe4ba36a	-0.19886556
96	0x3dd5a6e6	0.10432224
97	0x3c9b3dc7	0.018950356
98	0x3e81ad26	0.25327414
99	0xbe6f0c87	-0.23344623
100	0xbb543ba6	-0.0032384186
101	0x3ec4af45	0.3841497
102	0x3da3c849	0.07997186
103	0xbf81d3c8	-1.0142756
104	0x3e1c3b49	0.1525699
105	0x3cd4c1ac	0.025971256
106	0x3e278fca	0.16363445
107	0xbd34b0f6	-0.044114076
108	0x3d296496	0.04135569
109	0xbd2e8ff4	-0.042617753
110	0xbd1cac15	-0.038250048
111	0xbe4e5c7b	-0.20152466
112	0xbe52deb2	-0.20592764
113	0xbe37c66f	-0.1794679
114	0x3defc2ea	0.11707099
115	0x3dd40b79	0.10353751
116	0x3e57ea79	0.21085538
117	0x3e33826a	0.17530218
118	0xbeecb01c	-0.4622811
119	0xbe2d7067	-0.1693741
120	0x3d3d7e79	0.04626319
121	0xbd67de30	-0.05660838
122	0xbe8fbda6	-0.28074378
123	0x3d0aeb0c	0.033915564
124	0x3e90ad21	0.28257087
125	0x3dac6907	0.0841847
126	0x3e04f4b0	0.12983966
127	0x3f1ce9d8	0.6129432

fc4_2.bias f4 [4]
0	0xbd9f7cfc	-0.07787511
1	0x3dff9f03	0.12481501
2	0x3d993a8c	0.0748187
3	0x3e01f59e	0.12691352
